scripts/shell/checkpoint/coselfplay/1.pt (torch, 955673 bytes, 48 tensors)

module.act_dist.operator.bias f4 [1, 13]
0	0xbdc0654b	-0.0939432
1	0x3d92d104	0.07168773
2	0xb9a1382c	-0.00030750164
3	0xbd54efd1	-0.05198652
4	0xbd57b8a3	-0.052666318
5	0x3bc725dc	0.0060775112
6	0xbcd15ce8	-0.025556996
7	0xbd857bf7	-0.06517785
8	0x3c7354a5	0.014851724
9	0x3c878538	0.016543016
10	0xbd8c6570	-0.06855285
11	0xbde842ed	-0.1134089
12	0x3d26655a	0.040624

module.act_dist.operator.weight f4 [1, 13, 128]
0	0xbd83d5dd	-0.064372756
1	0x3e6cdc7a	0.2313098
2	0x3da034f0	0.07822597
3	0x3e5a0adf	0.2129321
4	0x3d587277	0.052843537
5	0x3d8dd41e	0.06925224
6	0xbc848287	-0.016175522
7	0xbc9e905f	-0.01935595
8	0x3d9c332d	0.076269485
9	0x3c75df3e	0.015006838
10	0x3dc053d1	0.09390987
11	0xbdb83fee	-0.089965686
12	0x3dbe37b3	0.092879675
13	0x3bee69ca	0.0072757946
14	0xbe11c5c2	-0.14235595
15	0x3da78890	0.08180344
16	0x3e211a91	0.1573279
17	0x3d236bef	0.039897855
18	0xbe08a125	-0.13342722
19	0xbcf96cc9	-0.03044738
20	0xbe0eef99	-0.13958587
21	0x3e12196f	0.14267515
22	0xbcb4db13	-0.022077119
23	0x3d6cd4bb	0.057820063
24	0xbd94a13d	-0.07257316
25	0xbe23144d	-0.15925713
26	0xbd2a880f	-0.04163366
27	0xbd913ee4	-0.070920736
28	0xbe056275	-0.1302584
29	0x3c43e759	0.011957013
30	0xbc3ad29c	-0.011402752
31	0xbdc1248f	-0.09430801
32	0xbddca625	-0.10773877
33	0xbd8775fc	-0.066143006
34	0xbe14d6d8	-0.14535081
35	0xbcac3d4c	-0.021025322
36	0xbdead928	-0.114672005
37	0x3d2ca1b4	0.0421464
38	0x3e3549f2	0.17703989
39	0x3e0b5309	0.13605894
40	0xbcb14530	-0.021639436
41	0x3df8ae5e	0.12142633
42	0x3de4fd00	0.111810684
43	0x3db27ff4	0.08715811
44	0xbe458a83	-0.1929112
45	0x3e417cfc	0.18895334
46	0xbdfe07d4	-0.12403837
47	0x3c6de86d	0.014520747
48	0x3e2c33c6	0.16816625
49	0xbe425f7c	-0.18981737
50	0xbdd52b93	-0.10408702
51	0x3d7f6242	0.062349565
52	0x3add7e5f	0.0016898623
53	0x3e13b49a	0.14424363
54	0x3cfb0228	0.030640677
55	0xbdb5dae3	-0.0887964
56	0xbdedd2f3	-0.11612501
57	0xbd9e5509	-0.07731063
58	0x3e86b378	0.263088
59	0xbd0120c5	-0.031525392
60	0x3d0425d6	0.032262646
61	0xbe09b3c9	-0.13447489
62	0xbe163ff7	-0.14672838
63	0xbcc61184	-0.024178274
64	0x3d98d752	0.07462944
65	0x3d40ed20	0.04710114
66	0x3dba4612	0.09095396
67	0xbd9f919e	-0.07791446
68	0xbdb6b5da	-0.08921404
69	0x3d974ce9	0.07387716
70	0x3de1c176	0.11023228
71	0xbda0a0a5	-0.078431405
72	0xbd4c4274	-0.049868062
73	0x3d84a731	0.06477202
74	0xbe28cf22	-0.16485265
75	0xbc9935b9	-0.018702375
76	0x3b9fbe58	0.0048749857
77	0x3e0978d0	0.13424993
78	0x3cf184d5	0.029482285
79	0x3ad4a6ec	0.0016224063
80	0xbe24102d	-0.16021796
81	0x3e0e7c1e	0.13914534
82	0x3d99390a	0.074815825
83	0x3d8d5bfc	0.0690231
84	0xbe4c006c	-0.19922036
85	0x3ca64ed0	0.020301253
86	0xbc2f2612	-0.010690229
87	0xbd2f4f05	-0.04279997
88	0xbdd752d4	-0.10513845
89	0x3e2bae20	0.16765642
90	0x3d8dcb59	0.06923551
91	0x3d0e8a16	0.034799658
92	0xbd2d33b9	-0.042285655
93	0xbd80c4c8	-0.06287533
94	0x3c89c8a5	0.016819308
95	0x3ba03f1a	0.004890335
96	0x3d735e1b	0.059415918
97	0xbd8bf70e	-0.06834231
98	0xbe19e6a5	-0.1502939
99	0xbdbfee27	-0.09371596
100	0x3de7f0ea	0.113252476
101	0x3d873ef7	0.066038065
102	0x3ce24148	0.02761902
103	0x3df00659	0.11719961
104	0x3b9bf7ba	0.004759756
105	0xbd6d27bc	-0.05789922
106	0x3e557575	0.20845588
107	0x3dc0f75c	0.0942218
108	0xbd560baa	-0.052257217
109	0x3e372243	0.17884164
110	0xbdd613e6	-0.10453014
111	0x3ca753b4	0.020425655
112	0x3e4ae931	0.19815518
113	0xbc906291	-0.017625125
114	0x3db837cd	0.08995018
115	0xbdf84167	-0.121218495
116	0x3e8e3697	0.27776024
117	0x3db7a97b	0.08967873
118	0xbe5a24ff	-0.21303175
119	0x3dbc6d2f	0.092005126
120	0x3d9acf4c	0.0755907
121	0xbe114e52	-0.14190033
122	0x3aa32727	0.0012447581
123	0xbe356cc3	-0.1771727
124	0xbe365dfc	-0.1780929
125	0xbd92f20e	-0.071750745
126	0x3d44511e	0.047928922
127	0xbd8206ad	-0.063489296
128	0xbdb1d19a	-0.086825565
129	0x3d934fc3	0.07192948
130	0x3da4f3f7	0.08054345
131	0x3dd9e2e2	0.106389776
132	0xbdd1b968	-0.102404416
133	0xbd16d983	-0.03682853
134	0x3e1186cc	0.14211577
135	0x3dfea8a1	0.12434507
136	0x3e00f33d	0.12592788
137	0x3db6cb1d	0.089254595
138	0xbd7fba9d	-0.062433828
139	0x3d60f4c6	0.054920934
140	0xbcee5d05	-0.02909709
141	0x3cbc138b	0.022958538
142	0x3d160aaa	0.036631264
143	0xbd87cff6	-0.06631462
144	0xbe0cb55d	-0.1374106
145	0x3d79476f	0.06085914
146	0x3dea94e4	0.1145418
147	0xbc52beed	-0.012862903
148	0xbda2a0a3	-0.07940795
149	0xbc6f3646	-0.014600342
150	0x3d0ee5e1	0.0348872
151	0x3c40b393	0.011761564
152	0xbe031449	-0.12800707
153	0xbcd97293	-0.026543891
154	0x3d8bf49a	0.068337634
155	0xbe0d055d	-0.13771577
156	0x3e3386f4	0.1753195
157	0x3b6b544b	0.0035908397
158	0x3d54f09f	0.051987287
159	0x3c8b7bb1	0.017026754
160	0xbd5e4f01	-0.054274563
161	0x3de02a12	0.10945524
162	0xbd3e4bfa	-0.046459176
163	0x3da73f31	0.0816635
164	0xbd92d7b8	-0.07170051
165	0x3d81e0b4	0.06341687
166	0xbd75df60	-0.06002748
167	0xbd35ccac	-0.044384643
168	0x3e11dced	0.14244433
169	0x3d728cdd	0.05921637
170	0xbc98f137	-0.018669708
171	0x3bacdd67	0.0052754167
172	0x3d973508	0.07383162
173	0x3d197f69	0.037475023
174	0xbdcab293	-0.098973416
175	0xbde367cf	-0.11103784
176	0xbd9c5e3a	-0.0763516
177	0x3d4d0439	0.050052855
178	0xbe04bb73	-0.12962131
179	0xbc6d855b	-0.014497126
180	0x3d1cc55a	0.038274147
181	0x3c399a1b	0.0113282455
182	0xbcbcaa7b	-0.02303051
183	0x3ca8e752	0.020618115
184	0x3da16993	0.07881465
185	0xbe59ab3e	-0.2125673
186	0xbc1fe528	-0.009759225
187	0xbe0f3ed4	-0.13988811
188	0x3dc897b4	0.0979456
189	0xbcc08104	-0.02349902
190	0xbce4b969	-0.027920442
191	0xbda62301	-0.08112145
192	0xbdd1610e	-0.1022359
193	0x3db228fb	0.08699223
194	0xbd6ff3e6	-0.05858221
195	0x3dc34a19	0.095356174
196	0x3cb5ae14	0.022177733
197	0x3e243ffb	0.16040032
198	0xbdceaba6	-0.10091333
199	0xbd94a0e1	-0.07257248
200	0x3c6394d8	0.013890468
201	0xbddf7b05	-0.10912136
202	0xbd9d40b4	-0.07678357
203	0x3d63da43	0.055628072
204	0x3e07aa6f	0.13248609
205	0x3e0e21d3	0.1388009
206	0x3d9a0125	0.075197496
207	0xbc604f47	-0.013690776
208	0xbe235e3c	-0.15953916
209	0xbe06eb23	-0.13175635
210	0xbd05b046	-0.03263881
211	0x3dc0b649	0.09409768
212	0x3d4aa744	0.049475923
213	0x3dae13ea	0.08499892
214	0xbd215f6e	-0.03939765
215	0x3e28b16a	0.16473928
216	0xbd2b7dcf	-0.041868027
217	0xbda95cab	-0.08269628
218	0x3d9a98e8	0.07548696
219	0x3dec4976	0.11537449
220	0x3d8c6b54	0.06856409
221	0xbe05fff0	-0.13085914
222	0xbc01b91a	-0.007917667
223	0x3d9d2174	0.07672396
224	0x3d96d4eb	0.0736483
225	0xbda97bc5	-0.0827556
226	0xbcb37f37	-0.021911247
227	0xbe1628a9	-0.14663948
228	0xbd88f8b5	-0.06688062
229	0xbd4913d8	-0.04909119
230	0xbbe9368a	-0.0071170973
231	0xbe06ce52	-0.13164642
232	0x3d98f971	0.07469452
233	0xbda1a097	-0.07891958
234	0xbe0f1f09	-0.13976683
235	0x3d9e9351	0.07742942
236	0xbe0502d4	-0.1298936
237	0xbd4b7490	-0.04967171
238	0x3deeb4b2	0.11655559
239	0x3e0e1093	0.1387351
240	0xbdce3a0b	-0.100696646
241	0x3c75a265	0.014992331
242	0x3bed217e	0.0072366586
243	0x3df7049a	0.120614246
244	0xbddeb88d	-0.10875044
245	0xbb40c70e	-0.002941552
246	0xbd05773b	-0.03258441
247	0x3e31a1a3	0.17346816
248	0xbe18db4d	-0.14927407
249	0xbe1120eb	-0.14172713
250	0xbe0ccda0	-0.13750315
251	0xbda971a5	-0.08273629
252	0xbe2d7b7a	-0.16941634
253	0x3e2fb0f8	0.17157352
254	0x3d2958e5	0.041344542
255	0x3dec18db	0.11528178

module.encoder.0.bias f4 [1, 100]
0	0xbcad9109	-0.021187322
1	0x3a16f5b9	0.00057586614
2	0xbab63616	-0.0013901617
3	0xbc9a93e8	-0.018869355
4	0x3a20e3d3	0.0006137464
5	0x3c1b1109	0.009464511
6	0x39343c30	0.0001718856
7	0xb9c2162c	-0.00037019083
8	0xbc0db99f	-0.008650213
9	0x3c0a9035	0.008457233
10	0x3b30483e	0.0026898528
11	0x3bc05456	0.0058694286
12	0x3c33c0ce	0.010971261
13	0xbb555f6a	-0.0032558092
14	0x3c72bab1	0.0148150185
15	0xbcb3758a	-0.021906633
16	0xbb11a301	-0.0022222402
17	0x3c9619ab	0.018322786
18	0x3be261a2	0.0069086114
19	0x3baa64cc	0.005200004
20	0x3ac8c3c1	0.0015317128
21	0xbb8027c6	-0.0039109914
22	0x3baa5873	0.0051985322
23	0x3b40a997	0.0029397958
24	0xbb89da9e	-0.0042069694
25	0x3bce42b6	0.0062945737
26	0xbc80f2b6	-0.015740734
27	0xbcc0dc8e	-0.023542669
28	0xbcc7c368	-0.02438517
29	0xbc9b8f4d	-0.01898923
30	0x3b4debd4	0.0031421082
31	0x3c158467	0.009125805
32	0x3b638f17	0.003472274
33	0x3a6c70fa	0.00090195204
34	0x3b7d66e5	0.0038666066
35	0x3c3ba08b	0.011451851
36	0xbc2f9a4d	-0.0107179405
37	0x3c3e663d	0.011621055
38	0x3c87d993	0.01658324
39	0x3cfbfb88	0.030759588
40	0xbbc87c6e	-0.006118349
41	0xbc95c1d3	-0.0182809
42	0x3c2eb882	0.010664107
43	0x3ca0169f	0.019542037
44	0x3bc00d0d	0.005860931
45	0xbb73a8da	-0.00371795
46	0x3c8c85f6	0.017153721
47	0xbab0288f	-0.0013439822
48	0x3a8901fc	0.0010452862
49	0xbafbb020	-0.001920227
50	0x3c1e321b	0.009655501
51	0x3bc39f7b	0.0059699393
52	0x3ca00e0d	0.01953795
53	0xbb1f128a	-0.0024272525
54	0xbc28c8fd	-0.010301826
55	0x3bc9ea76	0.006161983
56	0x3c3a5554	0.011372883
57	0x3bc5844a	0.006027733
58	0xbbe3c500	-0.0069509745
59	0x38e94ad3	0.00011124243
60	0xbb44da1f	-0.0030037237
61	0x3bb338d6	0.005469422
62	0x3b7a1c39	0.0038163795
63	0x3b67579f	0.003530003
64	0x3c9ac361	0.018891992
65	0x3cfd5bcb	0.03092756
66	0x3cbe6529	0.023241596
67	0xbc9d9b3b	-0.019239059
68	0x3cd699ec	0.026196443
69	0x3c4da5af	0.012551709
70	0x3c22e4e4	0.009942267
71	0x3cd08a30	0.025456518
72	0x3c296d91	0.010341064
73	0x3c8fe0b1	0.017563196
74	0x3bb7be8d	0.005607432
75	0x3c2ed9ee	0.010672076
76	0x3aa890eb	0.0012860572
77	0xbaf2f36d	-0.0018535681
78	0xbbdd442a	-0.0067525106
79	0x3a251f7f	0.0006298944
80	0xbcbc4677	-0.022982819
81	0xbb515002	-0.0031938558
82	0x3c143360	0.009045452
83	0xbce53f12	-0.027984176
84	0xbc38465f	-0.0112472465
85	0xbb56fda0	-0.003280498
86	0xbcd0a5ae	-0.025469627
87	0x3c60eff5	0.013729085
88	0x393a2e8b	0.00017755681
89	0x3cd0f0a3	0.02550537
90	0xbbec1e9b	-0.007205797
91	0x3abafe08	0.0014266381
92	0xba2b5078	-0.0006535123
93	0x3b6eb160	0.0036421642
94	0xbc904cf4	-0.01761482
95	0x3c43038a	0.011902699
96	0xbc20c403	-0.009812358
97	0x3c5026e9	0.012704589
98	0xbb808cad	-0.00392302
99	0x3ae940f1	0.0017795843

module.encoder.0.weight f4 [1, 100]
0	0x3f7d0e2f	0.9884977
1	0x3f8a76c3	1.0817493
2	0x3f835e1f	1.0263098
3	0x3f7d41a8	0.9892831
4	0x3f854e75	1.0414568
5	0x3f81c674	1.0138688
6	0x3f83601a	1.0263703
7	0x3f88cd5d	1.0687672
8	0x3f903764	1.1266904
9	0x3f879cef	1.0594767
10	0x3f86127f	1.0474395
11	0x3f83e77d	1.030502
12	0x3f874d75	1.0570513
13	0x3f805d9a	1.0028565
14	0x3f8007e3	1.0002407
15	0x3f8161f0	1.0108013
16	0x3f7eb590	0.9949579
17	0x3f810086	1.0078285
18	0x3f80bf41	1.0058366
19	0x3f8115d2	1.0084784
20	0x3f89efea	1.0776341
21	0x3f89ec90	1.0775318
22	0x3f87172c	1.0553946
23	0x3f80edfc	1.0072627
24	0x3f83dad5	1.0301157
25	0x3f865561	1.0494806
26	0x3f7ed41a	0.9954239
27	0x3f7e97f8	0.99450636
28	0x3f7b34cd	0.9812744
29	0x3f7b8c53	0.9826099
30	0x3f809515	1.0045496
31	0x3f7dfdab	0.9921519
32	0x3f7f2dab	0.9967906
33	0x3f8719f3	1.0554794
34	0x3f822db3	1.0170196
35	0x3f840baf	1.0316066
36	0x3f71b1f1	0.9441214
37	0x3f86465b	1.0490221
38	0x3f7f0dec	0.9963062
39	0x3f795509	0.9739538
40	0x3f7d467a	0.98935664
41	0x3f7a7e46	0.9784893
42	0x3f7f244b	0.99664754
43	0x3f7fa942	0.9986764
44	0x3f823567	1.0172547
45	0x3f7ebea0	0.9950962
46	0x3f83580e	1.0261247
47	0x3f79495b	0.97377557
48	0x3f8561f2	1.0420516
49	0x3f77fcaa	0.9686991
50	0x3f7cd009	0.98754936
51	0x3f806e23	1.0033611
52	0x3f7a67dd	0.9781473
53	0x3f808d52	1.0043128
54	0x3f7f8a00	0.99819946
55	0x3f803fd4	1.0019479
56	0x3f7e720b	0.99392766
57	0x3f7fee70	0.999732
58	0x3f697b01	0.91203314
59	0x3f82264e	1.016794
60	0x3f80ce04	1.0062871
61	0x3f7b497d	0.9815901
62	0x3f73ecf6	0.9528345
63	0x3f81badd	1.0135151
64	0x3f7efe63	0.99606913
65	0x3f789037	0.97095054
66	0x3f796973	0.9742653
67	0x3f78ff38	0.9726443
68	0x3f7d209d	0.9887789
69	0x3f7e1903	0.99256915
70	0x3f7cb155	0.9870809
71	0x3f698aa4	0.91227174
72	0x3f7fc45b	0.9990899
73	0x3f7ae518	0.9800582
74	0x3f8234ec	1.01724
75	0x3f7c6c66	0.986029
76	0x3f82716c	1.0190864
77	0x3f82a84d	1.0207611
78	0x3f7bcef7	0.9836268
79	0x3f82fc9a	1.0233338
80	0x3f7d42ab	0.9892985
81	0x3f7a316f	0.9773168
82	0x3f846e67	1.0346192
83	0x3f764850	0.9620409
84	0x3f8340c6	1.0254142
85	0x3f85a4cd	1.0440918
86	0x3f7e607a	0.9936596
87	0x3f8075fe	1.0036008
88	0x3f8044c6	1.0020988
89	0x3f7baf14	0.98314023
90	0x3f82dce8	1.0223665
91	0x3f86f25c	1.0542712
92	0x3f803689	1.0016643
93	0x3f817860	1.011486
94	0x3f7d39e4	0.9891646
95	0x3f8153de	1.0103719
96	0x3f80b6ae	1.005575
97	0x3f81ebd0	1.0150089
98	0x3f82397c	1.0173793
99	0x3f86e866	1.0539672

module.encoder.1.layers.2.bias f4 [1, 256]
0	0xbc620389	-0.013794788
1	0xbc611074	-0.013736833
2	0x3a038302	0.0005016775
3	0x3b54daa2	0.0032478948
4	0xbb0b2838	-0.002123369
5	0x3b5cd043	0.003369347
6	0xbc1e18d7	-0.009649477
7	0xbbc1820a	-0.0059053944
8	0x3ac29a60	0.0014847033
9	0xbb3df612	-0.002898578
10	0x3ae78e4d	0.001766631
11	0xbb6f5bb2	-0.003652316
12	0x3baf16c2	0.005343289
13	0x3cc36f48	0.023856774
14	0x3c55a7e8	0.01304052
15	0x3b990d66	0.0046707867
16	0x3bc43b02	0.0059884796
17	0x3bd73d27	0.006568569
18	0x3bec8fc3	0.007219286
19	0x3c5cfa01	0.01348734
20	0xbbbb34be	-0.0057130745
21	0x3bae9a30	0.005328439
22	0x3c12c849	0.0089588845
23	0x3bad3c87	0.0052867564
24	0xbc1c8a24	-0.00955442
25	0xbae9e2ee	-0.001784412
26	0x3b94946e	0.0045342958
27	0x3b6f8043	0.0036544956
28	0xbabe8a77	-0.0014537115
29	0xbb6bfed1	-0.0036010037
30	0x38e6bea2	0.00011002763
31	0x3b203424	0.002444514
32	0xbc1b7741	-0.009488882
33	0x3bd429bf	0.006474703
34	0x3b1ab445	0.0023605984
35	0xbc2aff9c	-0.010436919
36	0xbaf6f045	-0.0018839916
37	0xbc2c720b	-0.010525237
38	0x3b35910f	0.002770487
39	0x3a03acfd	0.00050230307
40	0xba3d5551	-0.0007222491
41	0xbbdfef38	-0.006833937
42	0xbc11a28b	-0.008888851
43	0xbb7d4f05	-0.0038651836
44	0xbb56763f	-0.0032724289
45	0x3c093a4a	0.008375714
46	0xbc11c9ff	-0.008898257
47	0xbc5c631b	-0.013451363
48	0xb89ecae9	-7.571822e-05
49	0xbbf0892d	-0.0073405714
50	0xbc717aee	-0.014738781
51	0xbc1a1c01	-0.009406091
52	0x3b51386a	0.0031924495
53	0x3b279c22	0.002557524
54	0x3beab957	0.0071632075
55	0x3c61dd9d	0.013785747
56	0x3bb8b02b	0.0056362352
57	0xbaa737bb	-0.0012757698
58	0xba53832a	-0.0008068556
59	0x3bf724d2	0.007542231
60	0xb9db0899	-0.0004177734
61	0x3c60b647	0.013715333
62	0x3bfa3daa	0.0076367455
63	0xbb250446	-0.002517955
64	0x3c15437c	0.009110328
65	0x3bf22d9b	0.0073906905
66	0x3c84b585	0.016199837
67	0xbb113ace	-0.0022160294
68	0x3b354079	0.0027656837
69	0xbbac1fbb	-0.005252806
70	0x3b96585d	0.0045881704
71	0x3b4c6737	0.003118945
72	0x3bbc70f6	0.0057507707
73	0x3b01f7cd	0.0019831539
74	0x3a303675	0.0006721982
75	0x3bc8696a	0.006116082
76	0x3bf57cd8	0.007491689
77	0x3c8775ba	0.016535629
78	0x3c238b22	0.009981902
79	0xbb472f4a	-0.0030393177
80	0xbbc2b65e	-0.00594215
81	0x3b9541a6	0.004554945
82	0xbac84e8c	-0.0015282198
83	0xbc05d364	-0.008168075
84	0x3aa86d86	0.0012850023
85	0x3b748d39	0.003731562
86	0xbb0e9fba	-0.0021762685
87	0xbc25b6f0	-0.0101144165
88	0x3b679718	0.0035337862
89	0xbc0a69e7	-0.008448101
90	0xbc8d3e92	-0.01724175
91	0xba565931	-0.00081767427
92	0xbaed2f37	-0.0018095736
93	0x3b8e8650	0.0043495074
94	0xbc63c769	-0.013902524
95	0xbbd6f631	-0.00656011
96	0xbb9744b5	-0.004616345
97	0x3c24abce	0.010050727
98	0xb896784f	-7.1749666e-05
99	0x3c304ad3	0.010760027
100	0x3c27e485	0.010247354
101	0x3b1b453a	0.0023692385
102	0x3b99bcb7	0.004691686
103	0x3c1b939e	0.009495644
104	0x3c1fdfcb	0.009757946
105	0x3c931efd	0.017959112
106	0x3c7b16b6	0.015325239
107	0xbbc4ea9a	-0.006009412
108	0x3b9e43fe	0.0048298826
109	0xbc697bae	-0.014250679
110	0xbc3b0816	-0.011415502
111	0xb9a341e2	-0.0003113887
112	0xbb5cfa45	-0.0033718508
113	0xba65218a	-0.00087406544
114	0xbcab05fe	-0.02087688
115	0x3ad7b5e1	0.0016457402
116	0x3be04025	0.006843584
117	0xbc197def	-0.009368404
118	0xbc50314f	-0.012707069
119	0xbc913daf	-0.017729608
120	0x3bc8c939	0.0061275032
121	0x3b9702e7	0.0046085003
122	0xbbe7d70c	-0.007075196
123	0x3b2c34c2	0.0026276563
124	0xbbf3e60f	-0.0074431966
125	0x3bb337ab	0.0054692826
126	0x3c0a989b	0.008459236
127	0xbc8e9214	-0.01740364
128	0xbb3f21a0	-0.002916433
129	0x3c85c36e	0.01632854
130	0x3bf9a1dc	0.007618172
131	0x3bea8e78	0.007158097
132	0x3ba331f1	0.0049803187
133	0x3c22f385	0.009945755
134	0x3b3126c3	0.002703116
135	0x3abd16c5	0.0014426342
136	0x3bfb88dc	0.007676227
137	0xbc4665f8	-0.012109272
138	0x3c48b9db	0.012251343
139	0xbc10ed4d	-0.008845639
140	0x3aa30240	0.0012436584
141	0x3bc91c04	0.006137373
142	0x3ad55ff2	0.0016279204
143	0xbbbd2217	-0.005771886
144	0x3b6907d9	0.0035557656
145	0x3bfbadbe	0.007680624
146	0x3bb3feea	0.0054930346
147	0x3ba33177	0.004980262
148	0x3b7e4c11	0.0038802663
149	0xbc45f6d5	-0.012082775
150	0xbbd0b1af	-0.006368838
151	0x3b84ef33	0.004056835
152	0xbb130549	-0.002243357
153	0xbbdaa569	-0.0066725505
154	0x3c3a897b	0.011385317
155	0x391f1bc1	0.00015173761
156	0xbc3190de	-0.010837762
157	0xbc2928db	-0.010324682
158	0xbc0b75f3	-0.008512008
159	0xbbd4265d	-0.0064743
160	0xbc0431b1	-0.008068488
161	0x3c9ff5ad	0.019526327
162	0x3c2fa5a1	0.010720641
163	0x3c158b7c	0.009127494
164	0x3c51bb1e	0.01280096
165	0xbbd708a8	-0.006562311
166	0x3b853556	0.004065196
167	0xbb01083f	-0.0019688753
168	0x3c074d71	0.00825821
169	0x3c22ee05	0.009944444
170	0x3bf12813	0.0073595135
171	0xbc30ed99	-0.010798835
172	0x3a96fa69	0.001151872
173	0x3b33dbf2	0.002744433
174	0x3ba47f7f	0.0050200815
175	0x3be80c52	0.007081547
176	0x3c4b6283	0.012413624
177	0xbc26476c	-0.010148864
178	0xbb5c0ade	-0.0033575813
179	0xbc0c9a71	-0.008581744
180	0xbb775680	-0.0037740767
181	0x3bcca044	0.006244691
182	0x3c82995c	0.015942268
183	0xb856bc91	-5.1197192e-05
184	0x3b989028	0.0046558566
185	0xba2b879d	-0.000654334
186	0x3bba13eb	0.005678644
187	0x3b18eac9	0.0023333302
188	0xbbdc21cd	-0.0067178966
189	0xbc37fd1c	-0.01122978
190	0x3ad2e4c4	0.0016089906
191	0x3ac09f53	0.001469592
192	0xbbd4acff	-0.0064903493
193	0x3cbd49c5	0.023106465
194	0x3a72422b	0.0009241427
195	0x3c98e171	0.018662186
196	0xbc5af591	-0.013364212
197	0xbc5aa879	-0.013345831
198	0xbbfe81da	-0.0077669444
199	0xbb96dfbd	-0.0046043084
200	0x3c15da31	0.009146259
201	0x3a9500c9	0.0011368032
202	0xbc397ef2	-0.01132177
203	0xbb5d10c6	-0.0033731922
204	0xbca123b5	-0.019670347
205	0x3c0fa163	0.008766505
206	0xbbd8d8a5	-0.006617623
207	0x3b14bbee	0.0022695023
208	0xbc843791	-0.016139777
209	0xbb23ff2c	-0.002502392
210	0x3b7a3c16	0.0038182787
211	0xbc5c2dbe	-0.01343864
212	0x3a4cd7d7	0.0007814145
213	0x3aaedfb4	0.0013341815
214	0x3b029a32	0.0019928333
215	0xbb5e2513	-0.003389661
216	0xbbf2a55b	-0.007404966
217	0x3c661c0e	0.014044775
218	0xbbd61ccc	-0.0065341946
219	0x3b68d1f3	0.003552553
220	0xba5ae9fc	-0.00083509064
221	0x3b6797bd	0.0035338246
222	0x3bbd4b79	0.0057768193
223	0xbc384321	-0.0112464735
224	0xbb57edbb	-0.0032948095
225	0xbb82ffcb	-0.003997778
226	0x3c5f7c92	0.01364054
227	0x3ae89a73	0.0017746225
228	0x3bf0f7dd	0.0073537664
229	0x3bc42b75	0.005986626
230	0x3b7bdefd	0.0038432472
231	0x3c273d38	0.010207467
232	0x3b297fec	0.00258636
233	0x3be0cf84	0.0068606753
234	0xbb8f59a7	-0.004374701
235	0xba86a1c1	-0.0010271595
236	0xbc1fb9e1	-0.009748907
237	0x3b9b54de	0.0047403416
238	0x3b8ed7d8	0.0043592267
239	0x3c12398e	0.008924855
240	0x3b93988b	0.0045042685
241	0x3b4c463a	0.0031169788
242	0xbbada1c7	-0.0052988264
243	0x3a338d96	0.0006849406
244	0xbc1205f0	-0.008912548
245	0xbbccc04d	-0.00624851
246	0xbb281a55	-0.002565046
247	0x3c541212	0.012943761
248	0x3c5c3694	0.013440747
249	0x3c1fbe28	0.009749927
250	0xbbae3da1	-0.0053174053
251	0xbae71f39	-0.0017633206
252	0x3aeb6b9e	0.001796115
253	0xb9adc79f	-0.0003314586
254	0xbc8c5de5	-0.017134616
255	0xbc078119	-0.008270525

module.encoder.1.layers.2.weight f4 [1, 256]
0	0x3f7efd04	0.9960482
1	0x3f7f352c	0.9969051
2	0x3f848d68	1.0355654
3	0x3f815d9a	1.010669
4	0x3f829e3f	1.0204543
5	0x3f858b52	1.0433142
6	0x3f82f007	1.02295
7	0x3f84f1db	1.0386308
8	0x3f8216da	1.0163224
9	0x3f82da06	1.0222785
10	0x3f80c6e3	1.0060695
11	0x3f819e7e	1.0126493
12	0x3f80b96d	1.0056587
13	0x3f7c6848	0.9859662
14	0x3f8223af	1.016714
15	0x3f8699e1	1.051571
16	0x3f813fec	1.0097632
17	0x3f82938d	1.0201279
18	0x3f813744	1.0094991
19	0x3f838e02	1.0277712
20	0x3f816d68	1.0111513
21	0x3f82c69f	1.0216864
22	0x3f7c9abb	0.986736
23	0x3f804de0	1.0023766
24	0x3f83179a	1.0241578
25	0x3f81698b	1.0110334
26	0x3f7addb5	0.9799455
27	0x3f7aae32	0.9792205
28	0x3f7d4114	0.98927426
29	0x3f83ec23	1.0306438
30	0x3f830ba6	1.023793
31	0x3f82531d	1.0181614
32	0x3f7f8fe3	0.9982893
33	0x3f7fa68c	0.99863505
34	0x3f83be88	1.029252
35	0x3f7cd8e7	0.98768467
36	0x3f7a2fc3	0.9772913
37	0x3f825f29	1.018529
38	0x3f80be25	1.0058028
39	0x3f7c6391	0.98589426
40	0x3f81d3ee	1.0142801
41	0x3f7e6143	0.9936716
42	0x3f812593	1.0089592
43	0x3f8019f3	1.0007919
44	0x3f7f7e82	0.9980241
45	0x3f81648a	1.0108807
46	0x3f800138	1.0000372
47	0x3f8071c3	1.0034717
48	0x3f849ddc	1.0360675
49	0x3f7fa65b	0.99863213
50	0x3f8383e3	1.0274624
51	0x3f7d6ec5	0.98997146
52	0x3f81af75	1.013167
53	0x3f802bdf	1.0013388
54	0x3f820a22	1.0159342
55	0x3f82a4f7	1.0206593
56	0x3f854d16	1.041415
57	0x3f891a91	1.0711232
58	0x3f82617b	1.0185999
59	0x3f828f8f	1.0200061
60	0x3f838ab8	1.0276709
61	0x3f7c81dd	0.98635656
62	0x3f81ec39	1.0150214
63	0x3f83f224	1.030827
64	0x3f7f8c3b	0.9982335
65	0x3f8402ad	1.0313317
66	0x3f829380	1.0201263
67	0x3f8103b7	1.0079259
68	0x3f81ec98	1.0150328
69	0x3f809b4b	1.0047392
70	0x3f81d696	1.0143611
71	0x3f81181a	1.008548
72	0x3f81eec2	1.0150988
73	0x3f7ef962	0.9959928
74	0x3f8097f0	1.0046368
75	0x3f838a0f	1.0276507
76	0x3f810b4d	1.0081574
77	0x3f798d66	0.9748138
78	0x3f815b57	1.0106
79	0x3f824f3e	1.0180433
80	0x3f80d59e	1.0065191
81	0x3f81f674	1.0153337
82	0x3f7ec540	0.9951973
83	0x3f82c621	1.0216714
84	0x3f831f16	1.0243862
85	0x3f84a747	1.0363549
86	0x3f82bd59	1.0214034
87	0x3f827349	1.0191432
88	0x3f83e722	1.0304911
89	0x3f8553f2	1.0416243
90	0x3f7df6b1	0.99204546
91	0x3f813687	1.0094765
92	0x3f849027	1.0356492
93	0x3f811705	1.008515
94	0x3f821f39	1.0165778
95	0x3f7f1c86	0.996529
96	0x3f80ae6e	1.0053232
97	0x3f84921c	1.0357089
98	0x3f82bb3f	1.0213393
99	0x3f7df5b6	0.9920305
100	0x3f7cc509	0.9873815
101	0x3f83b166	1.0288513
102	0x3f830d16	1.0238369
103	0x3f81ec6e	1.0150278
104	0x3f805b83	1.0027927
105	0x3f7d0e38	0.9884982
106	0x3f7ba94b	0.98305196
107	0x3f826739	1.0187751
108	0x3f8086d6	1.0041149
109	0x3f8049e5	1.0022551
110	0x3f83e6d2	1.0304816
111	0x3f7f9404	0.9983523
112	0x3f83e8a7	1.0305375
113	0x3f8066c4	1.0031362
114	0x3f7cdba0	0.9877262
115	0x3f82eb3f	1.0228041
116	0x3f7db17e	0.99098957
117	0x3f833660	1.0250969
118	0x3f8400a9	1.0312701
119	0x3f7f7212	0.9978343
120	0x3f809321	1.00449
121	0x3f82d70c	1.0221877
122	0x3f834899	1.025653
123	0x3f7f74b4	0.9978745
124	0x3f7ffca8	0.999949
125	0x3f8228db	1.0168718
126	0x3f853eac	1.0409751
127	0x3f81d0f3	1.0141891
128	0x3f7c5979	0.98574024
129	0x3f7d92e5	0.9905227
130	0x3f8263e4	1.0186734
131	0x3f819f6a	1.0126774
132	0x3f81d07c	1.0141749
133	0x3f7fac89	0.9987264
134	0x3f7dbfee	0.99120986
135	0x3f85a0cc	1.0439696
136	0x3f7b3a0f	0.98135465
137	0x3f7baae0	0.9830761
138	0x3f7d1ff9	0.9887691
139	0x3f7b43e8	0.9815049
140	0x3f83aef1	1.0287763
141	0x3f7e0432	0.9922515
142	0x3f7cd6c9	0.98765236
143	0x3f82328f	1.0171679
144	0x3f7e8388	0.9941945
145	0x3f7ee9f5	0.9957574
146	0x3f8054e2	1.0025904
147	0x3f7e24ce	0.9927491
148	0x3f815f2d	1.010717
149	0x3f8090e0	1.0044212
150	0x3f7ea6d3	0.99473304
151	0x3f82e4c8	1.0226068
152	0x3f85f8eb	1.0466589
153	0x3f7ff975	0.99990016
154	0x3f7e2de3	0.9928877
155	0x3f84b284	1.0366979
156	0x3f7f62b1	0.99759966
157	0x3f84ae61	1.0365716
158	0x3f809a80	1.004715
159	0x3f81dd0d	1.0145584
160	0x3f7fe6e9	0.99961716
161	0x3f8235f6	1.0172718
162	0x3f819ced	1.0126015
163	0x3f80d282	1.0064242
164	0x3f8404a9	1.0313922
165	0x3f7d12a8	0.9885659
166	0x3f801db6	1.0009067
167	0x3f827e19	1.0194732
168	0x3f80c819	1.0061065
169	0x3f80baf9	1.005706
170	0x3f7d5563	0.98958415
171	0x3f80da75	1.0066668
172	0x3f7f02be	0.9961356
173	0x3f7f6d21	0.9977589
174	0x3f7fa71d	0.9986437
175	0x3f7c9476	0.98664033
176	0x3f7c17f9	0.9847408
177	0x3f7f0d35	0.9962953
178	0x3f8022b0	1.0010586
179	0x3f82111b	1.016147
180	0x3f7f7d63	0.998007
181	0x3f84f3ac	1.0386863
182	0x3f84491a	1.0334809
183	0x3f7caaae	0.98697937
184	0x3f809b01	1.0047303
185	0x3f80b0aa	1.0053914
186	0x3f7b76e5	0.98228294
187	0x3f801d59	1.0008956
188	0x3f810647	1.0080041
189	0x3f806d2a	1.0033314
190	0x3f814e8a	1.0102093
191	0x3f80f30b	1.0074171
192	0x3f814057	1.009776
193	0x3f7e21ed	0.99270517
194	0x3f855686	1.041703
195	0x3f806205	1.0029913
196	0x3f81245a	1.0089219
197	0x3f813394	1.0093865
198	0x3f81229c	1.0088687
199	0x3f875043	1.0571369
200	0x3f7e5a15	0.99356204
201	0x3f814145	1.0098044
202	0x3f809c52	1.0047705
203	0x3f8339ec	1.0252051
204	0x3f810229	1.0078784
205	0x3f809d7c	1.004806
206	0x3f82ace5	1.0209013
207	0x3f7eb6e0	0.99497795
208	0x3f82b9b6	1.0212924
209	0x3f802f52	1.0014441
210	0x3f81f73d	1.0153576
211	0x3f7d483b	0.9893834
212	0x3f7ef0fd	0.9958647
213	0x3f8218b2	1.0163786
214	0x3f82876b	1.0197576
215	0x3f810dea	1.0082371
216	0x3f84b112	1.0366538
217	0x3f7e745b	0.99396294
218	0x3f84ce5b	1.0375475
219	0x3f8039a9	1.0017596
220	0x3f7de410	0.9917612
221	0x3f845d51	1.0340978
222	0x3f830c63	1.0238155
223	0x3f836ef5	1.0268236
224	0x3f80cdb8	1.006278
225	0x3f80db61	1.0066949
226	0x3f836195	1.0264155
227	0x3f7e5a73	0.99356765
228	0x3f81a5a5	1.0128676
229	0x3f7eed14	0.995805
230	0x3f824d50	1.0179844
231	0x3f81873d	1.0119396
232	0x3f82587a	1.0183251
233	0x3f8057be	1.0026777
234	0x3f7e17f8	0.99255323
235	0x3f8239ba	1.0173867
236	0x3f8050b2	1.0024626
237	0x3f7e2a50	0.99283314
238	0x3f82baa3	1.0213207
239	0x3f7fde1e	0.999483
240	0x3f7f0f9f	0.9963321
241	0x3f7fb797	0.9988951
242	0x3f80746c	1.0035529
243	0x3f80be37	1.0058049
244	0x3f7eaa83	0.9947893
245	0x3f807c26	1.0037887
246	0x3f85fb73	1.0467361
247	0x3f846bc7	1.0345391
248	0x3f828232	1.0195982
249	0x3f813f02	1.0097353
250	0x3f83268c	1.0246139
251	0x3f802062	1.0009882
252	0x3f81559d	1.0104252
253	0x3f7ed4f3	0.99543685
254	0x3f81170c	1.0085158
255	0x3f818c49	1.0120937

module.encoder.1.layers.3.bias f4 [1, 128]
0	0xbd848b98	-0.06471938
1	0xbd862426	-0.065498635
2	0x3d4cc5ec	0.04999344
3	0xbd543159	-0.051804874
4	0x3d76a315	0.06021412
5	0x3cd16742	0.025561932
6	0x3c536ca3	0.012904319
7	0xbcb06cfe	-0.021536347
8	0xbd4a4cc4	-0.049389616
9	0xbd58abd9	-0.05289826
10	0xbc582c3a	-0.013194138
11	0xbd9fb692	-0.077984944
12	0xbc2f1d10	-0.010688081
13	0x3d37b09d	0.044846166
14	0xbd33f870	-0.0439381
15	0x3d0ccf6a	0.034377493
16	0x3cdb2bef	0.026754348
17	0xbd0c2252	-0.034212418
18	0xbcce52d7	-0.025185985
19	0xbd39d10f	-0.04536539
20	0xbc94f32f	-0.018182365
21	0x3d638f53	0.055556607
22	0x3c11db0a	0.008902321
23	0xbca01894	-0.01954297
24	0x3d10b375	0.035327394
25	0xbd3dc403	-0.04632951
26	0xbd314343	-0.043277036
27	0xb93d968a	-0.00018080525
28	0x3aa316ff	0.0012442766
29	0x3b8df03e	0.0043316176
30	0xbcbcda38	-0.023053274
31	0x3d3668c0	0.04453349
32	0xbcc1b6b4	-0.02364669
33	0xbc7c2372	-0.01538931
34	0x3ccf4e54	0.025305904
35	0x3d56d7ee	0.05245202
36	0xbbc80a27	-0.006104726
37	0x3bdf7f65	0.0068206065
38	0x3c2be160	0.010490745
39	0x3c95111e	0.018196639
40	0xbdab469d	-0.08363078
41	0xbd90d864	-0.07072523
42	0xbc0f353c	-0.008740719
43	0x3cb4a149	0.022049563
44	0x3bc43216	0.005987416
45	0x3d6484e2	0.05579079
46	0xbc4177ba	-0.01180833
47	0x3c3e1c03	0.011603358
48	0xbce7d518	-0.028299853
49	0xbc9e5e42	-0.019332055
50	0x3cca81d4	0.02472011
51	0x3caaf65a	0.020869423
52	0x3d1db181	0.03849936
53	0x3c750ad6	0.014956197
54	0xbcdb3242	-0.026757363
55	0x3d3b27cc	0.04569225
56	0xbcace22e	-0.021103945
57	0x3d45d754	0.048301056
58	0xbc693e7e	-0.014236091
59	0xbccb8552	-0.024843846
60	0xbd1ab99d	-0.03777467
61	0x3d0312e0	0.032000422
62	0xbd936dea	-0.07198699
63	0xbc974327	-0.018464638
64	0x3cb20ac3	0.021733647
65	0xbd0e4f7e	-0.03474378
66	0xbd626fcf	-0.05528241
67	0xbce76dd2	-0.028250609
68	0xbc9d7389	-0.01922013
69	0xbd66682b	-0.056251686
70	0xbca3ecb8	-0.020010337
71	0xbb9242d1	-0.0044635315
72	0xbd472594	-0.04861982
73	0xbc835094	-0.016029634
74	0xbd0a3d86	-0.03375008
75	0x3d271dde	0.040799968
76	0xb8c22c84	-9.2589326e-05
77	0x3d176bbb	0.036967974
78	0xbd568947	-0.05237701
79	0x3d1c4a26	0.03815665
80	0xbc79d8af	-0.015249415
81	0x3cea607b	0.028610459
82	0x3d654bb7	0.05598041
83	0xbd49c56c	-0.04926054
84	0xbd872b88	-0.066001
85	0x3b048c1f	0.002022512
86	0xbcc4d2d6	-0.024026316
87	0xbd9bb62f	-0.07603108
88	0xbd46eb86	-0.048564456
89	0x3cc8848e	0.02447727
90	0xbb433d8c	-0.0029791323
91	0xbd2f3aee	-0.04278081
92	0x3d229f85	0.03970291
93	0xbd2d302c	-0.04228227
94	0x3d53ac79	0.051678155
95	0xbd6f9072	-0.058487363
96	0x3cd5c3a1	0.02609426
97	0x3d5a480b	0.05329136
98	0x3c02faa2	0.007994326
99	0x3c75af6a	0.014995435
100	0xbc9168c8	-0.017750159
101	0x3d2b1e5b	0.041776996
102	0x3caf210a	0.021378059
103	0x3d293705	0.041312236
104	0xbd8e06a6	-0.06934862
105	0x3bea4d3f	0.0071503217
106	0x3c9bc239	0.019013511
107	0x3cd3e340	0.025865197
108	0xbb25982e	-0.0025267708
109	0xbc5f6bc0	-0.013636529
110	0xbb1870b7	-0.0023260543
111	0x3cab7f71	0.020934792
112	0x3d8903c5	0.06690172
113	0xbd54373d	-0.05181049
114	0xbba5c4d5	-0.0050588646
115	0x3d537e5c	0.051634178
116	0x3d0a35c5	0.033742685
117	0xbb340f9c	-0.0027475124
118	0x3ccef73e	0.025264379
119	0xbca0b96c	-0.019619666
120	0x3d70f273	0.058824968
121	0x3cd15a31	0.025555702
122	0x3d0df1be	0.03465437
123	0xbd32c033	-0.043640327
124	0xbbe7b682	-0.007071317
125	0xbcedc0f7	-0.029022677
126	0x3d3c6801	0.045997623
127	0xbc539795	-0.012914558

module.encoder.1.layers.3.weight f4 [1, 128, 256]
0	0xbcfe553c	-0.031046502
1	0x3d44cd91	0.048047606
2	0xbd75ffc3	-0.060058367
3	0xbcde3c17	-0.027128262
4	0xbd60a39c	-0.05484353
5	0xb94193bc	-0.0001846095
6	0xbc81e951	-0.015858324
7	0xbda095be	-0.07841061
8	0xbb080b8c	-0.0020758836
9	0xbd26b068	-0.040695578
10	0xbd01b3b5	-0.031665523
11	0xbdbaad94	-0.09115139
12	0x3cc0521f	0.023476658
13	0x3c89f27f	0.016839264
14	0xbc6fc995	-0.014635463
15	0x3d52e50f	0.05148798
16	0xbceb6e20	-0.028739035
17	0x3dbcb1bb	0.09213587
18	0x3ca9746d	0.020685399
19	0xbcb8571d	-0.022502476
20	0x3c13ea39	0.009028011
21	0xbb131589	-0.0022443256
22	0xbc8313aa	-0.016000587
23	0xba7d27de	-0.0009657125
24	0xbcdd1ddd	-0.026991779
25	0xbd5d61ff	-0.054048534
26	0x3d712d93	0.058881354
27	0x3ad84423	0.0016499799
28	0x3cb9eddd	0.02269643
29	0xbcae2a97	-0.021260543
30	0xbce01c98	-0.027357385
31	0xbc4982a8	-0.012299217
32	0xbd1dcc7c	-0.03852509
33	0x3cd2bf1a	0.02572589
34	0x3a2af0ba	0.00065208564
35	0x3d7c5d92	0.061612673
36	0xbbce2586	-0.0062910942
37	0x3cfb0591	0.030642303
38	0xbc273ef3	-0.010207879
39	0xbd0eb5e2	-0.034841426
40	0xbc875e32	-0.016524408
41	0x3d354519	0.04425535
42	0x3d36cd0d	0.044629145
43	0xbd808d26	-0.06276922
44	0x3cf216c8	0.029551879
45	0x3d11b01f	0.035568353
46	0x3b2ecc8a	0.0026672208
47	0xbd72e6a3	-0.059301984
48	0x3cfe5f2f	0.031051246
49	0xbb1b81a3	-0.0023728393
50	0x3d6e75ba	0.05821774
51	0x3d8ca4c0	0.06867361
52	0xbd22a149	-0.039704595
53	0xbd3cdd90	-0.046109736
54	0x3d467530	0.048451602
55	0xbd19bf97	-0.03753623
56	0x3cedd5d2	0.029032622
57	0x3d9ef46a	0.07761462
58	0x3d83611e	0.06415008
59	0xbd6ee5ae	-0.05832451
60	0xbd7ed9c4	-0.062219396
61	0xbc1f5ee9	-0.009727218
62	0x3d8d8814	0.069107205
63	0x3d51ce12	0.051221915
64	0x3d52118a	0.051286258
65	0x3d178afd	0.036997784
66	0x3911ddce	0.00013910906
67	0xbb908e96	-0.004411529
68	0xbd9ad59d	-0.07560275
69	0xbd3a4d1d	-0.045483697
70	0x3d765e2a	0.060148396
71	0x3d3e09f5	0.046396215
72	0x3d4922d4	0.04910548
73	0x3d27d4ce	0.04097443
74	0xbbb9c6eb	-0.005669465
75	0x3c3f866d	0.011689764
76	0xbd42a081	-0.04751635
77	0xbc4932d3	-0.012280184
78	0xbcace3f5	-0.021104792
79	0x3d608805	0.05481722
80	0xbd935eb7	-0.071958
81	0xbba64c70	-0.00507503
82	0xbcdc0c15	-0.02686123
83	0x3d0eff3e	0.034911387
84	0x3d643771	0.055716936
85	0x3da04b37	0.07826846
86	0x3cb63d48	0.022246018
87	0x3c1bb994	0.0095046945
88	0xbd341dad	-0.043973614
89	0x3d87a87c	0.06623933
90	0x3c8955dd	0.016764576
91	0x3d21c01c	0.03948985
92	0xbd5c8cbd	-0.053845156
93	0xbc8bbc18	-0.017057464
94	0xbc848080	-0.016174555
95	0x3ca4de37	0.020125492
96	0x3d475f45	0.04867484
97	0xbca90653	-0.020632898
98	0xbd805729	-0.062666245
99	0xbd79bf6c	-0.06097357
100	0xbcd50fbf	-0.026008485
101	0x3bb7ef14	0.005613217
102	0xbcf097ee	-0.02936932
103	0xbc65cdc2	-0.014026107
104	0x3c8a3f4c	0.016875885
105	0x3c7d4220	0.01545766
106	0xbb7b24e5	-0.0038321551
107	0xbd604e37	-0.05476209
108	0xbc31b1db	-0.010845627
109	0xbcf11a97	-0.029431624
110	0x3d7d45d4	0.06183417
111	0xbd326875	-0.04355665
112	0xbb4e4697	-0.003147518
113	0xbc320ee9	-0.010867813
114	0x3d8390c6	0.06424098
115	0xbd925236	-0.07144587
116	0xbd349f88	-0.044097453
117	0xbd2b73b6	-0.041858397
118	0xbd1256ba	-0.03572724
119	0x3d17d449	0.037067685
120	0xbce7e939	-0.028309451
121	0x3d52f086	0.051498912
122	0xbd02eec4	-0.031965986
123	0xbcbca7dc	-0.02302926
124	0x3b0c3a89	0.0021397194
125	0x3d289e67	0.04116669
126	0x3d51625d	0.051119197
127	0xba5ac11c	-0.00083448156
128	0x3c9b0cb8	0.018926963
129	0x3c8402f7	0.016114695
130	0xbd9a0e65	-0.07522277
131	0xbd4cd952	-0.05001194
132	0xbce9ebc0	-0.028554797
133	0xbbfef22c	-0.007780334
134	0xbadbb623	-0.0016762655
135	0xbb9c8284	-0.004776301
136	0xbb9cbb25	-0.0047830516
137	0x3d51b921	0.051201943
138	0xbbc77b91	-0.0060877283
139	0xbc8072a3	-0.015679663
140	0x3d43ff4a	0.047850884
141	0x3d327b3d	0.04357456
142	0xbc5ce9d9	-0.013483488
143	0x3d5d81d6	0.0540789
144	0x3d40c54d	0.04706316
145	0xbcf26b7f	-0.029592274
146	0xbd6d50af	-0.057938274
147	0xbd270109	-0.04077247
148	0xbce06f42	-0.027396802
149	0xbd046b85	-0.0323291
150	0xbd175791	-0.036948744
151	0xbc00fb50	-0.007872418
152	0x3da317a2	0.07963492
153	0x3d130938	0.035897464
154	0x3d068f89	0.03285173
155	0xbda43936	-0.080187246
156	0x3d1a62d2	0.0376919
157	0x3d6720da	0.056427814
158	0xbc6b06c2	-0.014344873
159	0xbc4a062f	-0.012330576
160	0x3d38dd19	0.04513273
161	0xbcac5d26	-0.02104051
162	0x3d5801b4	0.052736
163	0xbcbb3349	-0.022851603
164	0x3c9d357f	0.019190548
165	0xbabbf295	-0.0014339263
166	0xbcdac176	-0.026703577
167	0xbd02093e	-0.031747095
168	0xbc242e19	-0.010020756
169	0xbcaf79c0	-0.02142036
170	0xbd159590	-0.036519587
171	0xbce6fd24	-0.028196879
172	0xbcdebee2	-0.02719063
173	0x3d9dfe69	0.077145405
174	0x39a01d74	0.00030539522
175	0x3c1690eb	0.009189825
176	0xbd31e987	-0.0434356
177	0x3d326a53	0.04355843
178	0xbd8d0efb	-0.06887623
179	0x3c5e3e89	0.013564714
180	0x3d2255f1	0.03963274
181	0x3cf3fbd2	0.029783163
182	0xbd8db549	-0.06919343
183	0xbd041057	-0.032242145
184	0x3cf1468e	0.029452588
185	0x3ce43a5a	0.027859855
186	0xbd76cd4b	-0.060254376
187	0xbd4f2ec3	-0.050581705
188	0x3d271282	0.040789135
189	0x3cc0758b	0.023493549
190	0xbd8e46c6	-0.06947093
191	0xbcb4c1b3	-0.02206502
192	0x3d44b057	0.048019733
193	0xbd619154	-0.055070236
194	0xbab8094c	-0.0014040857
195	0xbd87a723	-0.06623676
196	0x3d0b86f2	0.03406424
197	0xbc14244f	-0.00904186
198	0x3d3868cd	0.04502182
199	0x3d2e7763	0.042594325
200	0xbc95fe0e	-0.01830962
201	0xbd24559d	-0.04012071
202	0x3cdb80f9	0.026794897
203	0x3cdd79be	0.02703559
204	0x3d1737b7	0.03691837
205	0xbcc1e0d3	-0.023666775
206	0xbd346e3e	-0.044050448
207	0xbce65359	-0.028115915
208	0x3cfd1bcd	0.030897046
209	0x3b547cbf	0.0032422987
210	0x3b969b0d	0.00459612
211	0x3d636822	0.05551923
212	0xbd595c0d	-0.053066302
213	0xbceb602d	-0.028732384
214	0x3cb93944	0.022610314
215	0x3c88e2d5	0.016709724
216	0xbd2a93c8	-0.04164484
217	0xbd08929b	-0.03334294
218	0x3d268f1a	0.040663816
219	0x3cbc6cd0	0.023001105
220	0xbcf7432a	-0.030183394
221	0xbc3f83e8	-0.011689164
222	0xbcf4ebb1	-0.029897543
223	0x3d48b4f8	0.04900071
224	0x3c68fc6f	0.014220341
225	0x3cf22535	0.029558757
226	0xbd3d2bdc	-0.046184406
227	0xbd2f9261	-0.042864207
228	0xbdb2d6e5	-0.08732394
229	0x3d45b5a3	0.048268925
230	0x3b0bece3	0.0021350912
231	0xbd88b2d0	-0.06674731
232	0x3d1b99d5	0.037988503
233	0x3d6d963f	0.058004614
234	0xbc4588c9	-0.012056538
235	0xbcbe7810	-0.02325061
236	0x3d69c93e	0.057076685
237	0x3c1fd56c	0.009755474
238	0xba91fe65	-0.0011138438
239	0xbba24872	-0.004952484
240	0x3c91955a	0.017771412
241	0x3cb83266	0.02248497
242	0x3d959ebb	0.07305666
243	0x3b972a75	0.0046132156
244	0x3da85af6	0.082204744
245	0x3ca00f0b	0.019538423
246	0xbdb39b01	-0.08769799
247	0xbcc94352	-0.024568234
248	0x3cbd8820	0.023136199
249	0xbd6d908c	-0.05799918
250	0xbd1d6330	-0.03842467
251	0x3d64f9ba	0.05590222
252	0x3cafd792	0.021465097
253	0x3c8a1819	0.016857194
254	0x3ca07041	0.019584777
255	0xbd60fd1a	-0.054928876

module.encoder.1.layers.6.bias f4 [1, 128]
0	0xbda2b2e4	-0.07944277
1	0xbd2f977d	-0.04286908
2	0xbd07e782	-0.033179767
3	0xbc84dacf	-0.016217617
4	0xbd0c8ee5	-0.034315962
5	0xbbf7a97f	-0.0075580473
6	0xbd48fa45	-0.0490668
7	0x3d8ab084	0.06771949
8	0x3c1658a4	0.009176407
9	0x3c0b3d03	0.008498433
10	0xbd945673	-0.072430514
11	0x3d809378	0.062781274
12	0x3d349735	0.044089515
13	0x3d808ab6	0.06276457
14	0x3d64c928	0.0558559
15	0x3d7032f9	0.05864236
16	0xbdaf07fb	-0.08546444
17	0xbda5f176	-0.08102696
18	0x389e1375	7.537651e-05
19	0xbd47b6b9	-0.048758242
20	0xbd7d68ee	-0.061867647
21	0x3be851ab	0.0070898137
22	0xbd5a7168	-0.05333081
23	0x3d865941	0.065599926
24	0xbd86df08	-0.065855086
25	0x3da7a963	0.08186605
26	0x3d609212	0.054826804
27	0xbc4c3cbe	-0.012465654
28	0x3d921423	0.07132747
29	0x3d059c73	0.032619905
30	0xbd4151f2	-0.04719729
31	0x3dbd4bbb	0.0924296
32	0xbd8630ce	-0.065522775
33	0xbbe165cd	-0.0068785907
34	0x3dcd7826	0.10032682
35	0x3d1313e9	0.03590766
36	0x3ba344f5	0.0049825856
37	0xbcd2c6e7	-0.02572961
38	0xbd5588ab	-0.05213229
39	0xbd7e4efd	-0.062087048
40	0xbd9c42a0	-0.07629895
41	0xbcf81529	-0.030283527
42	0xbd380aed	-0.044932295
43	0x3c14ddd7	0.009086094
44	0xbd6f81cd	-0.058473397
45	0xbd22fca8	-0.039791733
46	0xbc1ed67d	-0.009694693
47	0xbd562ad7	-0.05228695
48	0xbcca2add	-0.024678642
49	0x3d726942	0.059182413
50	0xbd57bdd7	-0.05267128
51	0xbdacfa96	-0.08446233
52	0x3d60b06b	0.054855745
53	0x3cc72057	0.024307413
54	0xbd9e259b	-0.077220164
55	0xbd4d365c	-0.05010067
56	0x3c3243ad	0.010880393
57	0xbb2342e0	-0.0024911687
58	0x3cf4f4d6	0.029901903
59	0x3cae9f88	0.021316305
60	0xbd2348f4	-0.039864495
61	0x3d94bf44	0.072630435
62	0x3be39638	0.0069453977
63	0x3cab4978	0.020909056
64	0x3d73bec7	0.05950811
65	0x3d085222	0.033281453
66	0xbb08e797	-0.0020889991
67	0xbbbc6236	-0.0057490123
68	0x3cb2e2d9	0.021836685
69	0xbd924044	-0.07141164
70	0x3ca2babf	0.019864438
71	0xbc7924b0	-0.015206501
72	0x3d879b40	0.066214085
73	0xbda23b09	-0.07921416
74	0x3dbecc93	0.09316363
75	0xbd9e9e31	-0.07745016
76	0x3d069edf	0.032866355
77	0xbd47b050	-0.04875213
78	0x3d8c5829	0.06852753
79	0x3d74ba20	0.059747815
80	0x3dad1546	0.08451323
81	0x3d8b0523	0.06788089
82	0xbd21b05e	-0.039474837
83	0x3d07699d	0.033059705
84	0x3dcdd4a5	0.10050324
85	0x3d539354	0.051654175
86	0xbd804e0b	-0.062648855
87	0xbd902875	-0.070389666
88	0xbd4d154d	-0.050069142
89	0x3c11860b	0.008882056
90	0x3c958e52	0.01825634
91	0x3d11571b	0.03548346
92	0x3d77424f	0.06036597
93	0x3db1a983	0.0867491
94	0x3c8438df	0.0161404
95	0x3d89c980	0.06727886
96	0xbcd6ff39	-0.026244747
97	0x3d0fb3e4	0.035083666
98	0xbd48c316	-0.049014173
99	0x3d7388ce	0.05945664
100	0x3d96cb97	0.073630504
101	0xbbf74e27	-0.0075471583
102	0xbd2f456b	-0.04279081
103	0xbd883705	-0.06651119
104	0x3bc797b6	0.0060910834
105	0x3d24fbf8	0.04027936
106	0x3d489e26	0.048978947
107	0x3ce2462f	0.027621357
108	0x3d0f1991	0.03493649
109	0xbd7af688	-0.061270267
110	0xbd6fb174	-0.058518842
111	0xbd402f40	-0.04692006
112	0xbd89e12f	-0.067324035
113	0x3d0e3e4a	0.034727372
114	0x3d4f0154	0.050538376
115	0xbdd3914f	-0.1033045
116	0x3caf3dfd	0.021391863
117	0xbd97ff84	-0.074217826
118	0x3d6258b5	0.05526038
119	0xbda8ddbf	-0.0824542
120	0xbd491da1	-0.049100522
121	0x3d9b5341	0.07584239
122	0x3db9ef25	0.09078816
123	0x3d09037d	0.033450592
124	0x3d8394db	0.06424876
125	0x3d22e36d	0.03976767
126	0xbcb43154	-0.021996178
127	0x3d53a99d	0.051675428

module.encoder.1.layers.6.weight f4 [1, 128, 128]
0	0xbb8ef607	-0.004362825
1	0x3d45bf29	0.048278008
2	0xbd0fe908	-0.035134345
3	0x3c087410	0.008328453
4	0xbd6b9224	-0.057512417
5	0x3b54dc61	0.003247999
6	0x3bc04355	0.0058674016
7	0xbd4af2a7	-0.049547818
8	0xbc97add9	-0.018515514
9	0x3d8f726e	0.070042476
10	0x3b0d7c5b	0.0021589014
11	0x3d777912	0.060418196
12	0x3d5ff1e5	0.054674048
13	0x3d9f1bff	0.07769012
14	0x3d70d410	0.05879599
15	0xbd321772	-0.04347939
16	0xbd08d881	-0.0334096
17	0x3d72eb86	0.059306644
18	0x3c803bf7	0.015653593
19	0xbd4ad33c	-0.049517855
20	0x3cc39baa	0.023877937
21	0x3bafca8d	0.005364722
22	0x3d599684	0.05312206
23	0x3d2889f9	0.041147206
24	0x3d85243a	0.0650105
25	0xbd842ce5	-0.064538755
26	0xbc5cfd40	-0.013488114
27	0xbd32e44f	-0.043674763
28	0x3d805db8	0.062678754
29	0x3d9a929b	0.07547494
30	0x3cab097f	0.020878552
31	0xbd87922b	-0.06619676
32	0x3c9070e0	0.017631948
33	0x3d61e005	0.055145282
34	0xbda27f72	-0.079344645
35	0xbc2b0c96	-0.010440012
36	0xbd62c439	-0.055362914
37	0x3dcff3bc	0.101539105
38	0x3dac9da2	0.084285036
39	0x3d7d60ae	0.06185978
40	0x3cf559f6	0.029950123
41	0x3d3ed062	0.046585448
42	0x3dcd92cc	0.10037765
43	0x3da3fc0f	0.08007061
44	0xbbce9bea	-0.0063052075
45	0x3c85a02a	0.016311724
46	0x3d76002b	0.060058754
47	0x3d8cf8b4	0.06883374
48	0xbd0b84cb	-0.034062188
49	0xbdc53f09	-0.096311636
50	0xbd226c62	-0.039654143
51	0x3d9d08e3	0.07667711
52	0x3d15cb53	0.03657086
53	0x3c20caef	0.009814008
54	0xbd4cf5cc	-0.050039098
55	0x3a853a18	0.0010164408
56	0xbd83e648	-0.06440407
57	0xbd90f8cb	-0.070787035
58	0xbcf68d83	-0.030096775
59	0xbd08336a	-0.033252157
60	0xbd9f2249	-0.07770211
61	0xbda9ab01	-0.082845695
62	0xbdb85807	-0.09001165
63	0x3c96127f	0.018319366
64	0x3d96ef58	0.0736987
65	0xbd29ba23	-0.04143728
66	0x3cfb776d	0.030696595
67	0x3c841896	0.016125005
68	0xbd3a175b	-0.04543243
69	0x3d9f5388	0.07779604
70	0x3c806271	0.01567194
71	0xbd52fcec	-0.051510736
72	0x3c19af72	0.009380208
73	0xbdce1993	-0.10063472
74	0xbccc8527	-0.024965836
75	0x3c097a97	0.008391044
76	0x3d72b574	0.05925508
77	0x3c7b4a29	0.015337505
78	0xbd34ea68	-0.04416886
79	0xbdd3dc28	-0.10344726
80	0x3d7b6f1e	0.061385266
81	0xbd81215a	-0.063051894
82	0x3d7132ea	0.058886446
83	0xbcacbfc3	-0.021087533
84	0xbd782b6b	-0.06058828
85	0xbd2b57b5	-0.04183169
86	0xbca36752	-0.019946728
87	0x3ccd89c0	0.025090098
88	0xbccf68bd	-0.025318498
89	0xbd150ba2	-0.036388047
90	0x3d2e6945	0.04258086
91	0x3d460fcc	0.04835491
92	0xbcc8ed80	-0.024527311
93	0xbd0df16e	-0.034654073
94	0xbd7a7555	-0.061147053
95	0xbda390dc	-0.07986614
96	0x3d942288	0.07233149
97	0xbd648ee4	-0.055800334
98	0x3d7e5e14	0.06210144
99	0x3b345b0f	0.0027520095
100	0xbcca8f4f	-0.024726538
101	0xbd9637fc	-0.07334897
102	0xbd6b4c2f	-0.0574457
103	0x3d397e8e	0.045286708
104	0xbcf6457f	-0.030062435
105	0x3d8d5474	0.06900874
106	0xbd4f09d0	-0.050546467
107	0xbda1d6dd	-0.0790231
108	0xbd483aba	-0.04888413
109	0x3d0ab3fd	0.033863056
110	0xbd839e7e	-0.06426714
111	0xbbffcca9	-0.00780638
112	0xb7cf8145	-2.4736519e-05
113	0x3d68b9c9	0.056817804
114	0xbc2630d3	-0.010143477
115	0x3d8cf067	0.068817906
116	0xbd983597	-0.074320965
117	0x3cc94b72	0.024572108
118	0x3b8de30c	0.0043300446
119	0x3d4a1c5e	0.04934346
120	0xbd73202d	-0.059356857
121	0xbc172605	-0.009225373
122	0xbd085c53	-0.033291172
123	0x3ce03369	0.027368264
124	0xbc978fdd	-0.018501217
125	0x3d3337c9	0.043754373
126	0x3cc20fa8	0.023689106
127	0xbcfebefc	-0.031096928
128	0x3d87fe90	0.06640351
129	0xbd129846	-0.03578975
130	0x3d033b3b	0.03203891
131	0x3db42424	0.08795956
132	0x3bd3037d	0.006439625
133	0x3d5aecb2	0.053448386
134	0xbd1a298f	-0.03763729
135	0x3d1ca17a	0.038239934
136	0xbce27e56	-0.027648132
137	0xbdbb7133	-0.091524504
138	0x3cb06b8f	0.021535663
139	0x3d9b27cb	0.07575949
140	0x3dcf7d61	0.10131336
141	0xbc61c26f	-0.013779267
142	0xbdb9753e	-0.09055565
143	0xbd691e8e	-0.056913905
144	0x3d7aeb13	0.06125934
145	0xbd813ad7	-0.06310051
146	0x3d916c5b	0.07100745
147	0xbb7133d3	-0.0036804571
148	0x3aba9ca1	0.0014237353
149	0x3d831464	0.064003736
150	0x3da8bc92	0.08239092
151	0xbd489fad	-0.048980404
152	0xbd1af1e1	-0.03782833
153	0xbd2af9cd	-0.041742135
154	0xbb8518b2	-0.004061782
155	0x3cf46313	0.029832399
156	0xbd8b9bcd	-0.06816826
157	0xbdb918c0	-0.09037924
158	0xbdc7e851	-0.09761108
159	0x3cd63e0c	0.026152633
160	0x3d0cee6b	0.03440706
161	0xbc75a374	-0.014992584
162	0x3d8d7015	0.069061436
163	0x3dc77cf6	0.09740631
164	0x3d895e53	0.06707444
165	0x3c9d20f7	0.019180758
166	0x3d92afc5	0.07162432
167	0x3d4fef8e	0.050765567
168	0xbd3432e7	-0.043993857
169	0x3d380db1	0.044934932
170	0x3cf4d204	0.0298853
171	0x3cdbc7a0	0.026828587
172	0xbd98651f	-0.07441162
173	0x3ce6d8d4	0.028179564
174	0x3d9cfb26	0.0766509
175	0xbdb0e2f4	-0.08637038
176	0xbd85fb88	-0.065421164
177	0x3db60b50	0.088888764
178	0x3d17c8f7	0.03705689
179	0x3b678153	0.0035324886
180	0x3db8d25c	0.09024498
181	0xbb96052f	-0.0045782547
182	0xba798cb1	-0.0009519561
183	0x3d951413	0.072792195
184	0x3d94a978	0.07258886
185	0x3d5c81ba	0.053834654
186	0x3d36e6a2	0.044653542
187	0xbd47b54f	-0.048756894
188	0x3cd3a319	0.025834607
189	0x3d4dd228	0.05024925
190	0xbb545812	-0.0032401127
191	0xbd421d83	-0.047391426
192	0xbbe332f6	-0.0069335653
193	0x3d7f5fd3	0.062347244
194	0x3db30105	0.08740429
195	0x3c1d0c79	0.009585493
196	0x3d08aca3	0.033367764
197	0x3caef225	0.021355698
198	0xbcd06475	-0.025438527
199	0xbd618f9f	-0.05506861
200	0x3d48ba26	0.04900565
201	0x3d63187e	0.05544328
202	0x3b3dfe04	0.0028990516
203	0x3db59480	0.08866215
204	0x3d9db42c	0.07700381
205	0x3da3eb32	0.08003844
206	0x3cb109d4	0.021611132
207	0xbd6476db	-0.055777412
208	0xbd79aa41	-0.060953382
209	0xbd5932fd	-0.05302714
210	0x3c888f5e	0.016669925
211	0xbd56cb45	-0.052439947
212	0x3de13002	0.10995485
213	0x3ad3650a	0.0016128134
214	0xbc49a6da	-0.012307847
215	0xbd87cf38	-0.06631321
216	0x3cf35cd6	0.029707354
217	0x3d850df3	0.06496801
218	0xbd092d8f	-0.033490714
219	0xbd5b2229	-0.053499375
220	0xbd72bada	-0.059260227
221	0xbda47476	-0.08030026
222	0x3c55d0bd	0.013050255
223	0xbd70ae1c	-0.058759794
224	0xbc3483e4	-0.011017773
225	0xbc59971b	-0.013280655
226	0x3be32227	0.0069315615
227	0x3b882cb3	0.004155719
228	0xbd54afe9	-0.051925573
229	0xbd01fa18	-0.03173265
230	0xbda7e0e3	-0.081971906
231	0x3d9a7414	0.075416714
232	0x3d8677d7	0.065658264
233	0x3daabd54	0.08336893
234	0xbdb256e9	-0.08707983
235	0x3bdd5314	0.0067542884
236	0x3cdf0381	0.02722335
237	0x3d8ffef4	0.0703105
238	0x3d45d751	0.048301045
239	0x3d1ec11a	0.038758375
240	0xbaec8046	-0.00180436
241	0xbd0695bd	-0.032857645
242	0xbda0f593	-0.078593396
243	0xbdbafc57	-0.09130161
244	0x3d945abf	0.07243871
245	0x3d383c5c	0.04497944
246	0x3ca15023	0.019691532
247	0xbd345862	-0.0440296
248	0x3da78783	0.08180144
249	0xbd230568	-0.039800078
250	0xbd6d1ca5	-0.057888646
251	0x3cf05a32	0.029339883
252	0x3c9aa71b	0.01887851
253	0xbb7323d8	-0.0037100222
254	0x3bb61781	0.005557001
255	0x3d87ce3c	0.06631133

module.encoder.1.layers.8.bias f4 [1, 128]
0	0xbc061b92	-0.008185284
1	0xbca3e6bf	-0.02000749
2	0xbb3919e0	-0.0028244182
3	0xbd2e99ad	-0.042627025
4	0xbd6eaa7c	-0.058268055
5	0xbd431e18	-0.04763612
6	0xbcfa7f05	-0.030578146
7	0x3cfab37a	0.03060316
8	0x3dabeb07	0.08394437
9	0xbc3990f2	-0.011326062
10	0xbdd558a5	-0.10417298
11	0x3aedd0ed	0.001814393
12	0xbca941ac	-0.020661198
13	0xbc9e6621	-0.019335808
14	0x3d03d2ab	0.03218333
15	0xbdfedaed	-0.124441005
16	0xbc1cbaa0	-0.009565979
17	0xbce4c70f	-0.02792695
18	0x3d09ee2e	0.03367441
19	0xbbfe99be	-0.0077697923
20	0x3d424bd0	0.04743558
21	0xbd36e5bd	-0.04465269
22	0x3cf93f85	0.030425796
23	0xbd7e032c	-0.062014744
24	0xbdb28869	-0.087174244
25	0x3dc77df6	0.09740822
26	0x3d853752	0.06504692
27	0xbd130cd5	-0.03590091
28	0xbbc4c974	-0.0060054604
29	0x3d414872	0.04718823
30	0x3dfe807d	0.12426851
31	0x3d8a9c92	0.06768145
32	0xbcc910c6	-0.024544131
33	0x3cdade38	0.02671729
34	0x3d8b15f2	0.06791295
35	0x3d11d6f7	0.035605397
36	0xbd932733	-0.07185211
37	0xbde6b861	-0.11265636
38	0xbc84b069	-0.0161974
39	0xbcbf6994	-0.023365773
40	0x3b831176	0.0039998842
41	0xbbecd0b7	-0.007227029
42	0x3cd1ef13	0.025626695
43	0x3d874a85	0.0660601
44	0x3dd0d976	0.101977274
45	0xbda61cd7	-0.081109695
46	0x3c248db7	0.010043553
47	0x3c306728	0.010766782
48	0x3c2f21d8	0.010689221
49	0x3d341339	0.043963645
50	0xbd0595ab	-0.032613438
51	0xbdc8717b	-0.0978727
52	0x3d3ef303	0.046618473
53	0xbd90d344	-0.07071546
54	0xbd406e1d	-0.046980012
55	0x3d479fb4	0.04873629
56	0xbc907cd5	-0.01763765
57	0x3d39f04b	0.045395177
58	0xbdd1283a	-0.10212751
59	0x3bd1d4aa	0.0064035254
60	0x3d0631f6	0.03276249
61	0x3d779db4	0.06045313
62	0x3d6e6597	0.058202352
63	0xbc35f5d1	-0.0111059705
64	0xbd79749a	-0.060902216
65	0x3cac1f32	0.021010969
66	0x3d237483	0.039906036
67	0x3d19efc2	0.037582166
68	0x3db8ec5a	0.090294555
69	0x3cde03fc	0.02710151
70	0x3c9f55a0	0.019450009
71	0xbd66ecab	-0.056378048
72	0xbc982b3b	-0.018575301
73	0xbc867a12	-0.01641563
74	0xbb3fc015	-0.0029258777
75	0xbce3a003	-0.02778626
76	0x3d66bc3c	0.056331858
77	0x3c461229	0.012089291
78	0xbcfa6ca8	-0.03056939
79	0x3d771705	0.060324688
80	0x3cf01cee	0.02931067
81	0x3cfc5b65	0.030805299
82	0xbd49b642	-0.04924608
83	0xbca0f3e4	-0.019647546
84	0x3d69ae1f	0.05705082
85	0xbd028a7c	-0.03187035
86	0xbcea8d6a	-0.028631885
87	0x3d525b7a	0.05135677
88	0xbc8f0714	-0.01745943
89	0x3cd2439b	0.025667002
90	0xbd9ebbb8	-0.07750648
91	0xbd3e9a4c	-0.046533868
92	0x3d6f6b95	0.058452208
93	0x3bc0a54c	0.00587908
94	0xbd71a8f5	-0.05899902
95	0x3dd04edd	0.10171292
96	0xbce70cfd	-0.028204435
97	0xbd0c461b	-0.034246545
98	0x3c953599	0.018214034
99	0x3d0d3e53	0.034483265
100	0x3cf05ca6	0.029341053
101	0xbc1d9073	-0.009616959
102	0xbc251734	-0.010076333
103	0xbd821104	-0.06350902
104	0xbd6ae849	-0.05735043
105	0xbd59c463	-0.053165805
106	0x3a067fa3	0.00051307137
107	0xbe0dca2a	-0.1384665
108	0xbda64127	-0.081178956
109	0xbc155cf4	-0.0091164
110	0x3c3071e8	0.010769345
111	0x3d1ecc89	0.03876928
112	0xbd1942e8	-0.037417322
113	0xbcbf40a7	-0.023346258
114	0x3d60579b	0.054771047
115	0x3c196f5e	0.009364931
116	0xbd59dc2c	-0.053188488
117	0xbceb2e53	-0.028708613
118	0x3d897401	0.06711579
119	0xbca410e1	-0.02002758
120	0xbc09cb10	-0.00841023
121	0x3cb0c6f3	0.021579241
122	0xbc745f04	-0.014915232
123	0x3d35a97f	0.044351097
124	0x3c0a8d09	0.008456477
125	0xbbc734b4	-0.0060792807
126	0x3c3c1f58	0.011482082
127	0x3d2a1873	0.041527223
