scripts/shell/checkpoint/coselfplay/policy_high_level_final.pt (torch, 956252 bytes, 49 tensors)

module.base.0.weight f4 [100]
0	0x3f7cea39	0.98794895
1	0x3f8634b6	1.0484836
2	0x3f861f81	1.0478364
3	0x3f83dd31	1.0301877
4	0x3f86f2b6	1.054282
5	0x3f835007	1.0258797
6	0x3f89b085	1.0756994
7	0x3f85aa15	1.044253
8	0x3f831326	1.0240219
9	0x3f86c81d	1.052982
10	0x3f825a91	1.0183889
11	0x3f838594	1.027514
12	0x3f8aee93	1.0854057
13	0x3f797844	0.97449136
14	0x3f7ab959	0.9793907
15	0x3f81dd63	1.0145687
16	0x3f823de9	1.0175143
17	0x3f80f76d	1.0075508
18	0x3f804732	1.0021727
19	0x3f82ed6f	1.0228709
20	0x3f8585ec	1.0431495
21	0x3f7b201c	0.9809587
22	0x3f7d979e	0.99059474
23	0x3f3e2eaa	0.74289954
24	0x3f5ed87c	0.8704908
25	0x3f82e628	1.0226488
26	0x3f7f897c	0.9981916
27	0x3f838510	1.0274982
28	0x3f807822	1.0036662
29	0x3f81ed8c	1.0150619
30	0x3f81c82e	1.0139215
31	0x3f804ce3	1.0023464
32	0x3f83736e	1.0269601
33	0x3f8a144b	1.0787443
34	0x3f81c5cc	1.0138488
35	0x3f727ac2	0.94718564
36	0x3f6414bf	0.89094156
37	0x3f6dd75f	0.92906755
38	0x3f811290	1.008379
39	0x3f7bf8fb	0.9842679
40	0x3f7f6d4a	0.99776137
41	0x3f84f06b	1.038587
42	0x3f8eb9d9	1.1150466
43	0x3f7f0efd	0.99632245
44	0x3f828fad	1.0200096
45	0x3f3656ba	0.71226084
46	0x3f83723a	1.0269234
47	0x3f81c452	1.0138037
48	0x3f8393a6	1.0279434
49	0x3f71e831	0.9449492
50	0x3f7d565e	0.9895991
51	0x3f8c5aec	1.0965247
52	0x3f7a449a	0.9776093
53	0x3f7d3ad3	0.98917884
54	0x3f810981	1.0081025
55	0x3f8309dd	1.0237385
56	0x3f80c48b	1.005998
57	0x3f81fcfc	1.015533
58	0x3f27c6cd	0.6553772
59	0x3f83b762	1.0290339
60	0x3f7d323a	0.98904765
61	0x3f7f979d	0.9984072
62	0x3f334a0d	0.7003487
63	0x3f6b2f8e	0.9186944
64	0x3f827c8d	1.019426
65	0x3f80696d	1.0032173
66	0x3f8040bb	1.0019754
67	0x3f7ec2b6	0.99515855
68	0x3f81f05e	1.0151479
69	0x3f82e279	1.0225364
70	0x3f80314a	1.0015042
71	0x3f0e0d61	0.55489165
72	0x3f8909c1	1.0706102
73	0x3f818a19	1.0120269
74	0x3f7cf7d9	0.98815686
75	0x3f4da5f9	0.8033138
76	0x3f716997	0.9430174
77	0x3f7fcd62	0.99922764
78	0x3f76945e	0.9632014
79	0x3f82c679	1.0216819
80	0x3f80f12b	1.0073599
81	0x3f701aac	0.937907
82	0x3f807860	1.0036736
83	0x3f75121c	0.9573076
84	0x3f869688	1.0514688
85	0x3f87641b	1.0577425
86	0x3f8384e0	1.0274925
87	0x3f858dc6	1.0433891
88	0x3f80c0ac	1.0058799
89	0x3f84a5ca	1.0363095
90	0x3f85fa2a	1.0466969
91	0x3f86f620	1.0543861
92	0x3f7e5828	0.99353266
93	0x3f85c5cc	1.0450988
94	0x3f830b90	1.0237904
95	0x3f8351b5	1.025931
96	0x3f835aa8	1.0262041
97	0x3f81ed3b	1.0150522
98	0x3f818782	1.0119479
99	0x3f86677d	1.0500332

module.base.0.bias f4 [100]
0	0xbd06601d	-0.032806505
1	0x3b2df32f	0.0026542654
2	0xbcb1a7e9	-0.021686511
3	0x3b803fbf	0.003913849
4	0xbbc2f9fe	-0.0059502115
5	0x3b71852c	0.0036853058
6	0xbb120850	-0.0022282787
7	0x3bdbc42c	0.006706735
8	0x3c711e93	0.014716762
9	0xbc317cee	-0.010833008
10	0x3c587c09	0.013213166
11	0x3baed5f9	0.005335566
12	0xbac24185	-0.0014820552
13	0xbce44f95	-0.027869979
14	0x3d0e3ff8	0.034728974
15	0xbc3081ed	-0.010773164
16	0x3b96316c	0.0045835283
17	0x3c8086ee	0.01568934
18	0x3be51354	0.0069908295
19	0x3b9d5d7b	0.0048024035
20	0x3c3b4d56	0.011432013
21	0x3acb0bbc	0.0015491168
22	0xbc201c23	-0.009772333
23	0x3cb0f1f5	0.02159975
24	0x3cac38f0	0.021023244
25	0x3bdbddaf	0.0067097764
26	0xbc9a0ad2	-0.018803988
27	0xbc63259c	-0.013863947
28	0xbb69f105	-0.0035696637
29	0x3bc41ef7	0.0059851366
30	0x3c9a981a	0.018871356
31	0x3bfb91c8	0.0076772906
32	0x3c033fa1	0.008010776
33	0xbb897b6e	-0.004195622
34	0xbbb68ebd	-0.005571215
35	0x3c237a1d	0.009977845
36	0x3ce25ced	0.027632201
37	0x3b5ca3d3	0.0033666983
38	0x3c001109	0.0078165615
39	0x3cdada05	0.026715288
40	0xbc178c69	-0.009249785
41	0xbca33ee5	-0.019927451
42	0x3c477eba	0.01217621
43	0x3b897559	0.004194897
44	0xbbf4dd91	-0.007472702
45	0xbc9a4562	-0.018831912
46	0xb9fb7290	-0.00047959806
47	0x3c12038d	0.008911979
48	0xbc28b9bb	-0.010298188
49	0x3d153db8	0.036435813
50	0x3c103315	0.008801241
51	0x3c296541	0.010339082
52	0x3cac1f3e	0.021010991
53	0xbb0aa1c6	-0.0021153553
54	0xbb92ad0d	-0.0044761957
55	0x3c001f78	0.007820003
56	0x3baae70b	0.0052155307
57	0xbb1ced45	-0.0023945135
58	0xbb8e2a94	-0.004338572
59	0x3d080695	0.033209402
60	0x3ba8a8cd	0.0051470757
61	0xbba930ce	-0.0051632887
62	0xbbdd1f50	-0.0067481175
63	0xbaf9365a	-0.001901339
64	0x3caaf447	0.020868434
65	0x3c54d87f	0.01299107
66	0x3c831f31	0.016006084
67	0xbc632369	-0.013863423
68	0x3bf11bd6	0.0073580546
69	0x3c6045bc	0.013688501
70	0x3aa6db31	0.0012730119
71	0x3d49d5e5	0.04927625
72	0x3bfc6571	0.0077025224
73	0x3be06699	0.006848168
74	0x3c73f768	0.014890529
75	0x3bdfcf42	0.006830127
76	0x3a6fe7d2	0.00091516704
77	0x3c8052db	0.015664509
78	0xbaaf5362	-0.001337629
79	0x3bdbae3d	0.0067041204
80	0xbcc798f9	-0.024364935
81	0x39979606	0.0002891274
82	0xbb4b731e	-0.0031043957
83	0xbca3f08b	-0.02001216
84	0xbc078d8a	-0.008273492
85	0xb9c66501	-0.00037840757
86	0x3c54be11	0.0129847685
87	0xbc367ab6	-0.011137655
88	0xbbc69aa2	-0.006060914
89	0x3b25215b	0.0025196883
90	0x3c03af77	0.00803744
91	0x3b0e1492	0.0021679741
92	0xbc8362fe	-0.016038414
93	0x3b661e82	0.00351134
94	0xbb90e46e	-0.004421762
95	0x3baf28ec	0.0053454544
96	0x39bc1d04	0.00035879773
97	0xbac683a1	-0.001514543
98	0xbc486073	-0.012230027
99	0xbb86a7e9	-0.004109372

module.base.1.layers.0.weight f4 [256, 100]
0	0x3d772316	0.060336195
1	0xbdb0c0c9	-0.08630521
2	0x3d529d8d	0.051419783
3	0xbdaefc9d	-0.08544276
4	0xbd6e7139	-0.058213446
5	0xbdbbc59e	-0.09168552
6	0xbc4753ec	-0.012166005
7	0x3d929736	0.071577474
8	0xbc6f572f	-0.0146081885
9	0x3df0063d	0.1171994
10	0x3c4c6e83	0.01247752
11	0xbd5cae3a	-0.053877093
12	0x3d03747b	0.032093506
13	0xbd86e0e5	-0.06585864
14	0xbda09862	-0.07841565
15	0x3d8e29ad	0.06941543
16	0xbdbe53c4	-0.09293321
17	0xbc61ee84	-0.013789777
18	0x3bae52c9	0.0053199274
19	0xbdb1fab2	-0.086903945
20	0x3b4927d2	0.00306939
21	0x3d969f86	0.073546454
22	0xbc79ad98	-0.015239142
23	0xbc7ede68	-0.0155559555
24	0xbc3fba0f	-0.011702075
25	0x3d83e487	0.064400725
26	0xbd208dd0	-0.039197743
27	0xbdd18d4e	-0.1023203
28	0x3d9e8895	0.07740895
29	0x3d1a84cd	0.037724305
30	0x3c0a2aef	0.008433088
31	0x3d980049	0.074219294
32	0x3d0a1421	0.033710603
33	0x3dcfbf37	0.10143893
34	0x3d32cc81	0.04365206
35	0xbd7100ef	-0.05883878
36	0xbce556c8	-0.027995482
37	0x3d7f87f0	0.0623855
38	0xbd83c1ec	-0.06433472
39	0x3a3e2812	0.0007253896
40	0x3d756dd9	0.059919212
41	0xbd8d93f9	-0.06912989
42	0xbdda8f90	-0.106719136
43	0xbc81d91b	-0.015850594
44	0xbc1a55d8	-0.009419881
45	0xbbb3317a	-0.0054685446
46	0xbd3f1e1c	-0.046659574
47	0x3dd0b1d5	0.10190169
48	0x3ba18719	0.004929435
49	0x3c443c4f	0.011977269
50	0xbd3cb9c8	-0.046075612
51	0x3db77de0	0.089595556
52	0x3da412ff	0.08011436
53	0xbdd7113c	-0.10501334
54	0x3db0a10e	0.08624469
55	0xbdd6bb9f	-0.10485005
56	0xbda1eab9	-0.07906098
57	0xbd7aa503	-0.061192524
58	0x38a6451b	7.928369e-05
59	0xbd17720f	-0.03697401
60	0xbb127055	-0.0022344787
61	0xbcad4462	-0.021150772
62	0x3d0b9a07	0.03408244
63	0x3d7bf051	0.06150848
64	0xbcafe1d5	-0.02146999
65	0x3d5cb4cf	0.05388337
66	0xbdc23058	-0.09481877
67	0x3d18b2a0	0.037279725
68	0x3da631cf	0.08114969
69	0xbd37bd55	-0.044858295
70	0xbd8a1173	-0.067416094
71	0x3d5e6de6	0.054304026
72	0x3d72df22	0.059294827
73	0xbd82cf6c	-0.06387219
74	0xbe071030	-0.13189769
75	0xbbd59418	-0.0065178983
76	0x3db8e614	0.09028259
77	0x3d17b366	0.037036322
78	0xbd398c8d	-0.045300055
79	0x3dc1be18	0.09460086
80	0x3d21f4cf	0.03954011
81	0xbd6a90cb	-0.05726699
82	0x3d631eef	0.055449422
83	0xbc6a6bb9	-0.01430791
84	0x3c966c06	0.018362056
85	0xbc1dd4a3	-0.009633216
86	0xbd9092ac	-0.070592254
87	0x3c6e74d1	0.014554218
88	0xbcac91f5	-0.021065691
89	0xbc515039	-0.012775474
90	0xbc22a5a5	-0.009927188
91	0x3bc915a2	0.006136612
92	0x3d53a0ff	0.05166721
93	0x3d8f5816	0.06999223
94	0xbd446e9e	-0.047957055
95	0x3d389933	0.045067977
96	0xbdb5e61b	-0.0888178
97	0x3d0c3545	0.03423049
98	0x3cad4fd4	0.02115623
99	0x3da1b8e0	0.0789659
100	0x3ccf5907	0.025311006
101	0x3d8cddc1	0.06878234
102	0xbd59763a	-0.053091265
103	0x3d7ac8f7	0.06122681
104	0x3de9f728	0.114240944
105	0xbdb3f7d9	-0.087875076
106	0xbd8d0ab2	-0.068868056
107	0x3d8b5d0a	0.06804855
108	0x3c994eb3	0.018714285
109	0xbda2ec13	-0.07955184
110	0xbd48aedb	-0.04899488
111	0xbd67d2b4	-0.056597427
112	0x3c81e059	0.015854048
113	0x3d5b542f	0.05354708
114	0x3dbd2203	0.09235003
115	0x3d7b0281	0.061281685
116	0xbca2516e	-0.01981422
117	0xbd3a6c91	-0.045513693
118	0x3d148507	0.036259677
119	0xbd6eb7fe	-0.058280937
120	0x3d663e6c	0.056211874
121	0x3daaa5f2	0.08332433
122	0xbd14baf2	-0.036311097
123	0x3d515f1c	0.051116094
124	0xbd9ce25e	-0.076603636
125	0x3dd149f6	0.10219185
126	0x3d895167	0.067049794
127	0xbd8a44e3	-0.0675142
128	0xbd44e796	-0.04807242
129	0xbd7ca418	-0.06167993
130	0x3d9a4eb5	0.075345434
131	0x3d47e3f5	0.04880138
132	0x3db2f534	0.08738175
133	0x3c5ad4d1	0.013356403
134	0x3d20e257	0.039278354
135	0xbcc46bef	-0.023977248
136	0xbc707b52	-0.014677839
137	0xbd424133	-0.04742546
138	0xbc036075	-0.008018603
139	0x3c2401c0	0.010010183
140	0xbddfcc6d	-0.10927663
141	0xbdbe64da	-0.0929658
142	0xbd17ed8e	-0.037091784
143	0x3c01d458	0.007924162
144	0xbcb98d09	-0.022650259
145	0x3d126cc6	0.035748266
146	0xbd1043ff	-0.035221096
147	0x3b4699bc	0.0030304035
148	0xbdbfd882	-0.093674675
149	0x3c4f8004	0.012664799
150	0xbccd5d2a	-0.025068838
151	0x3d903b16	0.0704252
152	0x3bbea3d4	0.0058178697
153	0x3d789e55	0.060697872
154	0x3c169b4a	0.009192297
155	0x3d75d0d0	0.060013592
156	0xbd446c08	-0.04795459
157	0xbcd698f8	-0.026195988
158	0x3da56559	0.08075971
159	0xbda6f43b	-0.08152052
160	0x3cc3f4ef	0.023920504
161	0x3d592532	0.053013988
162	0xbb880124	-0.0041505266
163	0x3d10672a	0.035254635
164	0x3dfc41d6	0.12317245
165	0x3c00fbe6	0.007872557
166	0x3d5df7bd	0.05419134
167	0x3d81f550	0.06345618
168	0x3df97232	0.12179984
169	0xbccf59e9	-0.025311427
170	0x3d6ca897	0.057777967
171	0x3cedfa5a	0.029050041
172	0xbdc318bd	-0.09526203
173	0xbd45a710	-0.048255026
174	0xbd838d5a	-0.06423445
175	0x3933a5f4	0.00017132593
176	0x3d7bffed	0.061523367
177	0xbc2b0155	-0.010437329
178	0xbb0c0b2e	-0.0021368968
179	0x3de332d2	0.110936776
180	0x3d5fd00c	0.05464177
181	0x3d33abf7	0.04386517
182	0x3d7e9f74	0.062163785
183	0x3d039d4b	0.03213243
184	0xbd6c4af3	-0.057688665
185	0x3de55e56	0.11199634
186	0xbdb5863e	-0.08863495
187	0x3e16379f	0.14669655
188	0xbdd6ce59	-0.104885764
189	0x3dd83fda	0.10559054
190	0x3d601b45	0.054713506
191	0x3dcd78ff	0.10032844
192	0xbda49457	-0.08036106
193	0xbd888279	-0.06665511
194	0x3da9e617	0.08295839
195	0x3daedb22	0.0853789
196	0xbaee0e15	-0.0018162156
197	0x3db76cb3	0.089562796
198	0x3dab3855	0.08360354
199	0x3bf1fc79	0.0073848334
200	0xbd560aa0	-0.052256227
201	0x3c12ec39	0.008967453
202	0xbb0225e9	-0.0019859022
203	0xbdc26807	-0.09492498
204	0xbdc71a33	-0.09721794
205	0xbdd8551c	-0.10563108
206	0xbd015529	-0.031575356
207	0xbc4de3b9	-0.0125665
208	0x3cbce777	0.02305959
209	0x3c57a90f	0.013162865
210	0x3c996552	0.018725071
211	0x3ce99cfc	0.028517239
212	0xbbf74eb1	-0.0075472225
213	0xbd968194	-0.07348934
214	0x3d346a79	0.044046853
215	0x3dbfda06	0.093677565
216	0xbd3ec7e1	-0.046577338
217	0xbd429481	-0.047504906
218	0x3c543763	0.012952658
219	0x3d8b686e	0.06807028
220	0x3dcae781	0.09907437
221	0xbd54bac8	-0.05193594
222	0x3c45459d	0.012040523
223	0x3d90802b	0.07055696
224	0xbdc0b54f	-0.09409582
225	0x3dd4b19a	0.10385437
226	0xbc5704be	-0.013123689
227	0x3dbede3f	0.09319734
228	0x3d6533d4	0.05595763
229	0xbc185fc3	-0.009300175
230	0xbce22e5e	-0.02761
231	0x3d68795e	0.05675637
232	0x3c930b42	0.017949704
233	0xbd4e2fe6	-0.05033865
234	0xbdb080c0	-0.08618307
235	0x3db48dff	0.08816146
236	0x3da2e226	0.07953291
237	0x3c8fb8cf	0.017544178
238	0x3da7e87b	0.08198639
239	0xbdb74c22	-0.08950068
240	0x3d83e3b1	0.06439913
241	0x3d616f6b	0.055037897
242	0xbde95e77	-0.11394971
243	0xbd13d569	-0.036092196
244	0x3d26d30e	0.04072862
245	0xbd6b416e	-0.057435445
246	0xbd88e83a	-0.06684919
247	0x3d872801	0.06599427
248	0xbc78e55c	-0.015191402
249	0x3d3e3f1b	0.0464469
250	0xbdc96251	-0.098332055
251	0x3c89d3e4	0.01682467
252	0xbd92f855	-0.07176272
253	0xbb2553dd	-0.0025226988
254	0xbcb22e3a	-0.021750558
255	0xbcecba3b	-0.028897395

module.base.1.layers.0.bias f4 [256]
0	0x3d9e0de2	0.07717492
1	0x3d6cc7ce	0.057807736
2	0xbd2e79e4	-0.042596713
3	0xbc5258b1	-0.0128385285
4	0x3d842310	0.06452
5	0x3d2b4b0a	0.04181961
6	0x3d7d5b0a	0.0618544
7	0x3d3bacc7	0.04581907
8	0x3d89c0ab	0.067262016
9	0x3dd0f2d5	0.102025665
10	0x3d21599d	0.039392103
11	0x3d4ca403	0.0499611
12	0xbd299429	-0.041401062
13	0xbd727353	-0.059192013
14	0xbcc90fe2	-0.024543706
15	0xbcc6a151	-0.024246844
16	0x3d6f0921	0.058358315
17	0xbc2a62ec	-0.010399561
18	0xbdc3ad21	-0.09554506
19	0xbd8d29ba	-0.06892724
20	0x3d79777a	0.060904957
21	0x3d5d874d	0.05408411
22	0x3db444a3	0.08802154
23	0x3d302919	0.043007944
24	0x3dbf775a	0.093489364
25	0x3d2daf7f	0.042403694
26	0xbd283d38	-0.041074008
27	0xbd63eef2	-0.055647798
28	0x3d936d11	0.07198537
29	0xbc8e6e6d	-0.01738664
30	0xbd666473	-0.05624814
31	0x3cd94e6a	0.026526649
32	0x3db23872	0.08702172
33	0xbbb7d3d0	-0.005609967
34	0xbc329629	-0.010900059
35	0xbca00161	-0.019531908
36	0xbd27fbb4	-0.041011527
37	0x3d5baaf4	0.05362983
38	0xbd0df2c8	-0.034655362
39	0xbbcd6344	-0.006267937
40	0x3d5be1c7	0.053682115
41	0x3d2da439	0.042392943
42	0xbd62d7d5	-0.055381615
43	0xbd8977bf	-0.06712293
44	0xbd30aeb9	-0.04313538
45	0xbd8d12ca	-0.06888349
46	0xbc0ec4f5	-0.00871395
47	0x3d93b940	0.07213068
48	0xbcab709d	-0.020927722
49	0xbdb044e7	-0.08606892
50	0xbd45c6fa	-0.048285462
51	0xbd0fe4b2	-0.03513021
52	0x3d451781	0.04811812
53	0xbd88f55b	-0.06687423
54	0x3cbdfc53	0.023191607
55	0x3d0cfeca	0.034422673
56	0xbd91aca3	-0.07113006
57	0x3cdfdbde	0.02732652
58	0x3d86ae9c	0.06576273
59	0x3d0ba1f6	0.034090005
60	0xbdb4401d	-0.08801291
61	0xbc3cf590	-0.011533156
62	0x3dc8e9e3	0.09810235
63	0xbdc2849d	-0.0949795
64	0x3d3118c4	0.04323651
65	0x3cb15e80	0.021651506
66	0xbc579d82	-0.013160111
67	0x3d3c4ba7	0.045970585
68	0x3d4ff468	0.050770193
69	0xbdc4131b	-0.095739566
70	0xbdcafbec	-0.099113315
71	0xbd92d610	-0.071697354
72	0xbafa228f	-0.0019083786
73	0x3d36402d	0.044494797
74	0xbd889c3e	-0.06670426
75	0x3beb3084	0.0071774144
76	0x3db6c0ab	0.08923467
77	0xbda5983a	-0.080856755
78	0xbd1fdb56	-0.039027534
79	0xbc96b446	-0.018396508
80	0x3d70b14e	0.05876284
81	0xbdb29f1c	-0.08721754
82	0x3c6ed5c6	0.014577335
83	0xbbbb26f9	-0.005711433
84	0x3da70e28	0.08156997
85	0x3c9686f3	0.018374896
86	0x3c655f58	0.0139997825
87	0xbd88378f	-0.06651222
88	0x3c3fefeb	0.011714916
89	0x3d7c450f	0.061589297
90	0xbddd3c32	-0.10802497
91	0xbdbfa8f4	-0.09358397
92	0xbd368fe3	-0.044570815
93	0x3d0bb601	0.03410912
94	0x3d69cc2f	0.05707949
95	0xbd3082d0	-0.043093503
96	0x3d118c97	0.035534468
97	0xbd6998ff	-0.057030674
98	0xbdb5df2e	-0.08880459
99	0xbbfaef20	-0.0076579005
100	0x3db233b5	0.087012686
101	0xbd7b4547	-0.061345365
102	0x3d85feb2	0.0654272
103	0xbd69c4f2	-0.057072587
104	0xbd9df165	-0.07712058
105	0x3cb0928b	0.021554252
106	0xbc9edbef	-0.019391982
107	0xbdaabc05	-0.08336643
108	0xbcfed127	-0.031105591
109	0x3d876da1	0.06612707
110	0x3d4fc5ec	0.050725862
111	0x3d8355c6	0.06412844
112	0x3d945c9b	0.072442256
113	0x3d373183	0.044724952
114	0x3ca44250	0.020051152
115	0xbd74490f	-0.059639987
116	0xbdc19f42	-0.09454204
117	0x3cf24913	0.02957586
118	0xbcce578f	-0.025188236
119	0x3d575d09	0.05257896
120	0xbcf02b4c	-0.02931752
121	0xbda870ef	-0.082246654
122	0xbd8c2728	-0.06843406
123	0xbd6501c3	-0.055909883
124	0xbd770bcb	-0.06031398
125	0xbd045a6c	-0.032312796
126	0x3cd6262b	0.026141247
127	0x3dd187d2	0.10230984
128	0xbd9e1bb6	-0.07720129
129	0xbd12340f	-0.03569418
130	0xbc8020c7	-0.01564063
131	0x3cadcaa2	0.021214787
132	0x3d292f36	0.04130479
133	0x3d63fe35	0.055662353
134	0x3d5f5388	0.05452302
135	0x3da25272	0.079258814
136	0xbbb10766	-0.0054024933
137	0xbdb6b0b8	-0.08920425
138	0x3c82a952	0.015949879
139	0x3d5ceaee	0.053934984
140	0xbd0c8584	-0.034307018
141	0x3d6072e0	0.054797053
142	0xbd1a7e4a	-0.037718095
143	0x3c396981	0.011316658
144	0x3d1601cb	0.036622804
145	0xbbc7454a	-0.006081258
146	0x3ca46035	0.020065406
147	0x3c84f1d1	0.016228588
148	0x3d78b85d	0.060722698
149	0x3d121fe3	0.03567494
150	0xbd1ee425	-0.038791794
151	0x3dc20a93	0.09474673
152	0x3d98fa98	0.07469672
153	0x3c8a25f9	0.01686381
154	0x3cc7dcf1	0.024397345
155	0xbc8c700a	-0.017143268
156	0x3d56d77a	0.05245159
157	0x3daff0e2	0.085908666
158	0xbcbb05a1	-0.022829833
159	0xbc2871a7	-0.010281003
160	0xbd9e33a6	-0.07724695
161	0xbc436bf1	-0.011927591
162	0x3d31bb43	0.043391477
163	0x3d6c5331	0.057696525
164	0xbcf33f2c	-0.029693209
165	0xbd95b2e4	-0.07309511
166	0xbcade8c9	-0.021229165
167	0x3d2482f1	0.040163938
168	0xbcea2d37	-0.028586013
169	0xbd9559aa	-0.07292493
170	0x3d9d31be	0.07675503
171	0xbcc331e3	-0.023827499
172	0xbc41523e	-0.011799393
173	0xbd764d41	-0.06013227
174	0xbd9c77a3	-0.076400064
175	0x3d62c398	0.055362314
176	0xbd45d18e	-0.04829555
177	0x3db7dc6d	0.0897759
178	0x3d974c52	0.07387604
179	0xbd8afc88	-0.06786448
180	0x3da555c4	0.08072999
181	0x3d8e0e3b	0.06936308
182	0x3b2d14c8	0.0026410092
183	0xbd2e6acc	-0.04258232
184	0x3da67f37	0.08129733
185	0xbd88550a	-0.06656845
186	0xbcaaf9da	-0.020871092
187	0x3d8fca64	0.07021025
188	0xbd6d4286	-0.05792477
189	0xbd94102f	-0.07229649
190	0xbceb1330	-0.028695673
191	0xbcb2fe5c	-0.021849804
192	0xbd5e8a95	-0.05433138
193	0x3d4ee62b	0.050512474
194	0x3c041efb	0.008064027
195	0xbc5449e0	-0.012957066
196	0xbdb6459e	-0.08899997
197	0xbcd71cb1	-0.026258798
198	0x3d8ee9b5	0.0697817
199	0x3dba118f	0.0908538
200	0x3d442c11	0.047893587
201	0x3d8660a0	0.065613985
202	0x3ceb95db	0.02875798
203	0x3d9ea7e2	0.07746865
204	0xbdc638ae	-0.096787795
205	0xbc478eaf	-0.0121800145
206	0x3d3f8c55	0.04676469
207	0x3cf596b2	0.029979084
208	0x3db3ac32	0.08773078
209	0x3c9854af	0.018595068
210	0xbb1ef8fb	-0.002425729
211	0x3c4c0485	0.012452249
212	0x3ca0cf49	0.019630091
213	0x3d750677	0.05982062
214	0x3d98e3bf	0.07465314
215	0xbd6d02b2	-0.0578639
216	0xbd9f0f2f	-0.07766568
217	0xbcc531e9	-0.02407165
218	0xbd1ce0ed	-0.038300443
219	0xbcc2dd9e	-0.023787316
220	0x3c7191a3	0.014744195
221	0xbd1e0b76	-0.03858515
222	0xbd6bd293	-0.057573866
223	0xbc44a808	-0.012002952
224	0xbdaba893	-0.08381762
225	0xbcdfa6e6	-0.027301263
226	0xbc942933	-0.018086052
227	0xbbde0fb9	-0.0067767766
228	0x3d55e3ff	0.052219387
229	0xbcfadbf2	-0.030622456
230	0xbd84f1cc	-0.064914316
231	0x3d7e03bc	0.06201528
232	0xbd83f81f	-0.0644381
233	0xbd6483c7	-0.055789735
234	0x3d4347e8	0.047675997
235	0xbc2a0bd1	-0.010378794
236	0xbd3a49f8	-0.0454807
237	0xbd9a8e3e	-0.07546662
238	0xbd926596	-0.07148282
239	0x39ce0e36	0.0003930197
240	0xbd7c7605	-0.06163599
241	0xbdc6a2cc	-0.0969902
242	0x3d24812a	0.040162243
243	0xbb4f1c7a	-0.0031602667
244	0x3d4b4b99	0.049632642
245	0xbc76f45f	-0.015072911
246	0x3d128115	0.035767633
247	0xbdbc784f	-0.092026345
248	0x3dbd6949	0.09248597
249	0x3d4cb5fa	0.049978234
250	0xbd1b4938	-0.037911624
251	0xbd698d55	-0.05701955
252	0xbd33fecc	-0.043944165
253	0x3d7a9308	0.061175376
254	0x3d76431c	0.060122594
255	0xbd499a3b	-0.04921935

module.base.1.layers.2.weight f4 [256]
0	0x3f823c80	1.0174713
1	0x3f88ae9f	1.067829
2	0x3f89909f	1.074726
3	0x3f81183e	1.0085523
4	0x3f81b5e2	1.0133631
5	0x3f8480eb	1.0351843
6	0x3f817e61	1.0116693
7	0x3f86bb6e	1.0525949
8	0x3f81898f	1.0120105
9	0x3f8302d2	1.0235236
10	0x3f838434	1.027472
11	0x3f83ad22	1.0287211
12	0x3f88148e	1.0631273
13	0x3f897c91	1.074114
14	0x3f80daa3	1.0066723
15	0x3f83d4ce	1.0299318
16	0x3f84d3ed	1.0377175
17	0x3f864968	1.0491152
18	0x3f833d7d	1.025314
19	0x3f82a5a6	1.0206802
20	0x3f81343e	1.0094068
21	0x3f83926d	1.0279061
22	0x3f8743fc	1.0567622
23	0x3f822aaf	1.0169276
24	0x3f8142b0	1.0098476
25	0x3f871e72	1.0556166
26	0x3f80b04c	1.0053802
27	0x3f84d336	1.0376956
28	0x3f80e154	1.0068765
29	0x3f8445c3	1.033379
30	0x3f804b07	1.0022897
31	0x3f82302c	1.0170951
32	0x3f81d586	1.0143287
33	0x3f86c4b5	1.052878
34	0x3f84d7b0	1.0378323
35	0x3f8331f1	1.0249616
36	0x3f83df7b	1.0302576
37	0x3f8d48fa	1.1037896
38	0x3f885c8f	1.0653247
39	0x3f827d9f	1.0194587
40	0x3f83e267	1.0303468
41	0x3f8a7270	1.0816174
42	0x3f85cba9	1.0452777
43	0x3f85b10c	1.0444655
44	0x3f84d1d3	1.0376533
45	0x3f82d87b	1.0222315
46	0x3f7f90dd	0.9983042
47	0x3f7e420c	0.9931953
48	0x3f8bf3bd	1.0933758
49	0x3f818ebc	1.0121684
50	0x3f838b80	1.0276947
51	0x3f823cfc	1.0174861
52	0x3f83c0d2	1.0293219
53	0x3f828b2b	1.0198721
54	0x3f824f72	1.0180495
55	0x3f8269b1	1.0188504
56	0x3f82ce2b	1.0219167
57	0x3f80ff86	1.007798
58	0x3f852fa9	1.040517
59	0x3f862850	1.0481052
60	0x3f8256a8	1.0182695
61	0x3f845e2d	1.034124
62	0x3f824122	1.0176127
63	0x3f8591c9	1.0435115
64	0x3f86e797	1.0539426
65	0x3f815612	1.0104392
66	0x3f8392d6	1.0279186
67	0x3f82b255	1.0210673
68	0x3f862842	1.0481036
69	0x3f81af6a	1.0131657
70	0x3f80c608	1.0060434
71	0x3f7f8135	0.9980653
72	0x3f8513b7	1.0396641
73	0x3f829ff3	1.0205063
74	0x3f8058fc	1.0027156
75	0x3f8058f4	1.0027146
76	0x3f867c4b	1.0506681
77	0x3f819f4a	1.0126736
78	0x3f83e8df	1.0305442
79	0x3f8165ee	1.0109231
80	0x3f82b789	1.021226
81	0x3f8452bb	1.0337747
82	0x3f86b71f	1.0524634
83	0x3f8dd8b1	1.1081754
84	0x3f8c13ff	1.0943602
85	0x3f8691ca	1.0513241
86	0x3f814871	1.0100232
87	0x3f808163	1.0039486
88	0x3f81d2e3	1.0142483
89	0x3f85fd5c	1.0467944
90	0x3f81055b	1.0079759
91	0x3f84132b	1.031835
92	0x3f889200	1.0669556
93	0x3f829d3a	1.0204232
94	0x3f86bc9d	1.052631
95	0x3f8a40c0	1.080101
96	0x3f82ca6f	1.0218028
97	0x3f7dfcca	0.9921385
98	0x3f8280f8	1.0195608
99	0x3f8695af	1.051443
100	0x3f838494	1.0274835
101	0x3f812dcb	1.00921
102	0x3f848a3f	1.0354689
103	0x3f83ef38	1.0307379
104	0x3f86f6bd	1.0544049
105	0x3f861e9f	1.0478095
106	0x3f891e73	1.0712417
107	0x3f844850	1.0334568
108	0x3f864a86	1.0491493
109	0x3f7e34c9	0.99299294
110	0x3f84526d	1.0337654
111	0x3f80abed	1.0052468
112	0x3f8249b5	1.0178744
113	0x3f8512fc	1.0396419
114	0x3f834619	1.0255767
115	0x3f866d3c	1.0502086
116	0x3f8190e6	1.0122344
117	0x3f81a568	1.0128603
118	0x3f8160bb	1.0107645
119	0x3f814df7	1.0101918
120	0x3f879e97	1.0595273
121	0x3f85cb7d	1.0452725
122	0x3f7d1967	0.98866886
123	0x3f7d7061	0.989996
124	0x3f831e45	1.0243613
125	0x3f8120bb	1.0088114
126	0x3f81a5f5	1.0128771
127	0x3f834968	1.0256777
128	0x3f85dae4	1.0457425
129	0x3f840b5a	1.0315964
130	0x3f8427a1	1.0324594
131	0x3f834ad6	1.0257213
132	0x3f86f09e	1.054218
133	0x3f8400dd	1.0312763
134	0x3f8379d7	1.0271558
135	0x3f84cb5e	1.0374563
136	0x3f82fc6c	1.0233283
137	0x3f8334b8	1.0250463
138	0x3f83c37e	1.0294034
139	0x3f878011	1.0585958
140	0x3f824e67	1.0180176
141	0x3f806a9f	1.0032538
142	0x3f83d2b3	1.0298675
143	0x3f80b9f5	1.005675
144	0x3f844c86	1.0335853
145	0x3f860b4d	1.0472199
146	0x3f882894	1.0637383
147	0x3f801e1b	1.0009187
148	0x3f8180b9	1.0117408
149	0x3f8128f9	1.0090629
150	0x3f8688a3	1.0510448
151	0x3f83a733	1.02854
152	0x3f83a4df	1.028469
153	0x3f8bc017	1.0917996
154	0x3f81d031	1.014166
155	0x3f881eca	1.0634396
156	0x3f82bb1b	1.021335
157	0x3f80d6af	1.0065516
158	0x3f825bf3	1.0184311
159	0x3f8394c4	1.0279775
160	0x3f7e7ac1	0.9940606
161	0x3f828085	1.0195471
162	0x3f850af4	1.0393968
163	0x3f81bbca	1.0135434
164	0x3f8185f6	1.0119007
165	0x3f845b94	1.0340447
166	0x3f819f3b	1.0126718
167	0x3f8629c9	1.0481502
168	0x3f880845	1.0627524
169	0x3f85357c	1.0406947
170	0x3f85b9e0	1.044735
171	0x3f858827	1.0432175
172	0x3f81e2d4	1.0147347
173	0x3f817ac8	1.0115595
174	0x3f8657c1	1.049553
175	0x3f8297fe	1.0202634
176	0x3f82e741	1.0226823
177	0x3f81e432	1.0147765
178	0x3f82f143	1.0229877
179	0x3f82753d	1.0192028
180	0x3f81b7c9	1.0134212
181	0x3f86e064	1.0537229
182	0x3f8644ec	1.0489783
183	0x3f8819d2	1.063288
184	0x3f796480	0.97418976
185	0x3f876759	1.0578414
186	0x3f856ce4	1.0423856
187	0x3f86f6ea	1.0544102
188	0x3f87460e	1.0568254
189	0x3f8449b7	1.0334996
190	0x3f81e9b4	1.0149446
191	0x3f851d6f	1.0399607
192	0x3f82eaca	1.0227902
193	0x3f87224b	1.055734
194	0x3f80fcee	1.0077188
195	0x3f80a328	1.0049791
196	0x3f848e03	1.0355839
197	0x3f81da99	1.0144836
198	0x3f82ba79	1.0213157
199	0x3f868d62	1.0511897
200	0x3f836485	1.0265051
201	0x3f849c9d	1.0360295
202	0x3f7f0b8c	0.99626994
203	0x3f81a227	1.012761
204	0x3f81fb6a	1.015485
205	0x3f835515	1.026034
206	0x3f834c90	1.025774
207	0x3f890ee6	1.0707672
208	0x3f871063	1.0551876
209	0x3f8c8dbe	1.0980756
210	0x3f83db36	1.0301273
211	0x3f882d54	1.0638833
212	0x3f87eb8a	1.0618756
213	0x3f8204cc	1.0157714
214	0x3f826fdc	1.0190387
215	0x3f8064c5	1.0030752
216	0x3f830608	1.0236216
217	0x3f806e3d	1.0033642
218	0x3f85ba91	1.044756
219	0x3f7f15bd	0.99642545
220	0x3f812ed3	1.0092415
221	0x3f857053	1.0424904
222	0x3f8263c8	1.0186701
223	0x3f877571	1.0582715
224	0x3f83e889	1.0305339
225	0x3f82e404	1.0225835
226	0x3f7e9f90	0.99462223
227	0x3f829f80	1.0204926
228	0x3f864c75	1.0492083
229	0x3f8149b1	1.0100614
230	0x3f855afe	1.0418394
231	0x3f8102a7	1.0078934
232	0x3f7e73df	0.99395555
233	0x3f85b34f	1.0445346
234	0x3f861adb	1.0476946
235	0x3f84fe0d	1.039003
236	0x3f837b3a	1.0271981
237	0x3f828528	1.0196886
238	0x3f80bc13	1.0057396
239	0x3f816dd1	1.0111638
240	0x3f814c46	1.0101402
241	0x3f8777cd	1.0583435
242	0x3f82859f	1.0197028
243	0x3f850d4f	1.0394686
244	0x3f80bf2f	1.0058345
245	0x3f839573	1.0279983
246	0x3f830d42	1.0238421
247	0x3f86121e	1.0474279
248	0x3f824d58	1.0179853
249	0x3f89c878	1.0764303
250	0x3f810403	1.0079349
251	0x3f84d939	1.0378791
252	0x3f8e3087	1.1108559
253	0x3f87a841	1.0598222
254	0x3f7fe25a	0.9995476
255	0x3f87ef81	1.0619966

module.base.1.layers.2.bias f4 [256]
0	0xbc563f98	-0.013076685
1	0x3c3ac05b	0.0113984
2	0xbb27e0b3	-0.002561611
3	0xbc2cfc15	-0.010558148
4	0x3bcd9e4a	0.006274973
5	0xba5019bb	-0.00079384045
6	0xbb2262fc	-0.0024778238
7	0x3bbbf6dd	0.0057362155
8	0xbc1d9864	-0.009618852
9	0x3c6c04fa	0.014405483
10	0xbcd1fd18	-0.02563338
11	0xbbff2c3d	-0.007787256
12	0x3c690a57	0.014223657
13	0x3c1b878a	0.009492764
14	0xbc43cebe	-0.011951147
15	0xbcae5fc3	-0.021285897
16	0x3b1f7498	0.002433097
17	0xba8c63a2	-0.0010710845
18	0x3ac2fc23	0.0014876168
19	0xbc1f729c	-0.009731915
20	0xbcaf849d	-0.02142554
21	0xbba2d544	-0.004969271
22	0x3c1c33a2	0.009533795
23	0xbc44c11a	-0.01200893
24	0xbba70eb2	-0.0050981874
25	0xba1ba514	-0.00059373793
26	0x3bc9674c	0.006146347
27	0x3aed7c29	0.0018118668
28	0xbacc4f4b	-0.0015587596
29	0xbc5e5cb7	-0.01357191
30	0x3b79aee3	0.0038098625
31	0x3c9f03d4	0.019411005
32	0x3cbcbd1a	0.02303939
33	0x3b9c5967	0.0047714
34	0x3c809e34	0.015700437
35	0x3b98cce0	0.004663095
36	0x3c9ec794	0.019382276
37	0x3bc56fad	0.0060252757
38	0x3bae9166	0.0053273914
39	0x3bbce535	0.0057646283
40	0xbc1b96ec	-0.009496432
41	0xbc2676da	-0.010160172
42	0xbb982d97	-0.0046441066
43	0x3c85031e	0.016236838
44	0xbb9dc20d	-0.0048143924
45	0x3c1f2f6b	0.009715895
46	0x3ca8f04a	0.020622391
47	0x3c6da402	0.014504435
48	0x3d09971d	0.03359138
49	0x3c0690be	0.00821322
50	0x3b067b7e	0.0020520384
51	0x3c799b10	0.015234724
52	0x3c5d6332	0.01351242
53	0xbba2b7f1	-0.004965775
54	0xbc87ee16	-0.01659302
55	0xbca1cd87	-0.019751323
56	0xbc99f336	-0.01879273
57	0xbc4d2326	-0.012520587
58	0x3c9c0350	0.019044548
59	0x3cd74abb	0.026280751
60	0x3ab2cdfb	0.0013641709
61	0x3cbb9b96	0.022901338
62	0x3b731734	0.0037092688
63	0xbcb42369	-0.021989541
64	0x3c9b636c	0.018968306
65	0xbd076eb1	-0.033064548
66	0x3c5f1b0e	0.01361729
67	0xbb4b7cd2	-0.003104974
68	0x3ac12ff0	0.0014739018
69	0xbc6aabe5	-0.014323209
70	0xbb852532	-0.004063272
71	0xbc1d55b3	-0.009602952
72	0x3c92a2f3	0.017899966
73	0x3c2f8796	0.010713479
74	0xbb226538	-0.002477957
75	0xbc292d51	-0.010325746
76	0xba476836	-0.0007606776
77	0xbb85c722	-0.0040825764
78	0xbd071e73	-0.032988023
79	0xbb32da74	-0.0027290853
80	0x3c1c5cc8	0.009543605
81	0x3af73311	0.0018859823
82	0xbca8d993	-0.02061156
83	0xbd31b301	-0.043383602
84	0xbc9669b6	-0.018360954
85	0x3c66ddfb	0.01409101
86	0xbbb8925e	-0.0056326827
87	0x3c8c8451	0.017152937
88	0xbc53dc6f	-0.012930973
89	0x3c0ab0c4	0.008464996
90	0xbbfb66bc	-0.007672159
91	0xbc576cff	-0.013148545
92	0x3b0cf095	0.0021505703
93	0x3b5317bd	0.0032210194
94	0xb95fcca3	-0.0002134317
95	0x3bd3483c	0.00644782
96	0x3a7d70e3	0.00096680055
97	0x3c5e8be2	0.013583155
98	0xbc571d50	-0.013129547
99	0x3c5c16d0	0.013433173
100	0xbbac96cb	-0.0052669994
101	0xbb71a294	-0.0036870586
102	0x3ca850ee	0.020546403
103	0x39a1dcf6	0.00030872942
104	0xbb3654ec	-0.0027821613
105	0x3b959a2a	0.004565497
106	0x3b991cda	0.004672629
107	0xbc228b38	-0.009920888
108	0xbc69ff19	-0.014282011
109	0x3bc5786a	0.0060263174
110	0xbc5a6621	-0.0133300135
111	0x3a4cd185	0.0007813203
112	0x3c8bfb0e	0.017087486
113	0x3cd1f121	0.025627675
114	0xbcb3927e	-0.021920439
115	0x3bfcc2f3	0.0077136694
116	0xbb8ecb48	-0.004357729
117	0xbcb2bd1a	-0.021818686
118	0x3b0372c1	0.0020057412
119	0x3c03f82c	0.008054774
120	0x3a32b4a7	0.00068170804
121	0xb9cffe71	-0.0003967169
122	0xb9a9ea9f	-0.00032408998
123	0xbc4dba58	-0.012556635
124	0xbb991062	-0.0046711424
125	0x3c62a789	0.013833889
126	0x3c24dbde	0.010062186
127	0x3bcb74ce	0.0062089926
128	0xbb20954c	-0.002450305
129	0x3c7c43a8	0.01539699
130	0xbcb888a7	-0.022526098
131	0x3bc73722	0.0060795704
132	0xbb3f5bcb	-0.0029199
133	0xbc281394	-0.010258574
134	0xbc9f95a5	-0.019480536
135	0xbbd85b44	-0.0066026766
136	0x3ca072eb	0.019586047
137	0xba595f9e	-0.0008292141
138	0x3d01357c	0.031545147
139	0xbc86a0e8	-0.016434148
140	0x3bfa7400	0.007643223
141	0xb88aeaa5	-6.624059e-05
142	0xbc834a6c	-0.016026698
143	0xbb216e8d	-0.0024632544
144	0xbbad0fd2	-0.005281427
145	0xbc2b22a3	-0.01044527
146	0xbbd2c8e4	-0.0064326394
147	0xbc8cf70e	-0.017207649
148	0x3b89f0d4	0.004209617
149	0xba4078ed	-0.0007342238
150	0x3c2545f8	0.010087483
151	0xbc1e279a	-0.009652996
152	0x3c610bbc	0.013735708
153	0x3b557fc7	0.0032577382
154	0x3b51108e	0.0031900737
155	0xbd13f30e	-0.036120467
156	0x3bc1d202	0.0059149275
157	0x3b535848	0.0032248665
158	0xbad00fe7	-0.001587388
159	0x3bf0423b	0.007332114
160	0xbbb4a457	-0.005512755
161	0x3be93b17	0.0071176398
162	0x3cb08ac6	0.021550547
163	0x3c58f565	0.0132421
164	0xbbae9a46	-0.0053284494
165	0x3c569cbc	0.013098892
166	0xbc317628	-0.010831393
167	0xbbc8f28f	-0.006132431
168	0xbc624218	-0.013809703
169	0xbcbff2fe	-0.023431297
170	0x3bf4dba4	0.0074724723
171	0x3c9f397f	0.019436596
172	0xbc1b7003	-0.009487155
173	0xbc3c6b9c	-0.011500265
174	0x3b99cfa3	0.0046939417
175	0xbb5a0631	-0.003326785
176	0x3ab85189	0.0014062385
177	0x3a51eb60	0.0008007791
178	0xbc04ae76	-0.008098235
179	0xbae3b3ec	-0.0017372346
180	0x3c9ad1e2	0.018898908
181	0xbc7f9f48	-0.01560194
182	0xbbca1024	-0.006166475
183	0xbd011c8c	-0.031521365
184	0xbc9330c1	-0.017967584
185	0xbc28ba69	-0.01029835
186	0xbc71485d	-0.014726725
187	0x3922df51	0.00015532716
188	0x3b0b6818	0.0021271762
189	0xbc9322d5	-0.017960945
190	0x3c7ea7dd	0.015542951
191	0x3a39ce50	0.0007087933
192	0xbbd5d2af	-0.0065253596
193	0xbc03de19	-0.008048558
194	0xbc2d68bb	-0.010584052
195	0xbc8503e7	-0.016237212
196	0x3c18eab7	0.009333304
197	0xbaf84ded	-0.0018944122
198	0x3cc3f4f2	0.02392051
199	0x3c1410b5	0.009037186
200	0xbc606dc2	-0.013698043
201	0xbbfb99da	-0.0076782526
202	0xbb7a2162	-0.003816687
203	0xbc4c3141	-0.012462915
204	0xb88a821b	-6.604587e-05
205	0x3d22df76	0.03976389
206	0xbd1fd7a5	-0.039024014
207	0xbc08eef3	-0.008357751
208	0x3cbb57fd	0.022869105
209	0x3af38206	0.0018578179
210	0xbba7ecf2	-0.0051246816
211	0xbc800aa4	-0.015630074
212	0xbc2dce83	-0.010608318
213	0xbba90b97	-0.0051588523
214	0xbc08408e	-0.008316172
215	0x3c821727	0.01588018
216	0xbbdbb631	-0.0067050685
217	0x3be2cf75	0.0069217035
218	0x3bc9b5ca	0.006155704
219	0x3bd0d377	0.006372865
220	0x3ce8728b	0.02837493
221	0xbc292321	-0.010323317
222	0xbbe2d58d	-0.00692243
223	0xbba8bad9	-0.005149227
224	0xbc94817d	-0.018128151
225	0xbc0b3df6	-0.008498659
226	0x3c916ea8	0.01775296
227	0x386ebead	5.6921202e-05
228	0xbb2905ac	-0.0025790734
229	0x3bb9e7a5	0.005673366
230	0x3c88e913	0.016712701
231	0x3a76bfd3	0.00094127393
232	0x3c1d5ed8	0.009605132
233	0x3c9128ec	0.017719708
234	0xbd0481de	-0.032350414
235	0xbc3cfa71	-0.011534319
236	0xbccdabeb	-0.025106391
237	0xbcda9831	-0.026683899
238	0xbc20b4e3	-0.009808752
239	0xbce1fbf1	-0.027585955
240	0x3bd39477	0.0064569074
241	0xbba821a7	-0.005130965
242	0x3c638b54	0.013888199
243	0x3bf09ae5	0.0073426836
244	0xbbb73fb0	-0.005592309
245	0x3bf90198	0.007599067
246	0x3bebd315	0.007196794
247	0x3bbd021d	0.005768074
248	0x3b2a0c89	0.0025947413
249	0x3bb84548	0.0056234933
250	0x39644f86	0.00021773399
251	0x3cf82875	0.030292729
252	0xbac93dba	-0.0015353479
253	0xbb11f087	-0.002226861
254	0x3bf063c2	0.007336111
255	0x3af93283	0.0019012246

module.base.1.layers.3.weight f4 [128, 256]
0	0x3d46a5c0	0.048497915
1	0xbd0559f8	-0.032556504
2	0xbbeb20f5	-0.0071755596
3	0x3cd91146	0.026497494
4	0x3cc732fc	0.024316303
5	0x3d8247e5	0.06361369
6	0xbc808139	-0.015686618
7	0x3ce85a36	0.028363328
8	0x3bd045c7	0.0063559744
9	0x3cd85ee0	0.026412427
10	0x3d1e7ad5	0.03869136
11	0x3d18d519	0.0373126
12	0x3c17547d	0.009236452
13	0xbdb4977f	-0.08817958
14	0xbbd82b78	-0.0065969788
15	0x3c0278b7	0.007963351
16	0xbcbf3ff3	-0.023345923
17	0xbaeeb7be	-0.0018212718
18	0x3dc5904d	0.09646664
19	0xbcb3728c	-0.021905206
20	0xb8dcc207	-0.00010526558
21	0xbc7b4628	-0.015336551
22	0x3d21bd06	0.039486907
23	0xbcee4f96	-0.029090684
24	0xbcd950e1	-0.026527824
25	0x3cbd2360	0.023088157
26	0x3d6e30f6	0.05815216
27	0xbd3ebf43	-0.04656912
28	0x3d134633	0.03595562
29	0xbd9a9917	-0.07548731
30	0xbd3fccb1	-0.04682607
31	0xbbb2d096	-0.0054569943
32	0x3d4b25b9	0.049596522
33	0xbcd416c2	-0.025889758
34	0xbda1d4f8	-0.07901949
35	0xbd5c5f0f	-0.053801592
36	0xbd67570f	-0.05647951
37	0x3c97d36e	0.018533435
38	0xbcf841b2	-0.030304763
39	0x3d52e49b	0.051487546
40	0xbd41ab8c	-0.04728274
41	0x3b8df255	0.0043318667
42	0x3c2e2833	0.010629701
43	0xbd0785db	-0.03308664
44	0x3d8b2a3b	0.06795164
45	0x3d045d40	0.032315493
46	0xbd95bacd	-0.0731102
47	0x3d3a84a4	0.045536652
48	0x3c9e7cbc	0.019346587
49	0xbbd5ad38	-0.0065208934
50	0x3c9311d1	0.017952831
51	0x3d2a64d2	0.041600056
52	0x3d90f3f0	0.070777774
53	0x3ac8a074	0.0015306608
54	0xbd88e110	-0.06683552
55	0x3d0c6de2	0.03428448
56	0x3bb1aeb2	0.0054224366
57	0x3d77b1a8	0.06047216
58	0xbd6480a5	-0.055786747
59	0x3cd38158	0.025818512
60	0xbc35a933	-0.0110877035
61	0xbd6480e4	-0.055786982
62	0x3cf86217	0.03032021
63	0x3c5b5c41	0.013388694
64	0xbd8a568c	-0.06754789
65	0xb992affe	-0.00027978414
66	0x3c9689a4	0.018376179
67	0x3d52e114	0.051484182
68	0xbcc3786c	-0.023861133
69	0x3d3c99da	0.04604516
70	0x3d7cc523	0.06171144
71	0xbd0b5880	-0.034019947
72	0x3bf2fbb1	0.007415258
73	0x3d501f38	0.050811023
74	0x3d024c0e	0.031810813
75	0xbd80476e	-0.06263624
76	0x3c5d601b	0.013511683
77	0xbcdc21dd	-0.026871616
78	0x3c9a7650	0.018855244
79	0xbc37078f	-0.011171236
80	0xbcdd09d1	-0.02698222
81	0xbd390caa	-0.045178093
82	0xbc95a4fb	-0.018267145
83	0x3d22de53	0.039762806
84	0x3c956577	0.018236859
85	0xbd2e2fa7	-0.042525914
86	0x3c448a83	0.011995914
87	0xbccd830a	-0.025086898
88	0xbdb224ff	-0.08698463
89	0x3c518b97	0.0127896285
90	0xbc139b10	-0.009009138
91	0x3d10a740	0.035315752
92	0x3d8a94e5	0.06766681
93	0x3c958f38	0.018256769
94	0xbbc67f92	-0.006057688
95	0xbce5b943	-0.028042441
96	0x3d36f9eb	0.044671934
97	0xbd4da6a0	-0.050207734
98	0xbcce30ab	-0.025169691
99	0xbc9886d5	-0.01861898
100	0xbd12ad51	-0.03580982
101	0x3d366ef9	0.044539426
102	0xbd11145a	-0.0354198
103	0xbd58de1e	-0.052946202
104	0x3d17c71a	0.037055112
105	0xbd2324c6	-0.03982999
106	0x3c8adec5	0.016951928
107	0x3cb298c8	0.021801367
108	0x3bac6211	0.005260714
109	0xbd911a3e	-0.070850834
110	0xbc22caf2	-0.009936081
111	0x3cf1cf18	0.029517695
112	0xbaa7d43a	-0.0012804337
113	0xbd0a41ae	-0.033754043
114	0x3d6aed87	0.05735543
115	0xbd20ae29	-0.039228592
116	0x3ccfd172	0.025368426
117	0x3bc6edb2	0.006070816
118	0xbd3222fa	-0.043490387
119	0xbd1b9813	-0.037986826
120	0xbd2ea30a	-0.042635955
121	0xbd08e261	-0.033419017
122	0x3d6b6827	0.057472374
123	0xbc0899c5	-0.008337443
124	0xbd1488c2	-0.036263235
125	0xbd0886b4	-0.033331588
126	0xbd27b856	-0.04094728
127	0x3d7d30da	0.061814167
128	0xbc3e623d	-0.0116201015
129	0xbc8436e5	-0.016139457
130	0xbd03b3ba	-0.032153822
131	0xbb79a5e7	-0.003809327
132	0x3cc2470f	0.023715524
133	0x3d078c8a	0.033093013
134	0xbc863af7	-0.016385539
135	0x3d0a7911	0.033806864
136	0xbd21179e	-0.039329164
137	0xbd4d14c7	-0.050068643
138	0xbcf73618	-0.030177161
139	0xbaab7c3c	-0.0013083289
140	0xbd02fb1e	-0.031977765
141	0x3d3da33b	0.046298247
142	0x3c08087b	0.008302803
143	0xbd0864e9	-0.03329936
144	0xbc78a375	-0.01517569
145	0xbd376a9a	-0.044779398
146	0x3881ef79	6.1958046e-05
147	0x3d5e43c1	0.054263834
148	0xbd8d8117	-0.069093876
149	0xbd2ffa31	-0.04296321
150	0xbd73169f	-0.059347745
151	0x3c6d4336	0.014481356
152	0xbd3c722c	-0.04600732
153	0x3d82d212	0.06387724
154	0xbd7ba3b4	-0.061435416
155	0x3cf61f95	0.030044356
156	0x3d0721cc	0.032991216
157	0xbd930a13	-0.07179656
158	0x3d8416ff	0.06449699
159	0x3d95b791	0.07310403
160	0xbcd61d51	-0.026137026
161	0xbc610b9e	-0.01373568
162	0xbce7c245	-0.028290877
163	0xbb539efa	-0.0032290802
164	0x3d389ff2	0.04507441
165	0xbd0036ee	-0.031302385
166	0xbd44fcd8	-0.048092693
167	0xbd54ad2b	-0.05192296
168	0xbd223d05	-0.039608974
169	0x3d85fa17	0.065418415
170	0xbd4f81fa	-0.050661065
171	0xbcbe90b9	-0.023262369
172	0xbb330ffd	-0.0027322762
173	0xbd6ef30a	-0.05833725
174	0x3c22f181	0.009945274
175	0x3d5321cb	0.0515459
176	0x3ca6f1cf	0.020378975
177	0x3cb57bb3	0.022153711
178	0x3d25db4c	0.04049234
179	0xbd387172	-0.045030065
180	0x3c8cb775	0.017177323
181	0x3d49ee7b	0.0492997
182	0xbd021124	-0.031754628
183	0x3cc00c09	0.023443239
184	0x3d0f0423	0.034916054
185	0xbd144876	-0.036201917
186	0x3d34aeb9	0.04411194
187	0xbcbd5523	-0.023111885
188	0x3d50be82	0.050962932
189	0xbbbad217	-0.005701314
190	0x3c6cdb7e	0.014456628
191	0xbd003aef	-0.031306203
192	0x3d246554	0.040135697
193	0xbd3f0c0e	-0.046642356
194	0x3bdd9575	0.0067622014
195	0x3c62e72d	0.013849062
196	0xbd2f55f0	-0.042806566
197	0x3d160186	0.036622547
198	0xbd288a26	-0.041147374
199	0x3d260c8e	0.040539317
200	0x3c4c007f	0.01245129
201	0xbca9c5fc	-0.02072429
202	0xbcd8e7d0	-0.026477724
203	0x3d36e8a1	0.044655446
204	0xbd49e794	-0.049293116
205	0x3b04d87a	0.0020270632
206	0xbd4541c0	-0.048158407
207	0x3ce4ae4f	0.027915148
208	0x3c0b8d65	0.008517598
209	0x3d3317cf	0.043723878
210	0x3c9c44a2	0.019075695
211	0xbd47314c	-0.048630998
212	0x3d4d710e	0.050156645
213	0x3d93555d	0.07194016
214	0x3d83bd0e	0.06432544
215	0xbbee954f	-0.0072809826
216	0xbcac1a27	-0.021008564
217	0x3cc6b945	0.024258265
218	0xbd7eecc0	-0.0622375
219	0xbd0def76	-0.034652196
220	0x3d1f2f8c	0.038863704
221	0x3cb68991	0.022282394
222	0x3d8ba8c9	0.068193026
223	0xbcf4a7a4	-0.029865094
224	0xbd2b795e	-0.04186379
225	0xbd2bf60d	-0.0419827
226	0x3c82ed8d	0.015982414
227	0x3daaf5e1	0.08347679
228	0x3bf82e97	0.0075739133
229	0x3d2b0770	0.04175514
230	0x3d23c886	0.039986156
231	0xbd093f6d	-0.033507753
232	0x3c73f834	0.014890719
233	0xbb1b220e	-0.0023671421
234	0xbcc5ea0c	-0.024159454
235	0x3cf61e62	0.030043785
236	0xbcaef413	-0.021356618
237	0x3bf3832c	0.0074314084
238	0x3d4eac27	0.050457146
239	0xbb016619	-0.0019744693
240	0xba95b828	-0.0011422681
241	0x3d42cd6d	0.04755919
242	0xbd1ac21c	-0.037782773
243	0x3ba53c2b	0.005042573
244	0x3d207dcf	0.03918248
245	0x3aa58175	0.0012627082
246	0xbc5d2079	-0.013496512
247	0xbb66bd87	-0.0035208182
248	0x3ca1f104	0.019768246
249	0x3c0c7250	0.008572176
250	0xbd1e5b35	-0.0386612
251	0x3d5a8e09	0.05335811
252	0x3c7f0fbb	0.015567715
253	0xbc0d5da3	-0.008628282
254	0x3d79d4ad	0.06099384
255	0x3d67166c	0.056417868

module.base.1.layers.3.bias f4 [128]
0	0xbd7ffb15	-0.06249531
1	0x3d4bb3ce	0.049732022
2	0xbd581fdb	-0.052764755
3	0xbcf50ecb	-0.02991428
4	0xbc1b78de	-0.009489266
5	0x3b68cc65	0.003552222
6	0x3af30ff3	0.0018544182
7	0xbd6b2e2a	-0.057417072
8	0x3c1406ba	0.009034807
9	0x3ca928d2	0.020649347
10	0x3d01e1c3	0.031709444
11	0x3d6c31fa	0.05766485
12	0xbbbbef5c	-0.005735321
13	0xbb564620	-0.0032695606
14	0xbc9f6fe8	-0.01946254
15	0x3d80da78	0.062916696
16	0x3d21c009	0.03948978
17	0x3c3a14d1	0.011357502
18	0x3d133862	0.035942443
19	0x3ba161a7	0.004924971
20	0x3d58aec8	0.05290106
21	0xbcfa72da	-0.030572344
22	0x3d1150bf	0.035477396
23	0x3c5f82b5	0.013642003
24	0x3bab84fd	0.0052343593
25	0xbd18ed27	-0.03733554
26	0xbcc73238	-0.024315938
27	0xbd6ded1f	-0.058087464
28	0xbd3ba656	-0.045812927
29	0x3d082dc6	0.033246778
30	0x3ca97aec	0.020688497
31	0x3beeec5f	0.007291361
32	0xbd836e43	-0.06417515
33	0xbcab8eee	-0.020942178
34	0xb851840c	-4.995246e-05
35	0x3c59b902	0.013288738
36	0x3c6742e9	0.014115074
37	0x3b99d670	0.0046947524
38	0xbc433edd	-0.011916843
39	0x3c90ba4a	0.017666955
40	0xbd00af57	-0.031417217
41	0xbd549485	-0.05189945
42	0x3c81e7c6	0.015857588
43	0xbd885465	-0.06656722
44	0xbcabc625	-0.020968506
45	0xbb57d6af	-0.0032934358
46	0x3ca8db25	0.020612309
47	0x3cec079a	0.028812218
48	0x3cd5c97e	0.026097056
49	0x3d86d628	0.06583816
50	0xbc924bba	-0.017858375
51	0xbd36408f	-0.04449516
52	0x3ca0181d	0.019542748
53	0xbd320f0c	-0.04347138
54	0xbd0b98be	-0.034081213
55	0xbd7551e4	-0.05989255
56	0x3d2462d5	0.040133316
57	0xbd97cecc	-0.0741249
58	0xbd8adad0	-0.067800164
59	0xbc6dae3b	-0.014506872
60	0xbd4abc80	-0.049496174
61	0x3c0cd5bc	0.00859588
62	0x3d639aea	0.05556766
63	0xbd8b6992	-0.06807245
64	0x3ce600c8	0.028076544
65	0xbcf91f2f	-0.030410377
66	0xbd4a2c26	-0.04935851
67	0x3c408653	0.011750775
68	0xbd89c03a	-0.067261174
69	0xbd4888d8	-0.04895863
70	0xbd3ffed5	-0.046873886
71	0xbd0133fa	-0.03154371
72	0xbbd947bb	-0.0066308654
73	0x3cb84506	0.02249385
74	0xbd6b8f61	-0.057509784
75	0x3d179d55	0.037015278
76	0xbcf2a834	-0.029621221
77	0xbd1255b6	-0.03572627
78	0x3d5d0777	0.053962197
79	0xbd5506d1	-0.052008454
80	0x3c5eb089	0.013591894
81	0x3d2889de	0.041147105
82	0x3cd708fb	0.0262494
83	0x3d577ee1	0.052611236
84	0xbcac78f8	-0.021053776
85	0xbd0022dd	-0.03128325
86	0xbc1ffa03	-0.009764197
87	0xbd3e0a9c	-0.046396837
88	0xbd8a8a1b	-0.06764623
89	0x3990890a	0.00027567922
90	0x3c86e36c	0.016465865
91	0xbd7f98b0	-0.062401474
92	0xbd476385	-0.048678894
93	0xbd41c998	-0.047311395
94	0x3d1a762b	0.03771035
95	0xbd81f952	-0.06346382
96	0xbc48c3ff	-0.01225376
97	0x3c9dae74	0.019248225
98	0x3d25bcc5	0.040463228
99	0x3d266e78	0.040632695
100	0xbd9a01c2	-0.075198665
101	0x3cc94177	0.024567349
102	0x3bcee2e9	0.006313671
103	0xbcf80337	-0.03027497
104	0x3d88fcde	0.066888556
105	0xbaf6e9e9	-0.0018838021
106	0x3bdca69a	0.0067337276
107	0xbd853052	-0.06503357
108	0x3d0ad654	0.033895805
109	0xbd664dd5	-0.05622657
110	0xbd50793b	-0.050896864
111	0xbcb55c56	-0.022138756
112	0xbc7c4971	-0.015398369
113	0xbc59fe3e	-0.013305245
114	0x3d13e78d	0.036109496
115	0x3d1d53da	0.038410045
116	0x3d1331cd	0.035936166
117	0xbd809743	-0.06278851
118	0xbda6d7f3	-0.08146658
119	0x3d038874	0.032112554
120	0x3cebbcb5	0.028776506
121	0xbd0daf80	-0.034591198
122	0x3cdd9533	0.027048683
123	0xbcb5dbc3	-0.022199517
124	0xbc905491	-0.01761845
125	0xbd77a89a	-0.060463525
126	0x3d2d637f	0.042331215
127	0x3d3c97d1	0.04604322

module.base.1.layers.5.weight f4 [128]
0	0x3f8a380c	1.0798354
1	0x3f8e0893	1.1096367
2	0x3f870e7b	1.0551294
3	0x3f8a7286	1.08162
4	0x3f89a290	1.0752735
5	0x3f8c4b6f	1.096052
6	0x3f89a09f	1.0752143
7	0x3f8f3829	1.1189014
8	0x3f81bdc4	1.0136037
9	0x3f83f62e	1.0309503
10	0x3f8bbc13	1.0916771
11	0x3f99b308	1.2007761
12	0x3f819ba8	1.0125628
13	0x3f8944bb	1.07241
14	0x3f8e30a0	1.1108589
15	0x3f8dfc1d	1.1092564
16	0x3f8d7584	1.1051488
17	0x3f8a4013	1.0800804
18	0x3f961e3f	1.172798
19	0x3f85ceb1	1.0453702
20	0x3f85b406	1.0445564
21	0x3f8612d1	1.0474492
22	0x3f8c5ba7	1.096547
23	0x3f851b0c	1.0398879
24	0x3f8fd32d	1.1236321
25	0x3f8d43a6	1.103627
26	0x3f8c8b94	1.0980096
27	0x3f88b2a4	1.0679517
28	0x3f90fb1c	1.1326632
29	0x3f92a0d4	1.1455331
30	0x3f91541e	1.1353796
31	0x3f88fc7c	1.0702052
32	0x3f8455ec	1.0338721
33	0x3f8a4ee8	1.080533
34	0x3f82ddc5	1.0223929
35	0x3f87bf4c	1.0605254
36	0x3f8c6f6f	1.0971507
37	0x3f8c39bb	1.0955118
38	0x3f910c3b	1.1331857
39	0x3f8f4680	1.119339
40	0x3f8c6f51	1.0971471
41	0x3f881175	1.0630327
42	0x3f8987e9	1.0744601
43	0x3f86fa86	1.0545204
44	0x3f9111cd	1.1333557
45	0x3f8bf52a	1.0934193
46	0x3f8df6ce	1.1090944
47	0x3f93ccc8	1.1546869
48	0x3f8a8eeb	1.0824865
49	0x3f923a25	1.1423994
50	0x3f84a5ad	1.036306
51	0x3f888f3e	1.0668714
52	0x3f8750a0	1.057148
53	0x3f8bcdbc	1.092216
54	0x3f8e6906	1.1125801
55	0x3f882551	1.0636388
56	0x3f8f73ec	1.1207252
57	0x3f8ad10b	1.0845045
58	0x3f8827e2	1.0637171
59	0x3f83d621	1.0299722
60	0x3f8e97f3	1.1140121
61	0x3f85f916	1.046664
62	0x3f86a345	1.0518576
63	0x3f9105af	1.132986
64	0x3f934467	1.150525
65	0x3f943482	1.1578524
66	0x3f90bdc1	1.1307908
67	0x3f8e6fea	1.1127903
68	0x3f87f041	1.0620195
69	0x3f8d2f12	1.102999
70	0x3f8aa072	1.0830214
71	0x3f8c0b97	1.0941037
72	0x3f8c0879	1.0940086
73	0x3f85f0ea	1.0464146
74	0x3f8af7ba	1.085685
75	0x3f8251e1	1.0181237
76	0x3f806c79	1.0033103
77	0x3f84f1d5	1.0386301
78	0x3f89397b	1.0720667
79	0x3f848d92	1.0355704
80	0x3f81ac9a	1.0130799
81	0x3f8c4502	1.095856
82	0x3f8ecda0	1.1156502
83	0x3f90fc04	1.1326909
84	0x3f8ea233	1.1143249
85	0x3f81b471	1.0133191
86	0x3f86fd58	1.0546064
87	0x3f8d272f	1.1027583
88	0x3f82f1be	1.0230024
89	0x3f8c175c	1.0944629
90	0x3f86d16e	1.0532663
91	0x3f8efc32	1.1170714
92	0x3f7e779b	0.99401253
93	0x3f87ab81	1.0599214
94	0x3f9c3539	1.2203742
95	0x3f8ba874	1.0910783
96	0x3f840ab6	1.0315769
97	0x3f8ebac5	1.1150748
98	0x3f8be916	1.0930507
99	0x3f968492	1.1759207
100	0x3f8fa210	1.1221333
101	0x3f8c0213	1.0938133
102	0x3f8d3439	1.1031562
103	0x3f8a1479	1.0787498
104	0x3f8cce4e	1.1000459
105	0x3f8cae57	1.0990704
106	0x3f8f6759	1.1203414
107	0x3f8ee189	1.1162578
108	0x3f819e05	1.0126349
109	0x3f8852f1	1.0650312
110	0x3f83a6be	1.0285261
111	0x3f916c83	1.136124
112	0x3f905325	1.1275374
113	0x3f87116f	1.0552195
114	0x3f85a7e7	1.0441865
115	0x3f91d139	1.1391975
116	0x3f801cba	1.0008767
117	0x3f8e7fd2	1.1132758
118	0x3f930e5c	1.1488757
119	0x3f8b0d98	1.0863523
120	0x3f8466a0	1.0343819
121	0x3f90e3eb	1.1319555
122	0x3f8db4dc	1.1070819
123	0x3f9137b9	1.134513
124	0x3f81a439	1.0128242
125	0x3f9c76ea	1.222379
126	0x3f9abff8	1.2089834
127	0x3f860d8e	1.0472887

module.base.1.layers.5.bias f4 [128]
0	0x3cd2f6e4	0.025752492
1	0x3d023d7f	0.03179693
2	0xbd432964	-0.047646895
3	0x3d4ea1a0	0.050447106
4	0xbc96b6cd	-0.018397713
5	0x3c163cd4	0.009169776
6	0xbc4c8aa6	-0.012484228
7	0xbd22992f	-0.03969687
8	0x3d724b5a	0.059153892
9	0x3c32f188	0.010921843
10	0x3cfed6ba	0.031108249
11	0x3e18470d	0.14870854
12	0x3b498981	0.0030752125
13	0x3cda3738	0.026637658
14	0xbcbd6c77	-0.02312301
15	0x3e313189	0.17304052
16	0xbc1bb314	-0.009503145
17	0x3d18acb2	0.03727407
18	0xbe13330f	-0.14374946
19	0x3ced3983	0.028958088
20	0xbcd44a50	-0.025914341
21	0x3cceef16	0.02526049
22	0xbcebee82	-0.028800253
23	0xbd2c37e5	-0.042045493
24	0xbc6b4872	-0.014360534
25	0x3d694a17	0.056955423
26	0x3c8a471e	0.016879614
27	0xbca59001	-0.020210268
28	0xbc9faeea	-0.019492585
29	0xbd1f6841	-0.038917784
30	0xbd83ddd3	-0.06438794
31	0xbc83fbb3	-0.01611123
32	0xbc88ba3e	-0.01669037
33	0xbcddef06	-0.027091514
34	0x3ccb4982	0.024815325
35	0x3c51612b	0.012779514
36	0x3d4edc52	0.050503083
37	0x3d20e8bb	0.03928445
38	0x3d22cbd5	0.03974517
39	0xbc32f48d	-0.010922563
40	0xb7f3f94b	-2.9083943e-05
41	0xbd639a8c	-0.05556731
42	0xb95b8d2f	-0.00020938063
43	0xbce54001	-0.027984621
44	0xbd875f67	-0.066099934
45	0x3d49ec51	0.049297635
46	0x3d8093c1	0.06278182
47	0xbd001b5a	-0.031276084
48	0xbcef3dae	-0.029204216
49	0x3d5ab4bf	0.05339503
50	0xbc3e670e	-0.01162125
51	0xbcc1d608	-0.023661628
52	0x3c14ddc7	0.009086079
53	0x3d63b64e	0.05559378
54	0xbd1a6aaa	-0.03769938
55	0xbc38a3f8	-0.011269562
56	0xbc03c5fc	-0.008042809
57	0xbb7139de	-0.0036808173
58	0xbbdac55c	-0.006676359
59	0x3be8a2c7	0.0070994827
60	0x3d588703	0.052863132
61	0xbc781211	-0.015141026
62	0xba8b296d	-0.0010617204
63	0xbdaee587	-0.085398726
64	0xbd0c6b2c	-0.034281895
65	0xbba6a78d	-0.0050858916
66	0xbc4503a2	-0.012024792
67	0xbd33caa4	-0.043894425
68	0xbc33bcdd	-0.0109703215
69	0x3cccc922	0.024998251
70	0xbd60e414	-0.054905012
71	0xbd8f8f85	-0.07009796
72	0xbd50214d	-0.050813008
73	0x3ce06b60	0.02739495
74	0x3cbbe2a7	0.022935225
75	0xbc84ab98	-0.016195104
76	0x3cc948b9	0.02457081
77	0xbbcdb6be	-0.006277888
78	0x3cc4e583	0.024035221
79	0x3bf4cf58	0.0074710064
80	0xbbb6601a	-0.0055656554
81	0x3d5f447e	0.05450868
82	0xbd0b55f9	-0.034017537
83	0x3d8b2b50	0.067953706
84	0x3a40e97d	0.0007359011
85	0xbc46cab3	-0.012133288
86	0x3d97123d	0.073765256
87	0x3d59ee81	0.05320597
88	0xbcd2694c	-0.025684975
89	0xbd677955	-0.056512196
90	0xbd3e3f50	-0.0464471
91	0x3d4914c1	0.049092058
92	0xbc841431	-0.01612291
93	0x3c49ddbc	0.012320932
94	0xbd2ae4c7	-0.041722085
95	0xbcb77e28	-0.022399023
96	0x3c88ff7a	0.016723383
97	0x3d24ba22	0.040216573
98	0x3c9d7b08	0.019223705
99	0x3dcb9337	0.099401884
100	0xbd9519c8	-0.07280308
101	0x3aaff7ff	0.0013425349
102	0xbd1f59a8	-0.038903862
103	0xbd32771e	-0.04357063
104	0x3dbe22e2	0.09283997
105	0x3d9766d0	0.07392657
106	0xbcc185cc	-0.02362337
107	0x3cf79731	0.03022346
108	0x3c17c0ad	0.009262246
109	0xbc788802	-0.015169146
110	0x3bcdf00f	0.0062847207
111	0x3becad27	0.00722279
112	0x3dc7ccab	0.09755834
113	0x3ca96dd0	0.020682245
114	0xbcae133e	-0.02124941
115	0x3d5a470f	0.053290423
116	0xbc2ee7d3	-0.010675388
117	0xbb6dceac	-0.0036286516
118	0xbd83b0ed	-0.0643023
119	0x3d1c53b5	0.038165767
120	0xbd1b3e79	-0.037901375
121	0xbb26bf47	-0.00254436
122	0xbcf84898	-0.030308053
123	0x3cb8cb1a	0.022557784
124	0xbc3eb6ea	-0.01164029
125	0x3c1ee36f	0.009697779
126	0x3dd6620f	0.10467922
127	0xbc0f4d7b	-0.0087465
