scripts/shell/checkpoint/checkpoint_firstpass.pt (torch, 498635 bytes, 32 tensors)

module.base.0.weight f4 [36]
0	0x3f7faaa5	0.9986976
1	0x3f7d1f47	0.9887585
2	0x3f97f1ab	1.1870626
3	0x3f892f59	1.0717574
4	0x3f97e4d8	1.1866713
5	0x3f89153d	1.0709606
6	0x3f870512	1.0548422
7	0x3f84f100	1.0386047
8	0x3f7f25fe	0.99667346
9	0x3f91911d	1.137241
10	0x3f2a85f9	0.66610676
11	0x3f57ea1b	0.8434159
12	0x3f3eb1e2	0.7449018
13	0x3f873de2	1.056576
14	0x3f8e03b1	1.1094877
15	0x3f9f8306	1.246186
16	0x3f8a7239	1.0816108
17	0x3f94e9e2	1.1633875
18	0x3f8d1105	1.1020819
19	0x3f12684b	0.5719039
20	0x3f027162	0.5095426
21	0x3f0e95fb	0.556976
22	0x3ef4481a	0.4771126
23	0x3f81c672	1.0138686
24	0x3f7f1191	0.9963618
25	0x3f88859c	1.0665774
26	0x3f81b7f6	1.0134265
27	0x3f854ebd	1.0414654
28	0x3f9473ae	1.1597803
29	0x3f6e7b38	0.93156767
30	0x3f7f2864	0.99671006
31	0x3f68eaa9	0.90983063
32	0x3f92a425	1.1456343
33	0x3f929d18	1.1454191
34	0x3f98070d	1.1877152
35	0x3f8f1da8	1.1180925

module.base.0.bias f4 [36]
0	0xbd024280	-0.0318017
1	0xbc11d708	-0.008901365
2	0xbcb284c3	-0.021791821
3	0x3afefe8b	0.0019454522
4	0x3a775d09	0.00094361656
5	0x3b324b01	0.002720535
6	0xbb52d53d	-0.0032170557
7	0xba110c47	-0.00055331405
8	0xbca28cf0	-0.019842595
9	0xbd07fe42	-0.033201464
10	0x3d02db86	0.031947635
11	0x3d142fb2	0.0361783
12	0x3cc72ca1	0.024313273
13	0x3b921c7e	0.004458963
14	0xbd3eac50	-0.04655105
15	0x3c41c6be	0.011827169
16	0xbbcdee3e	-0.006284504
17	0x3c9d7821	0.019222321
18	0xba5ebb26	-0.0008496515
19	0x3c45e9d7	0.012079678
20	0x3d7bd5e9	0.061483297
21	0xbd052467	-0.03250542
22	0xbc1d7edd	-0.009612766
23	0xbca21e75	-0.019789914
24	0x3cae1de7	0.021254493
25	0x3b0cf961	0.0021510946
26	0x3cac5d37	0.021040542
27	0x3c56e78d	0.013116729
28	0x38e2f09e	0.00010821338
29	0xbdf3b22a	-0.118992165
30	0x39ed6e85	0.00045286506
31	0x3de89e8a	0.11358364
32	0x3ca02994	0.019551076
33	0x3d148666	0.036260985
34	0x3cdeb3f6	0.027185421
35	0x3a0de60b	0.0005413002

module.base.1.layers.0.weight f4 [256, 36]
0	0xbb88b7d5	-0.004172305
1	0x3e069abc	0.13144964
2	0xbdf7ee79	-0.12106032
3	0x3dea760a	0.114482954
4	0xbcc9b680	-0.024623156
5	0x3dd80d92	0.10549463
6	0xbd221c78	-0.03957793
7	0xbe201869	-0.15634312
8	0xbd95de0a	-0.07317741
9	0x3ad272c0	0.0016055927
10	0x3df1c942	0.11805965
11	0xbc602f5d	-0.013683167
12	0xbd8ee24c	-0.069767565
13	0xbe1c68d8	-0.1527437
14	0x3e306339	0.1722535
15	0xbc80e672	-0.015734885
16	0xbb2ba218	-0.0026189145
17	0xbdc4c2aa	-0.09607442
18	0xbd3a707b	-0.045517426
19	0xbdf52b9d	-0.11971209
20	0x3d217cb9	0.039425585
21	0xbdff724f	-0.124729745
22	0x3dcf016b	0.10107692
23	0x3e0265d0	0.12734151
24	0x3d87bfa8	0.066283524
25	0x3dd14d29	0.10219795
26	0x3df9082a	0.1215976
27	0xbdf08874	-0.11744776
28	0xbd2af147	-0.041734006
29	0x3d3c28ea	0.045937456
30	0x3d4f194d	0.050561238
31	0x3e1a99be	0.1509771
32	0x3d9327f5	0.071853556
33	0x3cac3ddc	0.02102559
34	0xbdf8dfb1	-0.12152041
35	0xbde11eda	-0.109922126
36	0x3e1ab208	0.15106976
37	0xbc8d3ec8	-0.01724185
38	0x3e02de06	0.12780008
39	0xbdba52b9	-0.09097809
40	0xbd394848	-0.04523495
41	0x3e34f37e	0.1767101
42	0x3c3dc2d6	0.011582097
43	0xbcadbbd6	-0.021207731
44	0x3def2550	0.11677039
45	0x3e1698b7	0.14706694
46	0xbb7b136b	-0.0038311135
47	0xbd2431c5	-0.040086526
48	0x3dd6bde5	0.10485438
49	0xbcab85c2	-0.020937804
50	0xb8bef319	-9.1051865e-05
51	0xbdf0fec9	-0.117673464
52	0x3dad9767	0.08476143
53	0xbd82a68b	-0.06379422
54	0x3df17d92	0.11791529
55	0xbd55c4d1	-0.052189652
56	0xbc0e675d	-0.008691636
57	0x3d41d162	0.047318824
58	0xbcf9e532	-0.030504797
59	0x3d007f23	0.031371247
60	0x3d89e4f8	0.067331254
61	0x3ce5b7a3	0.028041666
62	0x3cbca723	0.023028916
63	0xbbf87c62	-0.007583187
64	0x3c7df6bb	0.01550072
65	0xbdae0b8c	-0.08498296
66	0x3d974ccf	0.07387697
67	0xbd74a147	-0.05972412
68	0xbe624dc0	-0.22099972
69	0x3db3277b	0.08747765
70	0xbe191639	-0.14949884
71	0xbe6da240	-0.23206425
72	0x3e29d5f1	0.16585518
73	0x3cd7ea6a	0.026356895
74	0x3e51e51a	0.20497552
75	0xbe02bbba	-0.12766925
76	0xbd90c60e	-0.07069026
77	0xbc8dd796	-0.017314713
78	0x3cf50a04	0.029912002
79	0x3dd1cec3	0.10244515
80	0x3d99c14f	0.07507574
81	0x3dc5ef22	0.096647516
82	0xbd062b3b	-0.03275607
83	0x3dc7df36	0.09759371
84	0x3d1a1983	0.037621986
85	0xbd458a76	-0.04822775
86	0x3e278e7a	0.16362944
87	0xbe174e32	-0.14775923
88	0xbc1cea87	-0.0095774
89	0x3db0d590	0.08634484
90	0x3e1be694	0.15224677
91	0xbbf178ec	-0.0073691513
92	0xbd4b8738	-0.0496895
93	0xbd9a70fe	-0.07541083
94	0xbd32d5e8	-0.04366103
95	0x3e2296c9	0.15877832
96	0x3c96c976	0.018406611
97	0xbc1c9495	-0.009556909
98	0x3d5f39da	0.05449853
99	0xbe1d4a29	-0.15360321
100	0xbd947cb2	-0.07250346
101	0xbdb3f81f	-0.0878756
102	0x3d48ebb3	0.049052905
103	0x3e04393b	0.12912457
104	0x3e29a0b6	0.16565213
105	0xbe7c73f6	-0.2465361
106	0xbc44aa5c	-0.012003507
107	0xbde1a22f	-0.11017262
108	0x3d9eed02	0.077600494
109	0xbe11cfc5	-0.14239414
110	0xbe0214ac	-0.12703198
111	0xbe2f3487	-0.17109881
112	0x3dc9d43f	0.09854936
113	0x3e1daf18	0.15398824
114	0xbd78f562	-0.06078089
115	0xbe2df0de	-0.16986415
116	0xbd9369d2	-0.07197918
117	0xbe19941c	-0.14997905
118	0x3d8db455	0.06919161
119	0x3e0c2136	0.13684544
120	0xbddbd165	-0.10733298
121	0xbc8d7580	-0.017267942
122	0xbe20f625	-0.15718897
123	0x3d1aeb2a	0.037821926
124	0xbe0754ba	-0.13215914
125	0xbd81fff2	-0.06347646
126	0xbdb7cb20	-0.0897429
127	0xbb8e86a1	-0.004349545
128	0x3d951800	0.07279968
129	0x3d9e90a4	0.07742432
130	0xbd5b4198	-0.053529352
131	0x3d4f9126	0.050675534
132	0x3df9aea3	0.121915124
133	0x3dc5db84	0.0966101
134	0x3df31b64	0.11870459
135	0x3e0dfc0e	0.13865682
136	0x3db278d5	0.08714453
137	0x3d199afe	0.037501328
138	0x3dace0ba	0.08441301
139	0x3dd216c1	0.10258246
140	0x3e1c201f	0.15246628
141	0xbde0d06d	-0.10977254
142	0xbd9be932	-0.07612838
143	0xbe06b610	-0.13155389
144	0xbdec0be9	-0.11525709
145	0xbd870515	-0.06592766
146	0x3dc8a7bd	0.097976185
147	0xbd1ca379	-0.038241837
148	0xbdef70a4	-0.11691406
149	0x3d8679f2	0.06566228
150	0xbd00fb3e	-0.031489603
151	0xbd2ebe99	-0.042662237
152	0x3d8eeee8	0.069791615
153	0xbd5ec098	-0.05438289
154	0x3d27ed78	0.040997952
155	0xbdc2e691	-0.09516633
156	0xbe17f31d	-0.14838834
157	0xbe3887f6	-0.18020615
158	0x3d034963	0.03205241
159	0x3e7ab7fb	0.24484245
160	0xbe0d1603	-0.13777928
161	0x3d59deb3	0.0531909
162	0x3d65f4ea	0.05614177
163	0xbd85b745	-0.065290965
164	0x3ddc5337	0.107580595
165	0xbb37d388	-0.0028049666
166	0x3e05423e	0.1301355
167	0x3d116d60	0.0355047
168	0xbcf44887	-0.02981974
169	0x3de93ded	0.113887645
170	0x3da70ea2	0.08157088
171	0x3e0dcce5	0.13847692
172	0xbe62fcaa	-0.22166696
173	0xbdb35edb	-0.087583266
174	0x3dc37446	0.09543662
175	0xbcef55fb	-0.029215803
176	0x3e2d22ca	0.16907802
177	0x3dca0098	0.098633945
178	0x3dd48a76	0.10377972
179	0xbdc30c52	-0.09523834
180	0xbe0e0f10	-0.13872933
181	0xbe6455f0	-0.22298408
182	0xbd828fbf	-0.06375074
183	0x3de664ac	0.112496704
184	0xbe572fee	-0.21014377
185	0xbcc767c5	-0.024341473
186	0xbdeab36a	-0.11460002
187	0x3d14dc30	0.0363428
188	0xbdfadc0a	-0.12249
189	0x3e2b895e	0.1675162
190	0xbda01541	-0.07816554
191	0xbceda9d4	-0.029011644
192	0x3c9a5c7f	0.018842934
193	0xbaae0696	-0.0013277109
194	0x3d1fe7e2	0.0390395
195	0x3d196947	0.037453916
196	0xbe46015a	-0.19336453
197	0xbc725a39	-0.014792019
198	0x3c1c9bef	0.009558662
199	0xbe09a710	-0.13442636
200	0xbdadc21a	-0.084842876
201	0xbd134955	-0.035958607
202	0xbe173d09	-0.14769377
203	0x3d74e0f3	0.05978484
204	0x3e1260ef	0.1429479
205	0xbbffa227	-0.0078013125
206	0x3e4e68e0	0.20157194
207	0x3e4a5a78	0.19761074
208	0xbe720742	-0.23635581
209	0xbd318edb	-0.04334913
210	0xbd0a42bc	-0.03375505
211	0xbdb46b7e	-0.08809565
212	0x3e3a5785	0.18197449
213	0xbe4b9a02	-0.19882968
214	0xbc824292	-0.015900884
215	0x3d90cab8	0.070699155
216	0xbd118eb5	-0.035536487
217	0xbd498e64	-0.04920806
218	0xbd688563	-0.056767832
219	0x3d859ce9	0.06524069
220	0xbd0e5e1b	-0.034757715
221	0x3e12f014	0.14349395
222	0x3dfdbe26	0.123897836
223	0x3e04470a	0.12917724
224	0x3e249b4c	0.16074866
225	0xbd809593	-0.06278529
226	0x3c129e9e	0.00894895
227	0xbd4fc871	-0.050728265
228	0xbddc2053	-0.10748353
229	0x3d81c915	0.063371815
230	0x3e1d4e48	0.15361893
231	0x3dc7da74	0.097584635
232	0x3e3e2883	0.18570141
233	0xbd59101c	-0.05299388
234	0xbd8c6019	-0.06854267
235	0x3d52101c	0.051284894
236	0xbb974f87	-0.0046176347
237	0x3d9dc282	0.07703115
238	0x3c50f244	0.012753073
239	0xbcb4e39d	-0.02208119
240	0x3d05a2b7	0.03262588
241	0xbb9a208a	-0.004703586
242	0xbdd6f3b6	-0.10495703
243	0x3e04ba03	0.12961583
244	0x3e12d4f8	0.14339054
245	0x3dfe0c0a	0.1240464
246	0x3d619305	0.05507185
247	0xbd976f90	-0.07394326
248	0xbdecfdfd	-0.11571882
249	0x3cc4349d	0.02395087
250	0x3d1dc5d5	0.038518745
251	0x3cf76809	0.030200975
252	0x3dacd06d	0.084381916
253	0x3d7abfb1	0.061217967
254	0xbe4bcbc7	-0.19901954
255	0x3d622099	0.05520687

module.base.1.layers.0.bias f4 [256]
0	0x3e14dc13	0.14537077
1	0x3d50842b	0.050907295
2	0x3e165d76	0.1468409
3	0xbe0825a9	-0.13295616
4	0xbb949078	-0.0045338236
5	0xbdb5f943	-0.088854335
6	0x3d1830cd	0.037155915
7	0x3daddd66	0.08489494
8	0xbd718473	-0.058964204
9	0x3d82efd7	0.06393402
10	0xbd1cf8a8	-0.038323075
11	0xbe327cd4	-0.1743043
12	0xbe35cacb	-0.1775314
13	0x3d616709	0.055029903
14	0xbdd46aad	-0.10371909
15	0xbc3581d7	-0.0110783195
16	0x3b7ff3b4	0.003905517
17	0x3deff963	0.117174886
18	0xbe321ff7	-0.17395006
19	0xbe3e7155	-0.1859792
20	0x3c2b5107	0.01045633
21	0x3e12a525	0.1432081
22	0x3d45272f	0.04813307
23	0x3e13b3ed	0.14424105
24	0x3d6f9efa	0.05850122
25	0xbdae9cd4	-0.08526006
26	0x3e133d69	0.14378895
27	0x3dcb1455	0.099159874
28	0xbdaa610c	-0.083192915
29	0x3df01aed	0.11723886
30	0xbd54b8f5	-0.0519342
31	0x3dcd4031	0.10022009
32	0xbd695257	-0.05696329
33	0xbd51d91f	-0.051232453
34	0x3da65787	0.08122163
35	0xbc8315f7	-0.016001685
36	0xbd04f45a	-0.032459594
37	0xbd8ff7dc	-0.07029697
38	0x3e1e21d7	0.15442596
39	0xbd76fbe3	-0.06029881
40	0xbe3c73f5	-0.18403609
41	0xbe28cb7a	-0.1648387
42	0x3db0cd30	0.086328864
43	0x3e197af1	0.14988305
44	0xbd0115a2	-0.03151477
45	0xbdbd2fa1	-0.092376
46	0xbe1d5c50	-0.15367246
47	0x3dd6d0de	0.10489057
48	0x3e078c21	0.13237049
49	0x3df3cfc6	0.11904864
50	0xbdc0d755	-0.09416071
51	0x3d297933	0.04137535
52	0xbd9bbbf7	-0.07604211
53	0xbd3005c3	-0.042974245
54	0xbd06ed33	-0.032941055
55	0x3e201181	0.15631677
56	0xbc3b0c63	-0.011416527
57	0xbdfc5f03	-0.123228095
58	0x3dfabb2b	0.12242731
59	0xbdb76b0c	-0.089559644
60	0xbe1ba5dc	-0.15199989
61	0x3d902f1b	0.07040235
62	0x3c2565b7	0.0100950515
63	0xbd95df7b	-0.07318016
64	0xbd5e3fca	-0.054260053
65	0xbe0626d0	-0.13100743
66	0xbd978ca7	-0.07399874
67	0x3d8aff0b	0.06786927
68	0x3d430bac	0.047618553
69	0x3df4a929	0.11946327
70	0xbe023082	-0.12713817
71	0xbe29b837	-0.16574179
72	0xbd392dfd	-0.045209873
73	0xbc3d7254	-0.0115629025
74	0x3d12e8f5	0.035866696
75	0xbd5dbd49	-0.054135595
76	0x3e2007da	0.15627995
77	0x3c10ba40	0.008833468
78	0x3d8e6422	0.069526926
79	0x3d4c5a23	0.04989065
80	0xbd3bae63	-0.045820605
81	0xbd0a3265	-0.033739466
82	0x3d95efb3	0.073211096
83	0x3d5e983f	0.054344412
84	0xbca3922f	-0.019967167
85	0xbda5159d	-0.08060763
86	0xbd73208a	-0.059357204
87	0x3d87a1b2	0.06622638
88	0xbddfe4c9	-0.10932309
89	0x3cf13881	0.029445888
90	0xbe554543	-0.20827202
91	0xbe0b52fd	-0.13605876
92	0x3d9ab2b2	0.07553615
93	0x3e09c78c	0.13455027
94	0xbd15e168	-0.036591917
95	0x3e199f75	0.15002234
96	0x3e350c15	0.1768039
97	0xbb0a2b93	-0.0021083101
98	0xbc30d70b	-0.010793458
99	0x3d67d8f3	0.056603383
100	0xbddc6000	-0.10760498
101	0xbde0b5fc	-0.10972211
102	0x3e2feb18	0.17179525
103	0x3dc9f2f3	0.09860792
104	0xbe2d1e25	-0.1690603
105	0xbe4da820	-0.20083666
106	0x3d6e2341	0.05813909
107	0xbda30146	-0.07959227
108	0xbe1077a6	-0.14108142
109	0x3cf21e6c	0.029555522
110	0x3d11115e	0.035416953
111	0xbe371a90	-0.17881227
112	0xbda971a5	-0.08273629
113	0xbddc685d	-0.10762093
114	0x3dec5ce0	0.11541152
115	0xbd25d89c	-0.040489778
116	0xbd888f5e	-0.0666797
117	0xbd3114f1	-0.043232862
118	0x3cee39cb	0.029080292
119	0x3d4f6408	0.050632507
120	0xbd6335bc	-0.055471167
121	0xbc0b9471	-0.008519278
122	0xbddc33aa	-0.10752042
123	0xbbab5f4f	-0.0052298675
124	0xbd902238	-0.07037777
125	0x3de016bd	0.10941837
126	0x3e20691f	0.156651
127	0xbd5235c8	-0.05132082
128	0xbd3c1fcf	-0.045928773
129	0x3d54c994	0.051950052
130	0x3c0eab19	0.008707785
131	0xbe447e3e	-0.19188783
132	0x3d881863	0.066452764
133	0x3bbaa81a	0.005696309
134	0xbe32ffdd	-0.17480417
135	0x3e0ac4f5	0.13551696
136	0xbd1490aa	-0.036270775
137	0x3d1fb9d1	0.038995568
138	0x3c8cd3e7	0.017190887
139	0x3d7d2e6a	0.061811842
140	0x3da4db4a	0.080496386
141	0xbc9e8e29	-0.019354897
142	0xbe352ff1	-0.1769407
143	0xbd8e984c	-0.06962642
144	0xbdf8a6e6	-0.12141208
145	0xbd263a95	-0.040583212
146	0xbd55ef09	-0.052229915
147	0xbb8511e7	-0.004060972
148	0xbd63d6a0	-0.055624604
149	0xbe1ea895	-0.15493996
150	0x3dd96fa5	0.10616998
151	0x3d8e5067	0.06948929
152	0xbe0f2b4a	-0.13981357
153	0x3bc036b2	0.005865895
154	0xbe12599a	-0.14291993
155	0xbc3e698e	-0.011621846
156	0xbdb9d440	-0.090736866
157	0x3d9c141a	0.076210216
158	0x3d58f649	0.05296925
159	0x3d946de8	0.072475255
160	0x3db2399b	0.087023936
161	0xbe2cd297	-0.16877209
162	0x3e0df1b0	0.13861728
163	0x3cdb0156	0.026734035
164	0xbdf8d5dc	-0.121501654
165	0x3c83fd83	0.016112095
166	0xbe11e6f5	-0.1424826
167	0x3d3428fd	0.043984402
168	0x3c8e13a9	0.017343359
169	0x3caee812	0.021350894
170	0xbda888d3	-0.08229222
171	0x3dcb334d	0.09921894
172	0xbd750ee8	-0.05982867
173	0x3c0c795c	0.008573856
174	0xbdb1cea4	-0.08681992
175	0xbe3a4440	-0.18190098
176	0x3df5d653	0.1200377
177	0xbd30918d	-0.043107558
178	0xbd985a67	-0.07439118
179	0x3dde483c	0.10853621
180	0x3ba7fdf5	0.0051267096
181	0xbdb2d976	-0.08732884
182	0xbddc1598	-0.10746306
183	0x3c8fee27	0.017569615
184	0x3db43340	0.08798838
185	0x3d1230f9	0.035691235
186	0xbe32c528	-0.17458022
187	0x3cebc981	0.028782608
188	0xbda3896c	-0.079851955
189	0x3d8d58d8	0.06901711
190	0x3d5f2d0c	0.05448632
191	0x3da65940	0.08122492
192	0xbca32c24	-0.019918509
193	0xbe212516	-0.15736803
194	0xbdd7eed3	-0.10543599
195	0x3dd3671f	0.10322403
196	0xbe330bea	-0.17485014
197	0xbde8a142	-0.113588825
198	0x3e100bd2	0.14067009
199	0xbe0902c0	-0.13379955
200	0xbdd73221	-0.10507608
201	0x3d2775b6	0.040883742
202	0x3c5e3732	0.013562964
203	0xbcf750f9	-0.030189978
204	0xbe32d98b	-0.17465799
205	0xbdf3806a	-0.118897274
206	0xbcdf49ea	-0.027256925
207	0x3cf0a965	0.029377649
208	0xbe360a82	-0.17777446
209	0x3c9ad251	0.018899115
210	0x3e051e08	0.12999737
211	0x3dbbb34f	0.0916506
212	0x3e01909a	0.12652817
213	0x3dc25382	0.09488584
214	0x3d385540	0.045003176
215	0x3d03c109	0.032166515
216	0x3deb5f06	0.11492734
217	0x3d59aa7c	0.053141102
218	0xbd3f9ef4	-0.04678245
219	0xbdde40c4	-0.10852197
220	0xbda8d2a2	-0.082433
221	0xbce40e8d	-0.02783897
222	0xbdcdd1da	-0.10049792
223	0x3d43909f	0.047745343
224	0x3d03ce04	0.032178894
225	0x3d3d4ddc	0.04621683
226	0x3e12441d	0.14283796
227	0x3cd8ab40	0.026448846
228	0x3dae2620	0.085033655
229	0x3daf3d98	0.0855667
230	0xbdfa1d19	-0.12212581
231	0x3d4ef41b	0.050525766
232	0x3cab89bf	0.020939706
233	0x3d1cbfe4	0.03826894
234	0x3e30af43	0.17254357
235	0xbe2812bd	-0.16413398
236	0x3d0ee48f	0.03488594
237	0xbc2110ee	-0.0098306965
238	0xbdaf0c44	-0.08547261
239	0xbda11219	-0.0786478
240	0x3e482ae7	0.19547616
241	0x3e04ad23	0.12956671
242	0xbdd7b037	-0.10531657
243	0xbdc52976	-0.09627049
244	0x3d5802ed	0.052737165
245	0xbd7cfb70	-0.061763227
246	0xbd9622d9	-0.073308654
247	0x3e0f82f1	0.14014794
248	0xbdfb2f66	-0.122649
249	0xbd6b1d34	-0.057400897
250	0x3a05084d	0.0005074784
251	0xbe182587	-0.14858066
252	0xbdcc0807	-0.099624686
253	0xbe0043f0	-0.12525916
254	0x3d86ac51	0.065758355
255	0x3dd94335	0.10608522

module.base.1.layers.2.weight f4 [256]
0	0x3f82cede	1.0219381
1	0x3f838b3c	1.0276866
2	0x3f8d0534	1.1017213
3	0x3f8e4b44	1.1116719
4	0x3f86288b	1.0481123
5	0x3f8bb599	1.0914794
6	0x3f8069b5	1.0032259
7	0x3f8c02cf	1.0938357
8	0x3f85b4ec	1.0445838
9	0x3f85e11c	1.0459323
10	0x3f8e8523	1.113438
11	0x3f892144	1.0713277
12	0x3f8706df	1.0548972
13	0x3f82a043	1.0205158
14	0x3f846305	1.0342718
15	0x3f9016bd	1.1256939
16	0x3f8785a4	1.0587659
17	0x3f81c690	1.0138721
18	0x3f87caa7	1.060872
19	0x3f82e50d	1.0226151
20	0x3f87bef0	1.0605145
21	0x3f816b0b	1.0110792
22	0x3f8690b1	1.0512906
23	0x3f85ec63	1.0462765
24	0x3f844e13	1.0336326
25	0x3f88b73b	1.0680918
26	0x3f7ecc23	0.9953024
27	0x3f8c0cd3	1.0941414
28	0x3f913b60	1.1346245
29	0x3f8ed6e4	1.115933
30	0x3f8892e0	1.0669823
31	0x3f82327e	1.0171659
32	0x3f8b37e0	1.0876427
33	0x3f92b0eb	1.1460241
34	0x3f85cc46	1.0452964
35	0x3f88c5ea	1.0685399
36	0x3f880db1	1.0629178
37	0x3f84c791	1.0373403
38	0x3f8d38a5	1.1032912
39	0x3f886591	1.0655996
40	0x3f8c917b	1.0981897
41	0x3f893f51	1.0722448
42	0x3f83d37c	1.0298915
43	0x3f84fe55	1.0390116
44	0x3f862f59	1.0483199
45	0x3f83aedb	1.0287737
46	0x3f83a0d4	1.0283456
47	0x3f85e9f0	1.0462017
48	0x3f8943c6	1.0723808
49	0x3f8bdf6e	1.092756
50	0x3f8c436d	1.0958077
51	0x3f90c2d8	1.1309462
52	0x3f8d1895	1.1023127
53	0x3f83b112	1.0288413
54	0x3f826557	1.0187176
55	0x3f85d615	1.0455958
56	0x3f839f3a	1.0282967
57	0x3f83ae6c	1.0287604
58	0x3f85be96	1.0448787
59	0x3f8d0a88	1.1018839
60	0x3f97abb7	1.1849278
61	0x3f832d01	1.0248109
62	0x3f85c677	1.0451192
63	0x3f8528bb	1.0403055
64	0x3f86938c	1.0513778
65	0x3f847998	1.0349607
66	0x3f8169c6	1.0110404
67	0x3f8c24d7	1.0948743
68	0x3f848af1	1.0354902
69	0x3f7f1776	0.99645174
70	0x3f953c62	1.1659052
71	0x3f83b995	1.029101
72	0x3f8e9862	1.1140254
73	0x3f88f675	1.0700213
74	0x3f817724	1.0114484
75	0x3f8d3810	1.1032734
76	0x3f8950cc	1.0727782
77	0x3f879b06	1.0594184
78	0x3f82c193	1.0215324
79	0x3f8fd348	1.1236353
80	0x3f86f416	1.0543239
81	0x3f8598a8	1.0437212
82	0x3f8418c1	1.0320054
83	0x3f824d0e	1.0179765
84	0x3f8918bc	1.0710673
85	0x3f890896	1.0705745
86	0x3f86cfb7	1.053214
87	0x3f887bfc	1.0662837
88	0x3f8194a0	1.0123482
89	0x3f9305b1	1.1486112
90	0x3f96b39a	1.177356
91	0x3f829c07	1.0203866
92	0x3f7d4c1b	0.9894425
93	0x3f83eaa7	1.0305985
94	0x3f94f966	1.163861
95	0x3f8461e0	1.0342369
96	0x3f97d8c8	1.1863031
97	0x3f81bfd9	1.0136672
98	0x3f89ba25	1.0759932
99	0x3f824666	1.0177734
100	0x3f822c97	1.0169858
101	0x3f85be90	1.044878
102	0x3f843290	1.032793
103	0x3f83b466	1.0289428
104	0x3f832a1f	1.0247229
105	0x3f84d636	1.0377872
106	0x3f814c28	1.0101366
107	0x3f85c303	1.0450138
108	0x3f8f4b03	1.1194767
109	0x3f8427b2	1.0324614
110	0x3f94661c	1.1593661
111	0x3f8864a0	1.0655708
112	0x3f868501	1.050934
113	0x3f8791d0	1.0591373
114	0x3f9814ed	1.1881386
115	0x3f8105d9	1.007991
116	0x3f8d49e9	1.103818
117	0x3f856ac6	1.042321
118	0x3f803608	1.0016489
119	0x3f8652e7	1.049405
120	0x3f83ad9a	1.0287354
121	0x3f8884a4	1.0665479
122	0x3f9ebdcf	1.2401675
123	0x3f80e04b	1.0068449
124	0x3f8027a2	1.0012095
125	0x3f872894	1.0559258
126	0x3f871286	1.0552528
127	0x3f8453cd	1.0338074
128	0x3f883c07	1.0643319
129	0x3f822c37	1.0169743
130	0x3f86b040	1.0522537
131	0x3f97f230	1.1870785
132	0x3f8fdea8	1.1239824
133	0x3f8a0b5a	1.0784714
134	0x3f8237eb	1.0173315
135	0x3f87826f	1.058668
136	0x3f88ee63	1.069775
137	0x3f82d675	1.0221697
138	0x3f976ee5	1.1830717
139	0x3f8263c9	1.0186702
140	0x3f836e63	1.0268062
141	0x3f934022	1.1503947
142	0x3f81ff14	1.0155969
143	0x3f8304ef	1.0235881
144	0x3f89d5a5	1.0768324
145	0x3f851546	1.0397117
146	0x3f8f56d2	1.119837
147	0x3f865f21	1.0497781
148	0x3f8a2ba3	1.0794567
149	0x3f8674b0	1.050436
150	0x3f800111	1.0000325
151	0x3f8ca77b	1.0988611
152	0x3f80aac0	1.0052109
153	0x3f8638e8	1.0486116
154	0x3f87cf43	1.0610126
155	0x3f8f5021	1.1196328
156	0x3f878a81	1.0589143
157	0x3f8ee700	1.1164246
158	0x3f8eb3e6	1.1148651
159	0x3f955c9c	1.1668887
160	0x3f88dba2	1.0692027
161	0x3f814121	1.0098001
162	0x3f942e39	1.1576606
163	0x3f862263	1.0479244
164	0x3f840812	1.0314963
165	0x3f842002	1.0322268
166	0x3f80a145	1.0049216
167	0x3f84ebe2	1.0384486
168	0x3f8bf2f0	1.0933514
169	0x3f840871	1.0315076
170	0x3f867c4e	1.0506685
171	0x3f942722	1.1574442
172	0x3f8384ee	1.0274942
173	0x3f834f74	1.0258622
174	0x3f83d26e	1.0298593
175	0x3f8ec3b6	1.1153476
176	0x3f8c7026	1.0971725
177	0x3f821494	1.016253
178	0x3f8c23dd	1.0948445
179	0x3f84bbc5	1.0369803
180	0x3f86f734	1.054419
181	0x3f8050d3	1.0024666
182	0x3f8659a6	1.0496109
183	0x3f88c8b3	1.0686249
184	0x3f83d0a2	1.0298045
185	0x3f81ee09	1.0150768
186	0x3f85ce32	1.0453551
187	0x3f770e08	0.96505785
188	0x3f8ff984	1.1248021
189	0x3f8ef288	1.1167765
190	0x3f9451cb	1.1587461
191	0x3f8b2130	1.0869503
192	0x3f806f0a	1.0033886
193	0x3f842815	1.0324732
194	0x3f891f70	1.0712719
195	0x3f881fbc	1.0634685
196	0x3f949e4b	1.1610807
197	0x3f850828	1.0393114
198	0x3f9487bd	1.1603924
199	0x3f828192	1.0195792
200	0x3f8c7add	1.0974995
201	0x3f8300d6	1.023463
202	0x3f880d2a	1.0629017
203	0x3f812305	1.0088812
204	0x3f8221d6	1.0166576
205	0x3f8ea086	1.1142738
206	0x3f92bba2	1.1463511
207	0x3f8d4a47	1.1038293
208	0x3f951f11	1.1650106
209	0x3f8884ab	1.0665487
210	0x3f85db0e	1.0457475
211	0x3f85ca3d	1.0452343
212	0x3f8cc9a3	1.0999035
213	0x3f7c0bdd	0.984556
214	0x3f8cc0b1	1.0996305
215	0x3f8811fa	1.0630486
216	0x3f86be88	1.0526896
217	0x3f8d1a06	1.1023567
218	0x3f884406	1.0645759
219	0x3f89a832	1.0754454
220	0x3f88b1fc	1.0679317
221	0x3f88f71f	1.0700415
222	0x3f85d36e	1.0455148
223	0x3f84b375	1.0367266
224	0x3f80fd5e	1.0077322
225	0x3f867168	1.0503359
226	0x3f861546	1.0475242
227	0x3f809b4f	1.0047396
228	0x3f840d5f	1.031658
229	0x3f8c8255	1.0977274
230	0x3f887559	1.0660812
231	0x3f8e25af	1.110525
232	0x3f8616c1	1.0475694
233	0x3f829251	1.0200902
234	0x3f834b23	1.0257305
235	0x3f8fcd01	1.1234437
236	0x3f825ee4	1.0185208
237	0x3f857480	1.0426178
238	0x3f86b1da	1.0523026
239	0x3f85a574	1.0441117
240	0x3f8865d5	1.0656077
241	0x3f9aaa68	1.2083254
242	0x3f83cbce	1.0296571
243	0x3f86bc3a	1.0526192
244	0x3f84024c	1.0313201
245	0x3f8d1439	1.1021796
246	0x3f8a7562	1.0817072
247	0x3f93ccce	1.1546876
248	0x3f85bad5	1.0447642
249	0x3f83e3d6	1.0303905
250	0x3f8cd7c0	1.1003342
251	0x3f8ac95e	1.0842702
252	0x3f81e78f	1.0148791
253	0x3f84389d	1.0329777
254	0x3f7b1e6c	0.98093295
255	0x3f855dad	1.0419213

module.base.1.layers.2.bias f4 [256]
0	0x3c95ee35	0.018302063
1	0x3c5b34d7	0.013379297
2	0x3c3de032	0.011589097
3	0x3c9cd7e3	0.019145912
4	0x3d09a5df	0.033605453
5	0xbbe51bc0	-0.0069918334
6	0xb9b94262	-0.0003533541
7	0x3cc65da7	0.024214579
8	0x3d80e70b	0.06294068
9	0xbc56a674	-0.013101209
10	0x3c8abbc3	0.016935235
11	0x38dc908a	0.0001051734
12	0x3c76908b	0.01504911
13	0xbd6a88b7	-0.057259288
14	0xbc27828e	-0.010223998
15	0xbbd059e6	-0.006358373
16	0xbc8e958d	-0.017405296
17	0xb8688e8d	-5.544587e-05
18	0xbd81769e	-0.063214526
19	0xbd73bf52	-0.05950863
20	0xbca12250	-0.019669682
21	0xbcce958a	-0.02521779
22	0x3d159a52	0.036524124
23	0x3c0544d6	0.008134088
24	0xbb2b6ffe	-0.0026159282
25	0x3a50b0d6	0.0007960921
26	0x3cb55ec5	0.022139916
27	0x3c257e4d	0.010100913
28	0x3cb43c14	0.022001304
29	0xbb211b49	-0.0024582914
30	0xbd600e93	-0.0547014
31	0xbcb9f170	-0.022698134
32	0xbc37024f	-0.011169984
33	0xbcbaba11	-0.022793802
34	0x3ce0ee56	0.027457397
35	0x3bfbdaf2	0.0076860124
36	0xbd479adc	-0.04873167
37	0x3d547010	0.051864684
38	0x3c9b4381	0.018953087
39	0x3cc4270c	0.0239444
40	0xbcd0be59	-0.02548139
41	0xbc42cd96	-0.011889836
42	0x3c768bb2	0.015047954
43	0x3d79406d	0.060852457
44	0xbcf83e5a	-0.030303169
45	0xbba5eaa6	-0.0050633727
46	0xbcb644d0	-0.02224961
47	0x3d2182c2	0.03943134
48	0x3d8952e3	0.067052625
49	0x3d030c17	0.03199395
50	0xbc875640	-0.01652062
51	0x3d29756b	0.041371744
52	0xbd1a0c35	-0.037609298
53	0x3c1c2909	0.009531268
54	0xbc2e9452	-0.0106554795
55	0x3d50a1db	0.050935607
56	0xbcb1d13b	-0.021706214
57	0xbc5ae658	-0.013360582
58	0x3cc8f64f	0.024531512
59	0x3b7e3035	0.0038786058
60	0xbcb278b1	-0.021786066
61	0xbc1de7a2	-0.009637745
62	0xbc757a5d	-0.014982787
63	0xbc479dcb	-0.012183617
64	0x3a6a0506	0.000892714
65	0xbd37cc34	-0.044872478
66	0x3b4462ad	0.0029966042
67	0x3d1218f4	0.03566833
68	0xbc5df645	-0.013547485
69	0x3d8ab675	0.06773082
70	0xbd15fe4f	-0.03661948
71	0xbd835720	-0.06413102
72	0xbca9eab8	-0.020741805
73	0xbd03db2c	-0.03219144
74	0x3ca1720c	0.019707702
75	0xbd4caeda	-0.04997144
76	0x3d8637ae	0.06553589
77	0xbc8cc6fd	-0.017184729
78	0xbd224fa5	-0.039626736
79	0x3db8c918	0.090227306
80	0x3b14ba3c	0.0022694012
81	0x3c097c46	0.0083914455
82	0x3c39a2a7	0.011330283
83	0xbc5e73a4	-0.013577376
84	0x3ce12b42	0.027486447
85	0x3c788fee	0.015171034
86	0xbb4469d1	-0.0029970298
87	0xbca35da7	-0.019942118
88	0x3cdf8e17	0.027289433
89	0xbbaa4355	-0.005196015
90	0xbdce4373	-0.10071459
91	0x3b822753	0.003971973
92	0x3d1fc41c	0.039005384
93	0xbb0ca324	-0.0021459544
94	0x3d531716	0.05153569
95	0x3bfde24f	0.0077479254
96	0x3cdf4dd2	0.027258787
97	0x3d087662	0.033316024
98	0xbabe17d1	-0.0014502947
99	0xbcc2234b	-0.02369847
100	0x3c636d41	0.013881029
101	0x3c0d66e7	0.008630491
102	0x3c98405f	0.018585382
103	0xbc24a846	-0.010049885
104	0xbc16f759	-0.009214246
105	0xbce5f9ea	-0.02807327
106	0x3cebb55d	0.028773004
107	0xbcf671d4	-0.030083574
108	0x3cdcfc65	0.02697582
109	0x3c832ad8	0.01601164
110	0x3c202b5a	0.009775961
111	0x3d30a719	0.043128107
112	0xbd2f8a4d	-0.042856503
113	0xbd5413f4	-0.05177684
114	0x3d4a882a	0.049446262
115	0xbd14f2b8	-0.036364287
116	0xbd18b0b3	-0.03727789
117	0xbd0542c1	-0.032534365
118	0xbd3cb375	-0.04606958
119	0xba90c291	-0.0011044313
120	0x39a8808c	0.00032139232
121	0x3cbf4e5a	0.02335279
122	0xbd2653b5	-0.040607173
123	0xbbc9f991	-0.006163784
124	0x3bd7869b	0.0065773255
125	0xbc5398a1	-0.012914808
126	0x3c6bbfb0	0.014388964
127	0xbbebbab9	-0.00719389
128	0x3cd20ad9	0.025639938
129	0x3d7cd9cd	0.06173115
130	0xbd26a6d0	-0.04068643
131	0xbd291c7c	-0.04128693
132	0xbc6a8259	-0.014313304
133	0xbcb66037	-0.022262676
134	0xbcc3e895	-0.023914615
135	0x3ca07a5a	0.019589592
136	0x3d835ba5	0.06413964
137	0xbced8ae4	-0.028996892
138	0xbb67ab57	-0.003534993
139	0x38a6237e	7.922108e-05
140	0xbc837c23	-0.016050404
141	0x3d170225	0.03686728
142	0xbbcf8870	-0.0063334033
143	0xbba4759c	-0.005018903
144	0xbd26b879	-0.04070327
145	0x3d3ebcd3	0.046566796
146	0x3b080039	0.0020752086
147	0xbc00e770	-0.007867679
148	0xbcef93e8	-0.029245332
149	0xbcb51c43	-0.022108203
150	0x3c5b9fa3	0.01340476
151	0x3c6a906c	0.014316659
152	0x3b19c9fa	0.0023466335
153	0x3caec2ee	0.021333184
154	0xbc734daa	-0.0148500595
155	0xbcbe642d	-0.023241127
156	0xbd0287be	-0.031867735
157	0x3d05e40a	0.032688178
158	0xbc796433	-0.015221643
159	0xbbaaf9b0	-0.0052177534
160	0x3da220eb	0.07916435
161	0xbc8f71db	-0.017510345
162	0x3d0ba16d	0.034089494
163	0x3bb6485f	0.0055628265
164	0xba8fd24e	-0.001097271
165	0xbd7de6f0	-0.061987817
166	0x3ccb789c	0.024837784
167	0x3d130497	0.03589305
168	0x3c969ccc	0.018385313
169	0x3baad1c6	0.005212995
170	0xbca7001c	-0.020385794
171	0xbac1cfa3	-0.0014786612
172	0x3b7e128e	0.0038768384
173	0xbd2ffba4	-0.042964593
174	0x3d841f29	0.06451256
175	0xbcfa0773	-0.03052113
176	0x3c529483	0.012852791
177	0xbc9781c2	-0.01849449
178	0xbc4ee8e4	-0.012628768
179	0x3cd634a1	0.026148142
180	0xbb623efd	-0.0034522407
181	0x3cdecb2f	0.027196495
182	0xbd184c1f	-0.03718197
183	0x3d435647	0.047689702
184	0xbcf5d98f	-0.030010967
185	0xbc249ebf	-0.010047614
186	0x3c057b8d	0.008147133
187	0xbbed4821	-0.0072412645
188	0xbb01dd52	-0.0019815755
189	0x3c179b0c	0.009253275
190	0xbbd8c0d0	-0.006614782
191	0x3d341a61	0.04397047
192	0x3d3542be	0.044253103
193	0xb9abcd59	-0.00032768658
194	0xbc257dde	-0.01010081
195	0xbb72ec49	-0.0037067106
196	0xbcbd9368	-0.023141578
197	0x3d3e6329	0.046481285
198	0x3c498d3a	0.012301737
199	0x3c7caf50	0.015422657
200	0x3c80096e	0.015629496
201	0x3cc76cc5	0.024343858
202	0x38e086f2	0.00010706288
203	0xbc823916	-0.015896361
204	0xbc8b50a2	-0.017006222
205	0x3c92fec3	0.017943745
206	0xbd33f1fe	-0.043931954
207	0x3cb5b856	0.022182625
208	0xbd0af3f2	-0.03392405
209	0xbcf35c7a	-0.029707182
210	0x3c0e5e3e	0.008689461
211	0xbb730aaa	-0.0037085214
212	0x3d5dc514	0.054143026
213	0xbb8ff51e	-0.004393234
214	0xbd1e1735	-0.03859635
215	0x3c08cc7c	0.008349534
216	0x3c083fa6	0.008315956
217	0x3cdd0207	0.026978506
218	0xbabe36c3	-0.001451217
219	0xbcb63611	-0.022242578
220	0xbd87e64f	-0.06635725
221	0xbd246efa	-0.040144898
222	0xbd0f0d96	-0.034925066
223	0xbc7f1550	-0.015569046
224	0x3b9c1451	0.004763164
225	0xbc1013c6	-0.008793777
226	0x3d6d5928	0.057946354
227	0x3cd7a07b	0.02632164
228	0xbd3bc9f7	-0.045846906
229	0x3c8f4cfe	0.017492767
230	0xbd247bfc	-0.040157303
231	0xbbcb5b17	-0.006205927
232	0xbb28d75a	-0.0025763125
233	0xbc09f3e9	-0.008419969
234	0x3ce7a88e	0.028278615
235	0xbc1b146d	-0.009465319
236	0x3c7b3010	0.015331283
237	0x3c0fb4f8	0.008771174
238	0x3c182986	0.009287244
239	0xbac90e09	-0.0015339266
240	0x3da36210	0.07977688
241	0xbcb7f2a9	-0.022454577
242	0xbc5c6b8b	-0.013453375
243	0xbccb4829	-0.024814682
244	0xbcc28348	-0.02374424
245	0xbd1c6d88	-0.038190395
246	0xbc5659c9	-0.01308293
247	0xbce29c84	-0.027662523
248	0xbc163cc5	-0.009169762
249	0x3b9a352c	0.0047060456
250	0xbcd74247	-0.02627672
251	0x3bc13d69	0.0058972132
252	0xbc92c069	-0.017914014
253	0x3cde6e56	0.027152222
254	0x3cca1c1b	0.024671605
255	0xbc65032e	-0.013977809

module.base.1.layers.3.weight f4 [128, 256]
0	0x3d29014a	0.041260995
1	0xbd2f1fd2	-0.042754956
2	0xbd13b3a1	-0.03605998
3	0xbcfb59c7	-0.030682458
4	0xbd9b4f7e	-0.07583521
5	0xbb223060	-0.0024748072
6	0xbd9f270c	-0.077711195
7	0x3d4d0890	0.050056994
8	0x3c0e5ed8	0.008689605
9	0x3d636d52	0.055524178
10	0x3d547183	0.051866066
11	0x3d85a699	0.065259166
12	0x3d64fc38	0.055904597
13	0x3d1e2863	0.038612735
14	0x3d5efb62	0.054438956
15	0x3d765f44	0.060149446
16	0xbd1ff371	-0.039050523
17	0xbc85d2ac	-0.016335808
18	0x3d8693b4	0.06571141
19	0x3cac9e4b	0.021071574
20	0x3d9502b3	0.072759055
21	0x3d8d6a9e	0.06905101
22	0xbd27afea	-0.04093925
23	0x3ce916bd	0.028453225
24	0xbbe045d7	-0.006844263
25	0xbd979e35	-0.074032225
26	0x3da0f643	0.07859471
27	0x3bd03ee4	0.0063551534
28	0xbd3ebfbe	-0.04656958
29	0xbda0152b	-0.078165375
30	0x3d3830ea	0.044968523
31	0xbdb280f1	-0.08716
32	0x3d27155c	0.040791854
33	0xbdcd72a0	-0.100316286
34	0xbd0f6b6a	-0.035014547
35	0xbda22276	-0.07916729
36	0xbbfe6f58	-0.007764738
37	0x3cf81f78	0.030288443
38	0x3d79ec5f	0.061016437
39	0x3c91ebb0	0.01781258
40	0x3da018ab	0.07817205
41	0xbc88f1e6	-0.016716909
42	0xbd84349e	-0.064553484
43	0xbd378d53	-0.04481251
44	0x3d3031b9	0.04301617
45	0x3c119165	0.008884762
46	0xbd322dd4	-0.043500736
47	0x3c047531	0.008084581
48	0x3d209896	0.039208017
49	0xbd197cbe	-0.03747248
50	0x3c87e017	0.016586347
51	0xbd7c8252	-0.06164772
52	0xbbc72c4c	-0.0060782786
53	0x3ca6a4fa	0.020342339
54	0xbd6c991e	-0.05776321
55	0xbcd564f3	-0.026049113
56	0xbb1c3a55	-0.002383848
57	0x3c6a4c6a	0.014300445
58	0xbcd20ef4	-0.025641896
59	0xbd915852	-0.07096924
60	0x3bc5e77c	0.006039558
61	0xbc0b56bd	-0.008504567
62	0x3ced91a3	0.029000109
63	0xbc4f960a	-0.012670049
64	0x3c7921d4	0.015205819
65	0x3d1cff8f	0.038329657
66	0x3d31b790	0.04338795
67	0x3d562ece	0.05229073
68	0x3d318f70	0.043349683
69	0xbcd54780	-0.02603507
70	0x3cc6ceb8	0.024268493
71	0x3c85f82a	0.016353685
72	0x3c411994	0.011785883
73	0x3c392053	0.011299211
74	0x3c298537	0.010346702
75	0x3d9fdb43	0.07805493
76	0x3d4cfece	0.05004769
77	0x3d4e34ea	0.05034343
78	0x3d3b3b1b	0.045710664
79	0xbbf1f5ea	-0.0073840516
80	0xbd437803	-0.047721874
81	0x3d0e2e51	0.03471214
82	0x3bb4e56a	0.0055205123
83	0x3ce518ff	0.02796602
84	0xbcc3cd2d	-0.023901546
85	0x3d37c319	0.044863794
86	0xbd3abe8e	-0.045591883
87	0xbd648f29	-0.05580059
88	0xbca1a1a6	-0.0197304
89	0x3d91260a	0.070873335
90	0xbcf7e290	-0.0302594
91	0xbd211d44	-0.03933455
92	0xbd43e38c	-0.047824427
93	0xbd0953a0	-0.033527017
94	0xbc7e6365	-0.015526627
95	0xbc02d9b1	-0.007986472
96	0xbc56f509	-0.013119944
97	0xbdb21397	-0.08695143
98	0x3c8ced22	0.017202917
99	0x3cbced91	0.0230625
100	0xbd8e3545	-0.06943754
101	0x3c75067b	0.014955158
102	0xbced43f4	-0.028963067
103	0x3b85f86e	0.004088453
104	0xbd836953	-0.064165734
105	0x3d72e1a2	0.05929721
106	0xbcc71463	-0.024301713
107	0x3a9cb3c4	0.001195543
108	0x3d904aff	0.07045554
109	0xbcdf2a96	-0.027241986
110	0x3cd3633a	0.02580415
111	0xbd3c99ab	-0.046044987
112	0x3c716cca	0.01473541
113	0x3cf8a0c9	0.030350106
114	0x3d5668b1	0.052345935
115	0x3ce666ae	0.028125133
116	0x3d9181af	0.07104813
117	0xbd202dc5	-0.03910615
118	0xbd8cb966	-0.068712994
119	0x3c5ea937	0.013590149
120	0xbc5e1e3a	-0.013557011
121	0xbd715afe	-0.058924668
122	0xbc2c5777	-0.0105189
123	0x3ca36627	0.019946171
124	0x3c802aa2	0.015645329
125	0x3d245baa	0.04012648
126	0xbcbe718a	-0.023247499
127	0xbd8470bd	-0.064668156
128	0x3c78bbdb	0.015181507
129	0xbc7fd4eb	-0.015614728
130	0xbcf5ca99	-0.030003833
131	0xbd9d8434	-0.07691231
132	0xbcaed063	-0.0213396
133	0xbd903316	-0.07040994
134	0xbbb1a500	-0.005421281
135	0xbcc9c6ef	-0.024630992
136	0xbd4f69ef	-0.050638136
137	0x3c65446a	0.013993362
138	0x3cb0e4a2	0.021593396
139	0xbd8369e0	-0.064166784
140	0xbd521619	-0.051290605
141	0x3ce2a208	0.027665153
142	0xb963f812	-0.0002174082
143	0x3d2f815d	0.04284798
144	0x3be05957	0.0068465876
145	0xbd1be061	-0.03805578
146	0xbc56d84f	-0.013113095
147	0xbd4a54b1	-0.049397174
148	0x3abbb92a	0.0014322151
149	0x3cf5bc70	0.02999708
150	0x3d02b877	0.0319142
151	0x3db713a3	0.08939292
152	0x3cf00ac9	0.029302018
153	0x3d23887c	0.039925084
154	0xbd3b7e74	-0.045774892
155	0xbd965a26	-0.07341413
156	0x3bbaea62	0.00570421
157	0xbcaa8d94	-0.020819463
158	0x3e079df4	0.13243848
159	0x3d01a928	0.03165546
160	0x3d6bf7ed	0.057609487
161	0xbd1cbd0b	-0.038266223
162	0x3af834e9	0.0018936667
163	0x3d661d3e	0.05618023
164	0xbd1c6163	-0.038178813
165	0xbc5f17dc	-0.013616528
166	0x3cc40eda	0.023932863
167	0xbcdff222	-0.027337138
168	0xbc0750dd	-0.008259025
169	0xbb498c9d	-0.0030753978
170	0xbce2a08e	-0.027664449
171	0x3d5d0033	0.053955268
172	0xbbfdf772	-0.007750445
173	0x3c7dcbee	0.015490515
174	0xbb626876	-0.0034547127
175	0x3d03bde9	0.032163534
176	0xbcf3f430	-0.029779524
177	0xbce2b33e	-0.02767336
178	0x3ce88d82	0.028387789
179	0x3c6d59fd	0.014486787
180	0xbd67a020	-0.05654919
181	0xbc631c0c	-0.013861667
182	0xbb72cae6	-0.0037047206
183	0x3cede40b	0.029039403
184	0xbd248408	-0.040164977
185	0xbcf48fa6	-0.029853653
186	0x3b55dc25	0.0032632437
187	0xbd2c950b	-0.042134326
188	0x3c41c879	0.011827582
189	0x3d895b1c	0.06706831
190	0xbc98cfc1	-0.018653752
191	0xbd2200c2	-0.039551504
192	0xbd53746e	-0.051624708
193	0x3d57010c	0.052491233
194	0xbd943cd3	-0.07238164
195	0xba900091	-0.0010986497
196	0xbd9b4674	-0.07581797
197	0x3db0bd64	0.086298734
198	0x3d0e1cda	0.034695484
199	0x3bbfc404	0.0058522243
200	0x3d0ccfde	0.034377925
201	0x3c9637ea	0.018337209
202	0x3da61963	0.08110311
203	0x3d2e381f	0.04253399
204	0xbd43f745	-0.047843236
205	0xbc5dbc6a	-0.013533691
206	0xbd8042c7	-0.06262737
207	0x3d8649c1	0.06557036
208	0xbe1ee9d2	-0.15518883
209	0x3d0f593b	0.034997206
210	0xbd6cb8f8	-0.057793587
211	0x3d35ed46	0.044415735
212	0xbcc2a33d	-0.023759479
213	0x3cad134e	0.02112737
214	0x3d8ede14	0.06975952
215	0x3d6e924c	0.05824499
216	0x3bd82588	0.006596271
217	0x3d69221d	0.0569173
218	0xbda1bc96	-0.07897298
219	0x3d7236f5	0.059134442
220	0x3d8d0091	0.06884874
221	0x3cafdaa1	0.021466555
222	0xbb84a642	-0.00404814
223	0xbd4041bf	-0.0469377
224	0xbbf15d81	-0.007365883
225	0x3b4ca58e	0.0031226608
226	0x3d2dfa00	0.042474747
227	0xbd1d2f6a	-0.038375296
228	0x3a2a488c	0.00064957957
229	0xbd6522dc	-0.055941448
230	0x3c56b637	0.013104967
231	0xbb3d97f9	-0.0028929694
232	0x3d311eca	0.043242253
233	0x3d1bff01	0.038084988
234	0x3d4bc188	0.049745113
235	0xbd73400e	-0.05938726
236	0xbd4dd48c	-0.05025153
237	0x3dd8f42a	0.105934456
238	0x3dbb5d3c	0.091486424
239	0x3c49d744	0.01231939
240	0xbd5985e1	-0.053106192
241	0xbde0664e	-0.10957013
242	0x3ceb783a	0.028743852
243	0x3bfd0c2f	0.0077223997
244	0xbd046224	-0.032320157
245	0x3cf44f15	0.029822866
246	0xbd258017	-0.04040536
247	0x3d291eac	0.041289017
248	0xbdb88f20	-0.09011674
249	0x3c88b175	0.01668618
250	0xbcaf0219	-0.021363305
251	0x3b838f48	0.004014883
252	0x3cdaed76	0.026724558
253	0xbce53d64	-0.027983375
254	0xbcfb8ec6	-0.030707728
255	0x3a0dbdcf	0.0005407007

module.base.1.layers.3.bias f4 [128]
0	0xbd15a391	-0.036532942
1	0xbca69070	-0.020332545
2	0x3b3e9442	0.0029080068
3	0xbda04318	-0.07825297
4	0xbdae72b8	-0.085179746
5	0xbd907b9a	-0.07054825
6	0x3ce2df17	0.027694268
7	0x3ba46557	0.0050169635
8	0xbd76ac80	-0.060223103
9	0xbdbceeef	-0.092252605
10	0xbc728f9f	-0.01480475
11	0x3afc304c	0.0019240468
12	0xbd2ab83d	-0.04167961
13	0x3c9d1d4f	0.019179014
14	0xbd32f7a0	-0.043693185
15	0x3d1c85d5	0.03821357
16	0xbd78b44a	-0.060718812
17	0xbd0371ae	-0.032090835
18	0xbd9d4767	-0.076796345
19	0x3c515ccb	0.012778471
20	0x3d0c7912	0.03429515
21	0xbd148831	-0.036262695
22	0xbdab8822	-0.08375575
23	0x3d16b449	0.036793027
24	0xbc1461b3	-0.009056496
25	0x3c5483b2	0.012970852
26	0xbcfcabdb	-0.030843666
27	0x3d2dde09	0.042448077
28	0xbdb1ebc7	-0.08687549
29	0x3ca07f29	0.019591885
30	0x3cb98764	0.022647567
31	0xbd05a0a5	-0.032623906
32	0x3c03d1f7	0.008045665
33	0x3c324f93	0.01088323
34	0xbd64c8f3	-0.055855703
35	0x3b55db53	0.0032631948
36	0xbd2372d8	-0.039904445
37	0xbd0d56de	-0.03450667
38	0xbd532c70	-0.05155605
39	0xbcd7a1b7	-0.026322229
40	0xbc978703	-0.018496996
41	0xbd289b77	-0.041163888
42	0x3d3c611a	0.04599104
43	0xbd950c8a	-0.07277782
44	0xbd7ad222	-0.061235555
45	0x3d4d11f1	0.05006594
46	0x3abe751b	0.001453075
47	0x3d0938a2	0.033501275
48	0x3d55e418	0.05221948
49	0xbc773ee1	-0.015090675
50	0xbd0b3524	-0.033986226
51	0xbcc0dc76	-0.023542624
52	0x3d7a67ed	0.061134268
53	0xbd29e61c	-0.041479215
54	0xbcecbe36	-0.028899293
55	0x3c8efbf3	0.017454123
56	0x3b2e1581	0.002656311
57	0x3cea625e	0.028611358
58	0xbd3904d1	-0.04517061
59	0xbd9a1f26	-0.07525472
60	0xbd7b7cc1	-0.06139827
61	0x3d433128	0.0476543
62	0xbd1e0deb	-0.038587492
63	0xbb79d994	-0.0038124071
64	0x3d060df5	0.032728154
65	0x3bcd388e	0.0062628454
66	0xbd9491bf	-0.07254361
67	0x3d0e8bdc	0.03480135
68	0xbd7b1cc0	-0.061306715
69	0xbd57db78	-0.052699536
70	0x3c9ebcc6	0.019377124
71	0xbd1dd264	-0.038530722
72	0xbd4eb615	-0.050466616
73	0x3b9b1f86	0.0047339825
74	0xbd2aa66f	-0.04166263
75	0xbce34a76	-0.027745467
76	0xbd4df25f	-0.05027997
77	0xbbc71d4c	-0.0060764905
78	0xbcd9ff69	-0.026611047
79	0xbc0b2c34	-0.008494426
80	0x3c34a3d0	0.011025384
81	0x3ca2cf8e	0.01987436
82	0x3d42bdd7	0.047544327
83	0x3d60d7bd	0.054893244
84	0xbcf3f610	-0.029780418
85	0xbd48733b	-0.048938017
86	0x3d2bac82	0.041912563
87	0xbb826dcc	-0.003980374
88	0xbd646b3d	-0.055766333
89	0xbd4d453f	-0.050114866
90	0xbc861aaf	-0.016370146
91	0x3c471d88	0.012153037
92	0x3c11748b	0.008877884
93	0xbd610697	-0.054937925
94	0xbadaad36	-0.0016683701
95	0xbd671a62	-0.056421645
96	0x3d087474	0.033314183
97	0xbd4b4aae	-0.049631767
98	0xbd767050	-0.060165703
99	0xbd242e8d	-0.040083457
100	0xbcac0759	-0.020999597
101	0x3c5125a7	0.012765325
102	0xbcb4b4c1	-0.022058846
103	0x3c0cb878	0.008588903
104	0xbd98eaaf	-0.07466637
105	0x3c6f711f	0.0146143725
106	0xbd8f3a53	-0.06993546
107	0x3bab9e4b	0.005237376
108	0xbd814e56	-0.063137695
109	0xbdbd5634	-0.092449576
110	0x3d0b8d12	0.034070082
111	0xbd6b5bd3	-0.057460617
112	0xbd272515	-0.04080685
113	0xbcecd188	-0.028908506
114	0x3c993b55	0.01870505
115	0x3c278367	0.0102242
116	0xbdb023db	-0.08600589
117	0xbc8e1ce9	-0.01734777
118	0x3d5da1c0	0.054109335
119	0x3d6568ef	0.056008276
120	0xbbd33a8f	-0.0064461897
121	0x3caf473c	0.021396272
122	0xbc8f52bb	-0.017495504
123	0x3d48e054	0.04904206
124	0xbd1c97a2	-0.038230546
125	0xbd56795b	-0.052361827
126	0x3c81789b	0.01580458
127	0x3cb9a94d	0.022663737

module.base.1.layers.5.weight f4 [128]
0	0x3f88e2ce	1.0694215
1	0x3f8a6859	1.0813094
2	0x3f8f65ba	1.120292
3	0x3f8e0784	1.1096044
4	0x3f8b8ff1	1.0903302
5	0x3f937a7e	1.1521757
6	0x3f8ed150	1.1157627
7	0x3f90ee9f	1.1322821
8	0x3f8f2044	1.1181722
9	0x3f9dfd9c	1.234302
10	0x3f8e5bb1	1.1121732
11	0x3f9ce0e9	1.2256137
12	0x3f9278d8	1.1443129
13	0x3f8b5c99	1.0887634
14	0x3f949aa7	1.1609696
15	0x3f8f1316	1.11777
16	0x3f8f5978	1.1199179
17	0x3f84ec8a	1.0384686
18	0x3f8f238b	1.1182722
19	0x3f901a34	1.1257997
20	0x3f8dadc2	1.1068652
21	0x3f870204	1.054749
22	0x3f92063c	1.1408153
23	0x3f98b7ce	1.1931093
24	0x3f8f6817	1.1203641
25	0x3f9c5384	1.2212987
26	0x3f8cf5ef	1.1012553
27	0x3f8ab45a	1.0836289
28	0x3f8ab081	1.0835115
29	0x3f9154c1	1.135399
30	0x3f934baa	1.1507466
31	0x3f9f7ead	1.2460533
32	0x3fa0b3c1	1.2554857
33	0x3f91d2ab	1.1392416
34	0x3f820b79	1.0159751
35	0x3f947859	1.1599227
36	0x3f943f02	1.1581728
37	0x3f863aac	1.0486655
38	0x3f951668	1.1647463
39	0x3f893481	1.0719148
40	0x3f8c761e	1.0973547
41	0x3f885c7a	1.0653222
42	0x3f931e6f	1.1493663
43	0x3f8a24e1	1.0792505
44	0x3f940eb1	1.1566983
45	0x3f87939c	1.0591922
46	0x3f85d7c0	1.0456467
47	0x3f8e5307	1.1119088
48	0x3fa9c764	1.3263974
49	0x3f91caae	1.1389978
50	0x3f84611f	1.0342139
51	0x3f833aec	1.0252357
52	0x3f89c9c1	1.0764695
53	0x3f978b2c	1.1839347
54	0x3f8d2ffd	1.103027
55	0x3f903e20	1.1268959
56	0x3f8e14bc	1.1100078
57	0x3f8fd4ef	1.1236857
58	0x3f8bf5fa	1.0934441
59	0x3f80e813	1.0070823
60	0x3f81566a	1.0104496
61	0x3f8a325d	1.079662
62	0x3f99b8cc	1.200952
63	0x3f828d5e	1.0199392
64	0x3fa3c98e	1.2795885
65	0x3f987293	1.1909965
66	0x3f93beae	1.1542566
67	0x3f951adc	1.1648822
68	0x3f82efda	1.0229447
69	0x3f9d479d	1.228748
70	0x3f83f93e	1.0310438
71	0x3f925605	1.1432501
72	0x3f874919	1.0569183
73	0x3f9de1cd	1.2334534
74	0x3f8a7137	1.08158
75	0x3f80eaa3	1.0071605
76	0x3f86571b	1.0495332
77	0x3f87058b	1.0548567
78	0x3f9cb665	1.2243162
79	0x3f928f52	1.1449988
80	0x3f8701fb	1.0547479
81	0x3f81b26d	1.0132576
82	0x3f9fca1f	1.2483557
83	0x3f87cf28	1.0610094
84	0x3f95babb	1.1697611
85	0x3f85c2ea	1.0450108
86	0x3f921b91	1.1414663
87	0x3f937c24	1.152226
88	0x3f96870e	1.1759965
89	0x3f8de5ca	1.1085751
90	0x3f8d7902	1.1052554
91	0x3fa98ada	1.3245499
92	0x3f8a463e	1.0802686
93	0x3f843ff0	1.0332012
94	0x3f84f515	1.0387293
95	0x3f8da77d	1.1066738
96	0x3f8550ea	1.0415318
97	0x3f9d7fd2	1.2304633
98	0x3f90495c	1.1272388
99	0x3f91166c	1.1334968
100	0x3f8eefbd	1.1166912
101	0x3f923f2e	1.1425531
102	0x3f84c954	1.037394
103	0x3f89c046	1.0761802
104	0x3f97be38	1.1854925
105	0x3f931fbf	1.1494063
106	0x3f8deded	1.1088234
107	0x3f9111af	1.1333522
108	0x3fa38c38	1.2777166
109	0x3f8bf12b	1.0932974
110	0x3f912686	1.1339881
111	0x3f8fc2e5	1.1231352
112	0x3f83ed52	1.03068
113	0x3f9787b5	1.183829
114	0x3f8f5a23	1.1199383
115	0x3f8732c7	1.0562371
116	0x3f8ec177	1.1152791
117	0x3f82b6ad	1.0211998
118	0x3f94e370	1.1631908
119	0x3f9c7d06	1.2225654
120	0x3f8a513e	1.0806043
121	0x3f885ee6	1.0653961
122	0x3f8cd964	1.1003842
123	0x3f8aa44a	1.0831387
124	0x3f91ba9a	1.1385071
125	0x3f8d9460	1.1060905
126	0x3f91db25	1.1395003
127	0x3f8cbd2f	1.0995234

module.base.1.layers.5.bias f4 [128]
0	0x3ddfddc0	0.10930967
1	0x3c34e2fe	0.011040447
2	0xbc3a638a	-0.011376271
3	0xbd1dea68	-0.038553625
4	0x3d56142a	0.052265324
5	0xbd53791b	-0.051629167
6	0xbd4c3d8e	-0.04986339
7	0xbd36890a	-0.044564284
8	0x3d351af4	0.044215158
9	0xbd90fd27	-0.07079535
10	0x3db071fb	0.0861549
11	0xbdf1cd4d	-0.11806736
12	0x3defa698	0.11701697
13	0xbd401353	-0.04689343
14	0x3d0c2b38	0.034220904
15	0xbd61aadf	-0.055094596
16	0x3d8e38c6	0.069444224
17	0xbc9b9515	-0.018991986
18	0xbd9a65d7	-0.07538956
19	0x3d82e823	0.06391933
20	0x3d3820e3	0.04495324
21	0xbcb934f2	-0.022608254
22	0x3cc1f695	0.02367715
23	0xbc4d24fd	-0.012521026
24	0x3ccdf5df	0.025141655
25	0x3e0b4867	0.13601838
26	0x3d9a2859	0.07527227
27	0xbcbd2daf	-0.023093073
28	0xbd88e4b1	-0.066842444
29	0x3da0c662	0.078503385
30	0xbd90d203	-0.070713066
31	0xbd4bb965	-0.049737353
32	0x3d01740a	0.031604804
33	0xbd600e72	-0.054701276
34	0xbd3e70a5	-0.046494145
35	0xbd0bddc5	-0.034147043
36	0xbd02b039	-0.03190634
37	0xbd2d840a	-0.04236225
38	0x3d1f158d	0.03883891
39	0xbd456bc2	-0.04819847
40	0xbce78e80	-0.028266191
41	0xbd1c8aec	-0.038218424
42	0x3d97962d	0.07401691
43	0x3d85ec2d	0.065391876
44	0x3e0839a0	0.13303232
45	0x3d0633d6	0.03276428
46	0x3c455f22	0.012046607
47	0x3df1d2ec	0.11807808
48	0x3cab5b6e	0.02091762
49	0x3d97a64e	0.07404767
50	0x3c33b79a	0.010969067
51	0xbd01bfb8	-0.031676978
52	0x3cc267ed	0.023731196
53	0x3d3518aa	0.044212975
54	0x3d29a6e5	0.04141893
55	0x3d16a59a	0.036779024
56	0x3c7476e7	0.014920927
57	0x3c1979bb	0.009367402
58	0xbc92f069	-0.017936902
59	0x3c96a131	0.018387409
60	0x3b92c24b	0.004478728
61	0x3dc24553	0.09485879
62	0x3be2ff46	0.0069274036
63	0x3cbebe94	0.023284234
64	0xbd354571	-0.044255678
65	0x3d0ac20f	0.033876475
66	0x3d12f8a6	0.03588166
67	0xbd255892	-0.04036767
68	0xbc791b20	-0.015204221
69	0xbda7f59c	-0.08201143
70	0xbb96b6c0	-0.004599422
71	0xbd8d5ae1	-0.069020994
72	0x3cc3178f	0.023814945
73	0xbd80a2ce	-0.062810525
74	0xbb7d826b	-0.0038682471
75	0x3c86e8d6	0.016468447
76	0x3d3be6c7	0.045874383
77	0x3ca567c8	0.020191088
78	0x3dcbc78d	0.09950171
79	0xbcb9e106	-0.022690307
80	0x3db80189	0.08984668
81	0x3ca7faa5	0.020505259
82	0x3dcc830d	0.099859335
83	0xbc94d749	-0.018169062
84	0xbd0b52dc	-0.034014568
85	0x3d3b6e8d	0.045759726
86	0x3d5db2d3	0.05412562
87	0xbdb8161a	-0.089885905
88	0xbc4f1f48	-0.012641735
89	0xbcfe29f6	-0.031025868
90	0xbd0c5ff5	-0.0342712
91	0x3c0f45fe	0.008744715
92	0x3c980af2	0.018559907
93	0x3c1bc21e	0.00950673
94	0xbc787f6c	-0.0151670985
95	0x3b8d28e9	0.0043078554
96	0x3d9cea11	0.07661832
97	0xbd1c1329	-0.03810421
98	0x3cf7724f	0.030205874
99	0xbdaae82b	-0.08345064
100	0x3d65b725	0.056082863
101	0x3ca84fe7	0.020545913
102	0x3ca48524	0.020083018
103	0x3d50c298	0.05096683
104	0xbd454eea	-0.04817096
105	0xbdceaa96	-0.100911304
106	0x3c868d65	0.016424844
107	0x3bf5ef86	0.00750536
108	0xbe0dad76	-0.13835701
109	0xbdbf366f	-0.09336554
110	0x3df38f52	0.118925706
111	0xbcf4fc44	-0.029905446
112	0x3c465f32	0.012107657
113	0x3d561cd1	0.052273575
114	0x3d89c63f	0.067272656
115	0xbd3e7e04	-0.046506897
116	0x3d807d30	0.062738776
117	0x3d0a45e7	0.03375807
118	0x3dbd7c4a	0.09252222
119	0x3c59db19	0.013296866
120	0x3dface6d	0.12246404
121	0xbd006164	-0.03134288
122	0xbcd8ec75	-0.026479939
123	0x3c9a298d	0.018818641
124	0x3db82347	0.089911036
125	0x3d42c093	0.047546934
126	0x3cf8a25e	0.03035086
127	0xbd86cc09	-0.06581885
