scripts/shell/checkpoint/checkpoint_secattack.pt (torch, 498443 bytes, 32 tensors)

module.base.0.weight f4 [36]
1.1303504 0.88465863 1.1544847 1.2817788 1.4360237 1.3353955 1.0019118 1.1161063
0.92675096 0.87827367 0.26874748 0.4961169 0.34678453 1.1460783 1.4012657 1.5824773
1.5368154 1.852473 1.219443 0.31768003 0.26784763 0.30874795 0.29050663 1.0759858
0.9947497 0.92043954 1.3498951 1.4838731 1.2716999 1.1081504 1.2275704 0.9734702
1.4055173 1.7440261 1.2435192 1.2031094
00000000: 52af 903f fd78 623f 28c6 933f 5411 a43f
00000010: a0cf b73f 3dee aa3f a53e 803f 92dc 8e3f
00000020: 8d3f 6d3f 8bd6 603f 4599 893e 0903 fe3e
00000030: be8d b13e b2b2 923f ad5c b33f 9e8e ca3f
00000040: 5eb6 c43f d61d ed3f b516 9c3f f5a6 a23e
00000050: 5323 893e 3614 9e3e 49bd 943e e7b9 893f
00000060: eba7 7e3f eda1 6b3f 5dc9 ac3f 8eef bd3f
00000070: 10c7 a23f dfd7 8d3f 0721 9d3f 5835 793f
00000080: fee7 b33f 3f3c df3f a32b 9f3f 7dff 993f

module.base.0.bias f4 [36]
-0.14206186 0.23104377 -0.14651214 -0.13950576 0.15413716 0.16514082 0.20477161 0.20100662
0.012968409 0.17837365 0.087908216 0.059998654 0.0886106 -0.14396596 0.2505246 0.105287395
0.19261141 0.022483703 -0.05871017 -0.064699315 -0.05863192 -0.07439008 -0.073437355 -0.09569126
0.1868661 -0.14913675 -0.050892044 0.056927394 -0.0867119 0.07872624 0.021316811 0.06821081
-0.07129874 0.055090066 0.009938054 -0.059584066
00000000: aa78 11be bd96 6c3e 4707 16be 99da 0ebe
00000010: 22d6 1d3e ad1a 293e a6af 513e aed4 4d3e
00000020: 7379 543c 95a7 363e 3909 b43d 26c1 753d
00000030: 7979 b53d d06b 13be c344 803e eba0 d73d
00000040: ed3b 453e be2f b83c 137a 70bd 1381 84bd
00000050: 0628 70bd d459 98bd 5366 96bd c8f9 c3bd
00000060: d459 3f3e 4eb7 18be 2d74 50bd b32c 693d
00000070: 0296 b1bd 393b a13d 98a0 ae3c 1cb2 8b3d
00000080: 1305 92bd 1fa6 613d 38d3 223c 6c0e 74bd

module.base.1.layers.0.weight f4 [256, 36]
0.11817312 0.20999563 0.033827398 -0.3054692 -0.02949056 0.052395683 0.18538803 0.0004899785
0.2833335 -0.0055187955 -0.21808913 -0.08475951 0.2874033 -0.27947226 0.6240374 -0.2361721
-0.51637435 0.5615649 -0.043965835 0.20320104 -0.036459494 -0.066265985 0.097650014 0.11415112
-0.033873715 0.10039842 0.05731275 -0.18095165 -0.13643816 0.23772271 -0.264298 0.21223451
0.0009256463 -0.30306628 -0.21031828 -0.50080687 0.3305089 0.06046673 -0.3965141 -0.30344296
0.055273816 0.05067721 -0.025023414 0.38234895 -0.14726901 -0.5803053 -0.14369704 -0.023384428
0.09485517 -0.38717803 0.058907688 0.43498504 0.38353598 0.8629882 -0.6600608 0.44801882
-0.1939902 -0.34729517 0.393379 0.30694315 -0.22844811 -0.09382864 0.50376356 -0.5633784
0.042102154 -0.08582745 0.6552858 -0.10066451 -0.20877829 0.17788701 -0.023052312 0.08346113
-0.27910706 0.017717464 0.18897468 -0.2950608 0.43436316 0.6427394 0.14354675 0.12877043
0.27190796 -0.2509008 0.3040947 0.3506417 0.30569655 -0.10985811 0.25545356 0.40676
0.12301248 0.018851727 -0.39049187 0.24592018 0.32649797 0.16936672 0.45260733 -0.11833629
-0.16410264 0.12000301 0.1721055 0.18413125 0.124746576 0.073661126 0.0019011801 0.018033503
-0.15745832 -0.07633604 -0.038779683 -0.32282323 -0.3175891 0.052251536 -0.16032505 0.053494234
0.15745024 -0.20980968 -0.11507388 0.2721281 -0.3292181 0.077865906 0.016014516 -0.15381695
-0.39961594 -0.14206134 0.079022 -0.08818928 0.15284444 -0.6324601 -0.33963117 -0.0209488
-0.12287317 -0.09095506 -0.2112001 -0.04650492 -0.11339254 0.09851975 0.3699704 -0.2146022
0.24037516 0.36917114 -0.23158942 0.3512263 0.027282102 0.0687607 0.2307234 -0.24473475
-0.2300712 -0.047936678 -0.10595999 0.1462452 -0.21085715 -0.12612759 0.00796539 -0.038220447
-0.012749209 -0.14214301 -0.16052075 -0.10019343 -0.09579767 -0.10189112 -0.0021675995 0.18048993
-0.043748733 0.22196673 -0.13416086 -0.05596309 -0.0986642 -0.04570685 -0.034770735 -0.33950245
0.2568635 -0.07805427 0.016047863 0.01685627 0.05898589 0.016061341 -0.15496074 -0.12552512
-0.40012452 0.7018627 -0.6326161 0.6946169 -0.48380148 -0.004836145 -0.35457116 0.11743844
-0.16219774 0.04059949 0.30764386 0.0011450117 -0.15722266 -0.1988956 -0.32931 0.28513017
0.2274458 0.10012594 0.399242 -0.2636299 0.0105909975 0.6210392 -0.29731077 0.1760104
-0.12513961 -0.26324728 0.3389707 -0.34638572 0.016432133 -0.04359031 0.16963883 0.34099883
0.20793554 0.023737885 0.10719647 -0.03551489 0.53058726 -0.5113886 0.15572469 0.04516356
-0.18152621 -0.014041803 -0.0449676 0.36969894 -0.47544858 -0.4760162 -0.40530866 -0.12097389
0.16884205 0.1101731 -0.15753828 -0.05841726 -0.046234142 -0.023880802 -0.1772461 -0.2729078
-0.2737267 0.038061105 0.27056727 -0.059046835 -0.06687634 -0.009932554 -0.117509425 0.14145902
0.04079146 -0.1343193 0.064814754 -0.5136274 0.055844452 0.22812957 0.67204314 0.089963324
0.11676866 -0.37895072 0.097722396 0.10938084 -0.19398311 0.3925901 -0.32946947 -0.19488248
00000000: c004 f23d 1809 573e 998e 0a3d 7566 9cbe
00000010: 3096 f1bc db9c 563d 5cd6 3d3e e771 003a
00000020: 1711 913e 03d7 b4bb c252 5fbe 6596 adbd
00000030: 8626 933e fd16 8fbe eac0 1f3f 19d7 71be
00000040: 1c31 04bf b8c2 0f3f 8515 34bd ef13 503e
00000050: 8d56 15bd 76b6 87bd bbfc c73d 10c8 e93d
00000060: 2abf 0abd b09d cd3d c6c0 6a3d 644b 39be
00000070: 72b6 0bbe 956d 733e 1152 87be 0154 593e
00000080: 12a7 723a 812b 9bbe ad5d 57be e134 00bf
00000090: 7638 a93e f6ab 773d e503 cbbe e05c 9bbe
000000a0: cc66 623d e892 4f3d e7fd ccbc 3ec3 c33e
000000b0: b0cd 16be e38e 14bf 5125 13be b390 bfbc
000000c0: 6d43 c23d 333c c6be 3049 713d 5cb6 de3e
000000d0: d45e c43e cbec 5c3f bff9 28bf b962 e53e
000000e0: 5ea5 46be acd0 b1be f968 c93e a727 9d3e
000000f0: 4dee 69be 3b29 c0bd a6f6 003f 9139 10bf
00000100: 4f73 2c3d 4dc6 afbd cfc0 273f 3229 cebd
00000110: fac9 55be 0328 363e 34d8 bcbc abed aa3d
00000120: 1fe7 8ebe 3724 913c 9482 413e 3612 97be
00000130: d964 de3e 928a 243f ebfd 123e 65dc 033e
00000140: 8537 8b3e 1276 80be 4db2 9b3e 4f87 b33e
00000150: 4284 9c3e 4afd e0bd cfca 823e d942 d03e
00000160: f8ed fb3d f06e 9a3c 8dee c7be 80d2 7b3e
00000170: be2a a73e 786e 2d3e 26bc e73e 4c5a f2bd
00000180: 860a 28be 23c4 f53d 6d3c 303e e78c 3c3e
00000190: 227b ff3d a5db 963d 0531 f93a ffba 933c
000001a0: c13c 21be 1256 9cbd 72d7 1ebd 1649 a5be
000001b0: 0a9b a2be b505 563d 402c 24be c51c 5b3d
000001c0: a33a 213e 59d8 56be dbab ebbd 6054 8b3e
000001d0: 468f a8be 2978 9f3d e030 833c 3182 1dbe
000001e0: 769a ccbe 8778 11be 49d6 a13d 959c b4bd
000001f0: 4183 1c3e e8e8 21bf 23e4 adbe d19c abbc
00000200: eea4 fbbd a646 babd d744 58be f17b 3ebd
00000210: 593a e8bd b9c4 c93d c36c bd3e aec0 5bbe
00000220: e824 763e 0004 bd3e c725 6dbe efd3 b33e
00000230: b77e df3c 69d2 8c3d c142 6c3e bf9b 7abe
00000240: c997 6bbe 4059 44bd 8d01 d9bd 4dc1 153e
00000250: f0ea 57be 9727 01be 4481 023c 0b8d 1cbd
00000260: 0fe2 50bc f08d 11be 8d5f 24be 3732 cdbd
00000270: 9231 c4bd 4bac d0bd 490e 0ebb 5ad2 383e
00000280: df31 33bd 3f4b 633e 7761 09be 8e39 65bd
00000290: 7510 cabd 1b37 3bbd c26b 0ebd 44d3 adbe
000002a0: 9d83 833e ebda 9fbd cf76 833c 2916 8a3c
000002b0: 309b 713d 1393 833c 07ae 1ebe a889 00be
000002c0: 1fdd ccbe 46ad 333f 21f3 21bf 6ad2 313f
000002d0: d4b4 f7be 8678 9ebb 5a8a b5be 9183 f03d
000002e0: 2a17 26be a74b 263d 7f83 9d3e 3814 963a
000002f0: fafe 20be 4aab 4bbe 529b a8be 95fc 913e
00000300: 8de7 683e d40e cd3d 7369 cc3e 80fa 86be
00000310: dd85 2d3c 6dfc 1e3f 1e39 98be 123c 343e
00000320: 9924 00be 59c8 86be 918d ad3e 7859 b1be
00000330: ae9c 863c c18b 32bd cdb5 2d3e 6697 ae3e
00000340: 0eed 543e f475 c23c d389 db3d 1078 11bd
00000350: 91d4 073f 5dea 02bf 4b76 1f3e 6dfd 383d
00000360: 02e2 39be 970f 66bc f22f 38bd 2e49 bd3e
00000370: ff6d f3be 65b8 f3be 9e84 cfbe 29c1 f7bd
00000380: eee4 2c3e 6fa2 e13d b751 21be f046 6fbd
00000390: 0360 3dbd aca1 c3bc 0080 35be 92ba 8bbe
000003a0: e825 8cbe f6e5 1b3d cb87 8a3e 18db 71bd
000003b0: 76f6 88bd 27bc 22bc c8a8 f0bd a2da 103e
000003c0: f214 273d 008b 09be 99bd 843d 167d 03bf
000003d0: 27bd 643d cc9a 693e 050b 2c3f b13e b83d
000003e0: 6824 ef3d d405 c2be ae22 c83d 1003 e03d
000003f0: 82a3 46be 9201 c93e 39b0 a8be 468f 47be

module.base.1.layers.0.bias f4 [256]
-0.015706165 -0.2591194 0.22615437 0.07947211 -0.2418683 -0.16132417 -0.17922875 -0.13911976
-0.18926318 -0.22331338 -0.18342629 -0.0030488775 0.010416745 -0.038435742 -0.17958176 -0.15260224
0.11656367 -0.09041828 -0.13576286 -0.20196378 0.22870813 -0.17140244 -0.22648121 -0.11183059
0.07424968 -0.32786673 -0.037390966 0.055483777 -0.15899141 -0.031876925 -0.12261013 -0.30024853
-0.22106718 -0.08891508 -0.06778247 0.14251022 0.14761573 0.046098884 -0.32746598 -0.12866226
-0.17655973 -0.10299335 0.014344073 -0.16040933 0.10240582 -0.28804642 0.11056384 -0.22761488
-0.114122674 -0.13929583 -0.09325608 -0.09641286 0.12226396 0.10252284 0.14434485 -0.141137
0.016030721 0.03114976 0.020833936 -0.026797257 0.019945411 -0.25363958 -0.049595114 -0.026621379
-0.122417375 -0.25933525 -0.25430775 -0.29089144 -0.069968194 -0.2440002 -0.040190037 -0.061278153
-0.21239047 0.12909116 -0.20923957 -0.17203811 -0.27740797 -0.16030763 -0.24449943 -0.007948929
-0.2589926 -0.162379 -0.1483422 -0.13292982 -0.04705322 -0.12555231 -0.27789792 -0.15090823
-0.33295462 -0.1107596 0.1538034 0.09706927 -0.114168845 -0.2160667 -0.12424108 -0.14234051
-0.20836806 -0.2577936 -0.10535798 0.16468072 -0.12798339 -0.19922791 -0.32205263 -0.020318635
0.10298696 -0.3407286 0.09885665 -0.18728496 0.08285168 -0.25912294 0.12124197 0.005215127
-0.21263582 0.056969076 -0.19751635 0.1174958 -0.16287486 -0.044842478 -0.10230582 0.08403786
0.13655901 -0.007886741 -0.22512905 0.03313091 -0.099788085 -0.34149295 -0.38202655 -0.17356241
-0.04273221 -0.231722 0.041918572 -0.17643185 -0.0572757 -0.1470109 -0.10773537 -0.12531695
-0.056592308 -0.03893629 -0.12360066 0.054826383 -0.39903092 -0.23786917 0.05169703 -0.17313471
-0.04361331 0.17560697 -0.03613865 -0.08089766 0.008471895 -0.06687484 -0.44150126 0.052751247
-0.30289194 -0.1933178 -0.04895208 -0.044117253 -0.36205164 0.072604805 -0.1657044 -0.33395383
-0.14503211 -0.15791193 -0.09854112 -0.024870025 -0.18578114 0.12614624 -0.25507027 -0.22487488
-0.07361495 -0.24704428 0.0006301419 0.17656162 -0.102206744 -0.17071949 -0.099167295 0.12049231
0.09981395 0.006691209 -0.20837636 -0.10014021 -0.06780462 0.011219398 -0.11655289 -0.39170128
-0.16041507 0.08620355 -0.023770234 -0.44696376 -0.04996042 -0.37402028 -0.24213363 0.2424681
-0.11745869 -0.06219479 0.101058915 -0.13891928 -0.45936808 -0.087603524 -0.10142186 -0.12243451
-0.13133985 -0.005101145 0.055824675 -0.38735026 -0.43927664 -0.24062327 -0.25355506 0.12004073
-0.12227906 -0.18574145 -0.034571867 -0.059294585 -0.082097694 0.02714406 0.19416887 0.05320642
-0.17387146 0.06242331 0.0010760651 0.008208771 -0.06937817 -0.11013317 -0.24606474 0.13047816
-0.2215801 -0.06845108 -0.42284253 -0.19892025 -0.20647438 -0.0041159657 -0.2779975 -0.05296745
-0.047076724 -0.15941499 0.094133325 -0.1018476 -0.3473735 -0.28179288 -0.14067276 -0.2476331
-0.13420641 -0.2843237 0.08568313 -0.18778889 -0.3382293 0.008955401 -0.06440662 -0.033368442
-0.23670317 0.13873005 -0.08346472 -0.102067865 -0.33689678 -0.016108021 0.03365253 0.023929007
00000000: 37aa 80bc 4cab 84be 0395 673e 46c2 a23d
00000010: 53ac 77be 2a32 25be be87 37be 6975 0ebe
00000020: 35ce 41be 43ac 64be 1ad4 3bbe adcf 47bb
00000030: ffaa 2a3c cc6e 1dbd 48e4 37be c343 1cbe
00000040: efb8 ee3d 382d b9bd 6b05 0bbe 98cf 4ebe
00000050: 7732 6a3e 1f84 2fbe b1ea 67be 7007 e5bd
00000060: 3710 983d 26de a7be 4527 19bd f542 633d
00000070: a5ce 22be 6191 02bd 051b fbbd 2dba 99be
00000080: 6f5f 62be 1c19 b6bd 89d1 8abd 33ee 113e
00000090: 9428 173e 2fd2 3c3d 9fa9 a7be 0ac0 03be
000000a0: 13cc 34be 2dee d2bd 6703 6b3c 5842 24be
000000b0: 24ba d13d d27a 93be 4b6f e23d e013 69be
000000c0: 26b9 e9bd 91a3 0ebe 0bfd bebd 1b74 c5bd
000000d0: 8765 fa3d 7ff7 d13d 23cf 133e 3886 10be
000000e0: dc52 833c c82d ff3c eeab aa3c ec85 dbbc
000000f0: 8f64 a33c 0cdd 81be 3f24 4bbd 1415 dabc
00000100: f6b5 fabd 97c7 84be a034 82be b9ef 94be
00000110: 7c4b 8fbd 30db 79be 4f9e 24bd cdfe 7abd
00000120: e37c 59be 7930 043e e642 56be c22a 30be
00000130: 6b08 8ebe af27 24be 0f5e 7abe 3a3c 02bc
00000140: ae9a 84be ae46 26be 05e7 17be c11e 08be
00000150: e1ba 40bd c990 00be a348 8ebe b087 1abe
00000160: 0779 aabe eed5 e2bd a37e 1d3e 41cc c63d
00000170: 5bd1 e9bd 9740 5dbe 1b72 febd b6c1 11be
00000180: 705e 55be 86fd 83be edc5 d7bd 10a2 283e
00000190: 140e 03be 6702 4cbe 15e4 a4be 4473 a6bc
000001a0: d4ea d23d fb73 aebe 5b75 ca3d a1c7 3fbe
000001b0: 24ae a93d c3ab 84be b64d f83d a8e3 aa3b
000001c0: 34bd 59be 6858 693d ba41 4abe a3a1 f03d
000001d0: abc8 26be bfac 37bd b785 d1bd 0b1c ac3d
000001e0: 20d6 0b3e 6437 01bc 3b88 66be 47b4 073d
000001f0: b25d ccbd 2ad8 aebe fc98 c3be 58ba 31be
00000200: f807 2fbd 8848 6dbe cfb2 2b3d 8daa 34be
00000210: ed99 6abd 068a 16be 5da4 dcbd 1653 00be
00000220: 56cd 67bd a97b 1fbd 5822 fdbd a191 603d
00000230: c84d ccbe fa93 73be 44c0 533d 3a4a 31be
00000240: dfa3 32bd 50d2 333e 1f06 14bd acad a5bd
00000250: b4cd 0a3c adf5 88bd 740c e2be b111 583d
00000260: a714 9bbe 1af5 45be fa81 48bd 4bb4 34bd
00000270: d55e b9be d4b1 943d 6aae 29be fffb aabe
00000280: 4c83 14be aab3 21be edcf c9bd 39bc cbbc
00000290: 693d 3ebe 7b2c 013e 9298 82be 9a45 66be
000002a0: 6fc3 96bd 2df9 7cbe 1b30 253a 92cc 343e
000002b0: c551 d1bd 17d1 2ebe 3918 cbbd acc4 f63d
000002c0: 426b cc3d ee41 db3b 9d60 55be 4f16 cdbd
000002d0: 26dd 8abd 91d1 373c 48b3 eebd 128d c8be
000002e0: d943 24be 7d8b b03d cbb9 c2bc 6fd8 e4be
000002f0: 4ca3 4cbd 967f bfbe e1f1 77be 8f49 783e
00000300: 2f8e f0bd f7bf 7ebd faf7 ce3d db40 0ebe
00000310: 4b32 ebbe 7a69 b3bd 44b6 cfbd f2be fabd
00000320: f47d 06be 8127 a7bb 6aa8 643d c652 c6be
00000330: dee8 e0be f265 76be f8d1 81be ead7 f53d
00000340: 726d fabd 0233 3ebe 3b9b 0dbd e1de 72bd
00000350: d622 a8bd 385d de3c 34d4 463e faee 593d
00000360: 5c0b 32be 96af 7f3d c10a 8d3a 157e 063c
00000370: 2416 8ebd 808d e1bd 65f8 7bbe 119c 053e
00000380: e5e5 62be 1430 8cbd d17e d8be c0b1 4bbe
00000390: 056e 53be 39df 86bb b055 8ebe 66f4 58bd
000003a0: 86d3 40bd af3d 23be f9c8 c03d 7995 d0bd
000003b0: f0da b1be 2847 90be 850c 10be 8893 7dbe
000003c0: 686d 09be e092 91be a37a af3d bb4b 40be
000003d0: 642c adbe adb9 123c 9ee7 83bd 59ad 08bd
000003e0: 5162 72be 400f 0e3e 8def aabd f508 d1bd
000003f0: bc7d acbe f8f4 83bc 3cd7 093d c406 c43c

module.base.1.layers.2.weight f4 [256]
0.49583003 1.0769563 0.7323493 0.82292217 1.1957511 1.634839 1.1049249 0.5708613
0.22471924 1.1073058 0.28920352 0.95407355 0.3838771 0.67863786 0.7366285 1.006388
1.3039924 1.1687795 0.73432386 0.97178984 1.1300936 0.46091694 0.70641977 1.2633755
0.69212866 1.2231429 1.144314 1.1746693 1.2369397 0.8869952 0.74793506 1.2682606
1.4473792 0.5681772 1.0080411 1.1704162 0.886927 0.84586644 0.39433584 1.4219313
0.8405874 1.2046821 1.5657408 0.97928506 1.2929144 0.797925 0.8543015 0.6267366
1.3139074 1.1002287 0.70821416 1.0039632 0.54956657 1.1542263 1.1112512 0.6896557
1.1052854 0.86102045 1.33584 0.96690345 1.0132762 0.8689844 1.264704 0.638437
0.8325486 1.0689435 0.6104228 1.1988015 1.0773093 1.013366 1.1006011 1.030579
1.0221046 1.0172001 1.33302 1.2852113 1.271289 0.7480176 0.77372676 0.7593201
0.6013081 0.13339292 0.6302628 1.374992 0.9839907 1.088553 1.1882416 1.1633939
0.78833747 1.3194102 0.77649516 1.1805604 1.09951 0.8698755 1.2483695 0.8510284
0.9603265 1.0541897 1.0768987 0.6213584 0.9828641 0.91719675 0.8227413 1.0109298
1.2435408 0.18131913 1.2284286 0.3394471 1.0854094 0.6606874 1.0576078 1.1127263
1.1036671 0.8318052 1.1688282 1.2619042 0.99281764 1.1182269 0.50299525 1.1533828
0.7448692 1.0671065 1.034371 0.94805753 1.0696963 0.711801 1.5734032 0.9853223
0.31524304 1.3271781 0.9658793 0.75774074 0.75191236 0.94935554 1.204897 0.18126528
1.326744 0.31907126 1.4607676 1.0235004 1.0562248 0.8695617 1.0178521 0.9745745
0.3864054 1.2069787 1.2272881 0.69082993 0.85644835 1.5881287 0.7200741 0.8337759
0.43266836 0.8925622 1.4393538 1.1279172 0.53701544 1.2362293 1.186904 1.1218076
1.1294074 1.1321249 0.4909231 1.3092687 0.6031754 1.0654713 1.2243283 1.0279435
1.2698964 0.93086016 0.92904764 1.1284621 0.9044528 1.0207992 0.7572891 1.229457
0.60618824 0.7047957 0.87195694 1.1949525 0.6096472 0.5281694 1.4296572 0.8049985
0.719979 0.66985554 0.78004384 1.1248946 0.7789325 0.77186614 1.2948987 0.8712138
1.2039131 0.8099867 0.66429067 1.273869 0.38770264 1.1916485 1.6783121 1.2037001
1.3347951 0.8178032 1.2881266 0.70772016 0.7578421 1.2412437 0.7914674 1.3722005
1.1986619 1.0580547 0.98059475 1.5925143 0.70737976 0.4156846 1.1962283 0.93175274
1.2154646 0.9620261 1.5357642 1.1775265 0.8855714 0.7411915 0.95614684 0.657761
0.71612525 1.2407707 0.5034673 0.7767628 1.281884 0.89204854 1.2777128 1.2465357
0.9956232 1.1036792 0.50550187 1.0241207 1.3049453 0.870559 0.8183025 1.079482
1.0296602 1.0354849 0.92614555 1.242757 0.6829215 0.7956142 1.1204672 1.2652255
1.3171055 0.97705096 0.9440118 0.837689 0.7702729 0.6519933 0.5604006 1.4340404
00000000: 6fdd fd3e b4d9 893f 3e7b 3b3f 07ab 523f
00000010: 5f0e 993f 6842 d13f 2e6e 8d3f f723 123f
00000020: cd1c 663e 32bc 8d3f 7c12 943e 2a3e 743f
00000030: 8a8b c43e 36bb 2d3f af93 3c3f 52d1 803f
00000040: 39e9 a63f 919a 953f a6fc 3b3f 38c7 783f
00000050: e8a6 903f 4efd eb3e edd7 343f 4ab6 a13f
00000060: 582f 313f f28f 9c3f e278 923f 905b 963f
00000070: 0a54 9e3f 1e12 633f ac78 3f3f 5d56 a23f
00000080: b943 b93f 1074 113f 7e07 813f 33d0 953f
00000090: a60d 633f b48a 583f 63e6 c93e d801 b63f
000000a0: bc30 573f 0633 9a3f 326a c83f 6db2 7a3f
000000b0: 387e a53f d044 4c3f 81b3 5a3f cf71 203f
000000c0: 1e2e a83f 4bd4 8c3f 864d 353f de81 803f
000000d0: 65b0 0c3f b0bd 933f 7b3d 8e3f 478d 303f
000000e0: fe79 8d3f d66b 5c3f cefc aa3f fc86 773f
000000f0: 09b3 813f c375 5e3f d2e1 a13f 9b70 233f
00000100: e821 553f 24d3 883f ab44 1c3f 5472 993f
00000110: 45e5 893f fab5 813f 7fe0 8c3f 03ea 833f
00000120: 53d4 823f 9d33 823f 66a0 aa3f ce81 a43f
00000130: 99b9 a23f 157e 3f3f f512 463f cd62 423f
00000140: 54ef 193f 2798 083e e758 213f bdff af3f
00000150: d1e6 7b3f b455 8b3f 4d18 983f 17ea 943f
00000160: 7cd0 493f 6fe2 a83f 63c8 463f 9a1c 973f
00000170: bebc 8c3f 29b0 5e3f 92ca 9f3f ffdc 593f
00000180: f5d7 753f b0ef 863f d1d7 893f 5811 1f3f
00000190: fb9c 7b3f 68cd 6a3f 2d9f 523f 2666 813f
000001a0: 582c 9f3f b9ab 393e 263d 9d3f 03cc ad3e
000001b0: b2ee 8a3f cf22 293f b15f 873f d16d 8e3f
000001c0: f744 8d3f 30f1 543f 2a9c 953f 1486 a13f
000001d0: 4c29 7e3f 0f22 8f3f 4cc4 003f 0ca2 933f
000001e0: bfaf 3e3f f296 883f 4566 843f e6b3 723f
000001f0: cfeb 883f 9738 363f 4765 c93f 153e 7c3f
00000200: 8967 a13e f9e0 a93f de43 773f 4cfb 413f
00000210: 547d 403f f708 733f 113a 9a3f 9b9d 393e
00000220: bfd2 a93f 4f5d a33e 6ffa ba3f 1002 833f
00000230: 6032 873f 989b 5e3f fa48 823f b77d 793f
00000240: eed6 c53e 477e 9a3f c717 9d3f 3bda 303f
00000250: 3340 5b3f cd47 cb3f c756 383f 5672 553f
00000260: b586 dd3e f57e 643f bf3c b83f 975f 903f
00000270: d879 093f c33c 9e3f 78ec 973f 6497 8f3f
00000280: 6c90 903f 78e9 903f 465a fb3e 1e96 a73f
00000290: b469 1a3f 5d61 883f cab6 9c3f a793 833f
000002a0: f78b a23f da4c 6e3f 11d6 6d3f 7271 903f
000002b0: 388a 673f 8ca9 823f b3dd 413f d95e 9d3f
000002c0: 272f 1b3f 7e6d 343f 9238 5f3f 34f4 983f
000002d0: d711 1c3f 1c36 073f 02ff b63f 6214 4e3f
000002e0: 8b50 383f a77b 2b3f f4b0 473f 8cfc 8f3f
000002f0: 1f68 473f 0599 453f 3ebf a53f de07 5f3f
00000300: d319 9a3f 4a5b 4f3f f40e 2a3f 240e a33f
00000310: f680 c63e f087 983f eed2 d63f d812 9a3f
00000320: 91da aa3f 8d5b 513f 55e1 a43f 262d 353f
00000330: f101 423f 13e1 9e3f 9c9d 4a3f 44a4 af3f
00000340: c16d 993f 566e 873f 4208 7b3f 82d7 cb3f
00000350: d716 353f 9dd4 d43e 021e 993f 5987 6e3f
00000360: 5894 9b3f 5847 763f ec93 c43f 30b9 963f
00000370: cfb4 623f babe 3d3f 0ac6 743f 0663 283f
00000380: fc53 373f 93d1 9e3f 3ce3 003f edd9 463f
00000390: c614 a43f 4b5d 643f 188c a33f 7b8e 9f3f
000003a0: 29e1 7e3f 5c45 8d3f 9268 013f 6316 833f
000003b0: 7308 a73f f4dc 5e3f 467c 513f 772c 8a3f
000003c0: e8cb 833f c58a 843f e017 6d3f a912 9f3f
000003d0: f2d3 2e3f 5fad 4b3f 786b 8f3f e9f2 a13f
000003e0: ea96 a83f 0320 7a3f c2aa 713f c972 563f
000003f0: 9b30 453f 08e9 263f 6a76 0f3f a38e b73f

module.base.1.layers.2.bias f4 [256]
0.05877709 -0.055885833 0.055357743 0.19089317 0.06654196 -0.18599232 -0.16223702 -0.06926439
0.04817293 -0.036649983 0.20260927 0.029008768 0.04697419 0.0038522673 -0.022938795 -0.16794659
0.12311677 -0.04985111 -0.053474814 0.017392464 0.11607321 -0.06874231 0.15090233 0.08998022
0.12048804 -0.20557801 -0.033265747 0.058914326 0.2804633 0.046880603 0.19142377 -0.097561345
-0.18721552 -0.051312536 0.0530411 0.08273914 -0.031633887 0.15630718 -0.0014087561 -0.06880967
-0.07949137 -0.1489371 -0.10981455 0.12626159 0.16754042 -0.11948111 -0.01434983 0.15036973
-0.05695513 0.042764504 0.25447902 -0.033494268 -0.02086752 0.0033039143 0.17611295 -0.19965966
0.008082949 -0.085172795 -0.061391845 0.105101675 0.16227214 -0.22075525 -0.17885731 0.15052713
-0.08568996 -0.02539269 0.060959898 -0.14443341 -0.035826035 -0.020737559 0.149099 0.09042016
-7.574732e-05 0.2728519 0.058681376 -0.08818524 0.15312365 -0.14838997 0.20262896 -0.05341841
-0.051528934 -0.018697213 0.019443167 0.047931436 0.022567505 -0.14541678 0.13296649 0.1927273
0.15257932 -0.024827613 0.13143012 0.112211086 -0.15910323 0.067189544 0.17721406 0.059328057
-0.16335201 -0.08848476 0.08540636 0.12999852 0.10773688 -0.03755086 -0.17975824 -0.061427172
0.08781105 0.03771834 0.006017236 0.074268155 0.1900176 0.047764964 0.092055544 0.07207161
0.13697144 0.3433363 -0.023830224 0.1256346 -0.023753237 -0.008553829 0.037774388 0.048700463
0.17965247 0.009678267 0.03393142 0.23690636 -0.10822331 -0.04541838 0.04096475 -0.052756533
-0.071551494 0.07260383 0.14311151 0.087611966 -0.09437202 0.003058742 -0.049722817 0.08812701
0.116492614 0.040394716 -0.03715887 0.012115698 -0.24609591 -0.03820567 0.094178416 -0.06191998
0.076509796 0.32986563 0.052982215 0.16043687 0.07180537 0.031414255 -0.22809234 -0.0093885325
0.025131445 0.017372947 -0.276708 0.060882363 0.074876286 0.08374827 -0.12897271 -0.055941932
-0.057584006 0.21968542 0.029081702 0.22114126 0.016087048 0.09716529 -0.08691602 -0.024113063
-0.10180136 0.049900565 0.017719768 0.0648069 0.09444659 0.12270938 -0.14026144 0.026700983
0.10695263 0.0257234 -0.003259025 0.2207681 -0.03435518 -0.0030552286 -0.08450978 -0.06933103
0.045939688 0.13197567 0.01934205 0.061705504 0.09211537 0.05842269 0.04599276 0.059230443
0.039039213 -0.061875597 0.052596502 -0.046372086 0.01892782 -0.18790275 -0.22469336 0.05531755
-0.035262853 0.12923634 -0.050645474 -0.025073411 -0.1309283 -0.09716695 -0.05670585 -0.055590753
-0.10180557 -0.046216324 -0.04386947 -0.161034 0.22418903 0.16742894 0.031125495 -0.088352606
-0.00039675354 0.14159638 -0.09515494 -0.016402727 0.20819233 0.0065991166 -0.030026548 0.09816842
0.029490858 -0.129609 -0.031202944 -0.11093044 0.15519983 -0.008046302 -0.023831682 0.056109544
-0.012371267 0.05293954 0.30622378 0.19790852 -0.016823323 -0.123129725 -0.12649736 -0.24601299
-0.040134594 -0.22187579 0.18495484 0.10915792 -0.18624353 0.15909976 0.14047167 -0.048712756
-0.093496636 -0.036290307 0.02498162 0.11647954 0.068443075 -0.038541127 0.10882411 0.35708183
00000000: 3fc0 703d 8be8 64bd cdbe 623d 8079 433e
00000010: 2747 883d c574 3ebe 7621 26be 7dda 8dbd
00000020: fa50 453d 4b1e 16bd ce78 4f3e cca3 ed3c
00000030: 0268 403d 5276 7c3b 24ea bbbc 31fa 2bbe
00000040: a524 fc3d ad30 4cbd 6808 5bbd a47a 8e3c
00000050: cbb7 ed3d c5c8 8cbd 2486 1a3e 8d47 b83d
00000060: 6fc2 f63d 0b83 52be aa41 08bd 2650 713d
00000070: e398 8f3e e005 403d 9804 443e 3ece c7bd
00000080: 6db5 3fbe 182d 52bd a041 593d 2373 a93d
00000090: 8992 01bd fd0e 203e 03a6 b8ba 16ec 8cbd
000000a0: 5fcc a2bd f882 18be 73e6 e0bd b84a 013e
000000b0: b78f 2b3e 83b2 f4bd 8d1b 6bbc 86fa 193e
000000c0: c849 69bd d529 2f3d 134b 823e 4931 09bd
000000d0: 5cf2 aabc 7c86 583b f456 343e 9573 4cbe
000000e0: 586e 043c 136f aebd 0476 7bbd 8c3f d73d
000000f0: ab2a 263e aa0d 62be 5f26 37be c923 1a3e
00000100: 387e afbd 5504 d0bc 16b1 793d 5ae6 13be
00000110: 52be 12bd d0e1 a9bc 69ad 183e 342e b93d
00000120: 88da 9eb8 3fb3 8b3e e25b 703d 779a b4bd
00000130: 72cc 1c3e 8af3 17be f77d 4f3e 43cd 5abd
00000140: 0110 53bd e62a 99bc 4747 9f3c c153 443d
00000150: 7ddf b83c 23e8 14be 5e28 083e 4e5a 453e
00000160: c13d 1c3e 4763 cbbc 9e95 063e edce e53d
00000170: f5eb 22be ac9a 893d 9a77 353e fa01 733d
00000180: c045 27be 7f37 b5bd 88e9 ae3d 551e 053e
00000190: 27a5 dc3d eece 19bd 8b12 38be 0f9b 7bbd
000001a0: 48d6 b33d 8c7e 1a3d 3c2c c53b e719 983d
000001b0: f993 423e 32a5 433d 9e87 bc3d 489a 933d
000001c0: 3e42 0c3e c7c9 af3e 9a37 c3bc 5ba6 003e
000001d0: 2696 c2bc 5c25 0cbc 51b9 1a3d 237a 473d
000001e0: d1f6 373e 9891 1e3c acfb 0a3d 9597 723e
000001f0: 2fa4 ddbd a008 3abd a7ca 273d 3c17 58bd
00000200: 9789 92bd 51b1 943d d38b 123e e76d b33d
00000210: 1e46 c1bd 2d75 483b 27aa 4bbd ef7b b43d
00000220: ae93 ee3d ee74 253d e633 18bd ec80 463c
00000230: 9100 7cbe 8c7d 1cbd 9de0 c03d ce9f 7dbd
00000240: 2bb1 9c3d 26e4 a83e e103 593d 9049 243e
00000250: b20e 933d 3cac 003d 0a91 69be 5cd2 19bc
00000260: 76e0 cd3c b651 8e3c acac 8dbe c95f 793d
00000270: bd58 993d 3784 ab3d 6c11 04be 5e23 65bd
00000280: 35dd 6bbd 37f5 603e c03c ee3c db72 623e
00000290: fcc8 833c 98fe c63d 0701 b2bd c288 c5bc
000002a0: 3b7d d0bd 8964 4c3d 0c29 913c 7bb9 843d
000002b0: 376d c13d 0e4f fb3d b2a0 0fbe 05bc da3c
000002c0: fb09 db3d e1b9 d23c 5e95 55bb 0811 623e
000002d0: 04b8 0cbd 3b3a 48bb 7713 adbd 6dfd 8dbd
000002e0: 412b 3c3d a124 073e 3873 9e3c e9be 7c3d
000002f0: fca6 bc3d a14c 6f3d e862 3c3d 9f9b 723d
00000300: 95e7 1f3d 4471 7dbd 6e6f 573d a8f0 3dbd
00000310: 840e 9b3c 9469 40be 0416 66be a894 623d
00000320: c86f 10bd 8856 043e a171 4fbd c166 cdbc
00000330: 1112 06be 77ff c6bd 6544 68bd 21b3 63bd
00000340: 707f d0bd 544d 3dbd 79b0 33bd 19e6 24be
00000350: cf91 653e 7e72 2b3e e5fa fe3c 36f2 b4bd
00000360: 5c03 d0b9 a4fe 103e 98e0 c2bd 035f 86bc
00000370: 5f30 553e 673d d83b 3cfa f5bc 860c c93d
00000380: d096 f13c 39b8 04be 519d ffbc 802f e3bd
00000390: b4ec 1e3e a3d4 03bc a93a c3bc 1fd3 653d
000003a0: dbb0 4abc 22d7 583d 5dc9 9c3e 88a8 4a3e
000003b0: 11d1 89bc 702b fcbd 8688 01be d4ea 7bbe
000003c0: 2c64 24bd 6833 63be cd64 3d3e 308e df3d
000003d0: a0b6 3ebe 0ceb 223e ced7 0f3e 0787 47bd
000003e0: 2a7b bfbd 25a5 14bd 41a6 cc3c d38c ee3d
000003f0: e22b 8c3d 4ddd 1dbd 2ddf de3d 6ed3 b63e

module.base.1.layers.3.weight f4 [128, 256]
0.037487373 -0.026632175 0.4307059 -0.053776238 0.15896502 0.32595515 -0.16089515 0.3169736
0.297168 0.15902613 -0.23872203 0.24705993 -0.19186758 0.27076057 0.13293402 -0.12769467
0.066744596 0.047971554 -0.29972914 0.29667845 0.2117554 0.10092493 0.20469983 -0.48520792
-0.3391357 -0.10342986 0.060374573 0.10918077 0.20743266 -0.2304211 -0.21756738 -0.20202594
0.26228744 -0.3960953 0.31057185 -0.10362834 0.026309395 0.17631483 0.09389364 -0.0028342912
0.17151694 0.20703529 0.0885891 -0.0035392144 -0.19445427 0.025155846 0.12986714 -0.002189919
0.535882 0.18804257 0.10342764 0.063665554 0.45218965 -0.15676057 -0.014265817 0.08932017
-0.060989793 0.009565984 -0.19591068 -0.25691935 -0.09953831 0.18904607 0.0029078114 -0.06437816
-0.06633532 -0.24605493 0.15938607 -0.21553913 -0.12018279 -0.13604383 0.27890572 -0.13396448
-0.0029362515 0.11373449 0.06636933 0.0029510972 0.15009728 -0.036474235 -0.35066983 -0.077455215
-0.31700334 -0.37483808 -0.24847415 -0.17506178 -0.21398021 -0.23595841 0.30002102 0.16982296
0.20196152 -0.003222468 -0.09925963 -0.13032393 0.010031122 -0.029208127 0.21413007 -0.14512168
0.1301469 0.18168065 0.29982364 0.23069547 0.18924424 0.017074421 -0.068857774 -0.015914934
0.07315273 0.054284222 -0.016273126 -0.016073987 0.3872479 0.15525916 -0.05323815 0.19220178
-0.18972562 0.17696118 0.3460901 -0.0973217 -0.065102495 -0.077676356 -0.13658679 0.19413787
-0.009767379 -0.0936047 0.09906021 0.3981889 0.03231436 0.18835984 -0.13482146 0.050546117
-0.15077102 0.56104976 0.046105362 -0.0023243919 0.041713655 -0.1607472 -0.30012244 -0.020056406
0.33802643 -0.12485517 -0.25281778 -0.2100673 0.18392701 -0.18723826 0.26257497 0.0746908
0.15431152 0.040580187 -0.12855443 -0.041701842 0.06446768 0.12224551 0.095753826 -0.038469836
-0.12670453 -0.13570893 0.11800681 -0.33601004 0.14229912 -0.12548272 -0.23851198 0.18142928
0.07386865 -0.13324313 -0.1520173 0.03394034 -0.08955286 0.049960077 0.03250231 0.08532267
0.21686517 0.36944336 -0.08357401 0.017840004 0.27049047 0.029733045 -0.019311037 0.25323993
0.1302538 -0.020165157 -0.1241265 -0.1827171 -0.020500598 0.046387002 -0.05632077 -0.0779453
-0.0895829 -0.4601888 -0.21136759 -0.28568015 -0.035838142 0.12348355 0.14642903 -0.10519782
-0.2992836 -0.22066176 -0.22223234 0.3044373 0.08073899 0.22023544 0.22574604 0.09598886
0.63580245 0.05569899 -0.12800822 -0.1455446 -0.012347289 0.008809639 -0.2091644 0.33315396
0.029292392 0.18542549 0.17435789 -0.003413927 0.0020094747 -0.057184324 0.072420806 -0.13903141
-0.13122562 0.1988232 0.045385767 -0.27218908 -0.044320818 0.15198532 -0.24083284 -0.16021398
-0.60950947 0.054834187 -0.04610023 -0.18246149 0.30861205 0.12972891 -0.12917349 -0.123161495
0.09422408 0.4433629 -0.099032395 0.11048391 0.259922 -0.0016443667 -0.15834302 0.19077522
-0.15838133 0.2481736 -0.28607836 -0.03349859 -0.27600926 -0.03869218 0.055572554 0.085785076
-0.24145955 0.03166638 0.0041587 0.15235916 0.03093342 -0.022761103 0.031421583 -0.30134788
00000000: 5c8c 193d b82b dabc 7c85 dc3e 7944 5cbd
00000010: bac7 223e 98e3 a63e b3c1 24be 5d4a a23e
00000020: 6726 983e bfd7 223e 8c73 74be 47fd 7c3e
00000030: ef78 44be 21a1 8a3e db1f 083e 64c2 02be
00000040: 64b1 883d d27d 443d 1976 99be 3de6 973e
00000050: 68d6 583e bbb1 ce3d d59c 513e 2c6d f8be
00000060: 32a3 adbe 09d3 d3bd 544b 773d 2b9a df3d
00000070: 3a69 543e 82f3 6bbe fcc9 5ebe e3df 4ebe
00000080: 8a4a 863e 01cd cabe 4603 9f3e 183b d4bd
00000090: cd86 d73c e08b 343e 4f4b c03d 84bf 39bb
000000a0: 23a2 2f3e 0f01 543e 346e b53d 2af2 67bb
000000b0: 051f 47be a213 ce3c e4fb 043e be84 0fbb
000000c0: 902f 093f 3b8e 403e dfd1 d33d 1663 823d
000000d0: 6785 e73e d885 20be 2cbb 69bc 7eed b63d
000000e0: 6fd0 79bd a5ba 1c3c cf9c 48be ef8a 83be
000000f0: beda cbbd 4b95 413e fb90 3e3b b2d8 83bd
00000100: d0da 87bd d3f5 7bbe 1a36 233e 4ab6 5cbe
00000110: 6522 f6bd 134f 0bbe bbcc 8e3e fc2d 09be
00000120: 206e 40bb a1ed e83d a5ec 873d 3267 413b
00000130: 1ab3 193e 0266 15bd ff8a b3be d7a0 9ebd
00000140: 434e a2be c7ea bfbe 0270 7ebe 6543 33be
00000150: a11d 5bbe 159f 71be 5b9c 993e 12e6 2d3e
00000160: 00cf 4e3e 0b30 53bb a248 cbbd a373 05be
00000170: 9359 243c e245 efbc ea44 5b3e c79a 14be
00000180: 3b45 053e 7e0a 3a3e 7c82 993e 6f3b 6c3e
00000190: 3ec9 413e a8df 8b3c 4e05 8dbd 0960 82bc
000001a0: 19d1 953d 2259 5e3d 384f 85bc 98ad 83bc
000001b0: 5b45 c63e 42fc 1e3e 3f10 5abd 8bd0 443e
000001c0: 6f47 42be 5035 353e b932 b13e 9950 c7bd
000001d0: 7554 85bd c814 9fbd 68dd 0bbe 14cc 463e
000001e0: 5b07 20bc d2b3 bfbd 14e0 ca3d 6adf cb3e
000001f0: 105c 043d 67e1 403e a30e 0abe 7209 4f3d
00000200: b863 1abe f5a0 0f3f fad8 3c3d d354 18bb
00000210: f0db 2a3d ea9a 24be a6a9 99be 554d a4bc
00000220: cd11 ad3e 11b4 ffbd 5571 81be e21b 57be
00000230: 5d57 3c3e 63bb 3fbe 3a70 863e 7df7 983d
00000240: d703 1e3e 6937 263d c6a3 03be 8dcf 2abd
00000250: a207 843d db5b fa3d 951a c43d 8c92 1dbd
00000260: d5be 01be 48f7 0abe 8ead f13d 8209 acbe
00000270: dcb6 113e 8b7e 00be 7c3c 74be 99c8 393e
00000280: 7248 973d e370 08be 6caa 1bbe 0705 0b3d
00000290: 7d67 b7bd f0a2 4c3d 2421 053d a7bd ae3d
000002a0: e711 5e3e ae27 bd3e da28 abbd 3325 923c
000002b0: ba7d 8a3e b792 f33c 2e32 9ebc aaa8 813e
000002c0: 4161 053e 6631 a5bc 0936 febd 311a 3bbe
000002d0: dff0 a7bc 4c00 3e3d 9cb0 66bd c9a1 9fbd
000002e0: 3d77 b7bd de9d ebbe bf70 58be ab44 92be
000002f0: 04cb 12bd f2e4 fc3d 7ef1 153e f471 d7bd
00000300: b33b 99be 28f5 61be e090 63be 35df 9b3e
00000310: 7c5a a53d 6685 613e f829 673e cf95 c43d
00000320: f3c3 223f a024 643d 9614 03be a509 15be
00000330: 494c 4abc 4e56 103c 312f 56be 2893 aa3e
00000340: 99f6 ef3c 2ee0 3d3e e08a 323e 31bc 5fbb
00000350: 64b1 033b 1c3a 6abd 5c51 943d 405e 0ebe
00000360: 0260 06be 4f98 4b3e 6de6 393d 5e5c 8bbe
00000370: bf89 35bd 0aa2 1b3e e29c 76be 220f 24be
00000380: d008 1cbf d099 603d 98d3 3cbd 2fd7 3abe
00000390: 6602 9e3e a8d7 043e 0e46 04be 183c fcbd
000003a0: 8ef8 c03d 7600 e33e 7fd1 cabd 6345 e23d
000003b0: 7f14 853e ca87 d7ba ac24 22be 945a 433e
000003c0: b72e 22be 3821 7e3e dd78 92be d135 09bd
000003d0: 1651 8dbe b17b 1ebd 0ca0 633d 16b0 af3d
000003e0: 2c41 77be 9bb4 013d b445 883b 0a04 1c3e
000003f0: 1568 fd3c 7e75 babc ebb3 003d 454a 9abe

module.base.1.layers.3.bias f4 [128]
-0.04055488 -0.13025291 -0.09855059 -0.22132035 -0.14157896 -0.38848773 -0.17716521 -0.20822258
-0.2142691 -0.17116049 -0.2096005 0.04023729 -0.10182306 0.09851733 -0.17305334 -0.080871835
0.034253284 -0.11058478 -0.12720317 -0.017253956 -0.013347406 -0.10499252 0.030963877 -0.22150345
-0.15392101 -0.19030307 -0.107828364 -0.015774855 -0.16046624 -0.15587825 0.0007468533 -0.22050947
-0.15884963 -0.09197005 -0.2918316 -0.14161572 -0.07129565 -0.037214417 -0.2054554 -0.013639735
-0.15167244 0.0518983 -0.12427488 -0.015653828 -0.28883332 -0.07227153 -0.18383275 -0.09818859
-0.07657715 -0.045534283 -0.22107193 -0.3386967 0.06147801 -0.30397272 -0.024596177 -0.25594693
-0.072198525 -0.21838202 -0.15092658 -0.27771658 -0.2953511 0.016625062 0.055630717 -0.119018115
-0.1806817 -0.17678611 -0.018612878 -0.3817849 -0.19387347 0.030259361 -0.19410136 -0.00377817
-0.035248894 -0.034484003 -0.10375121 -0.2394219 -0.21358527 0.19862711 -0.03450446 -0.0120374635
-0.19827631 -0.048720233 -0.09264328 -0.0050002234 -0.19866164 -0.52521247 -0.077775754 -0.12346961
-0.15169536 -0.12548704 -0.3805903 -0.106820405 0.027382737 -0.30867368 -0.1887901 -0.00990937
-0.261347 0.12779863 0.09319549 -0.0049280813 0.033973705 -0.05783118 -0.1416769 -0.15144993
-0.25487226 -0.07044614 -0.12959285 0.006398155 0.054543875 -0.30503583 -0.33866438 -0.20771748
0.09149548 -0.31186274 -0.08047864 -0.16068609 -0.34690616 -0.01077345 -0.3132236 -0.43864435
-0.009443479 -0.42854384 -0.20349027 -0.12374076 -0.04922962 -0.33860853 -0.14401731 -0.18275566
00000000: e01c 26bd 0561 05be e4d4 c9bd cda1 62be
00000010: 13fa 10be dde7 c6be cc6a 35be 4d38 55be
00000020: 5c69 5bbe b244 2fbe 83a1 56be dbcf 243d
00000030: 9c88 d0bd 74c3 c93d e534 31be 22a0 a5bd
00000040: 2c4d 0c3d 467a e2bd 8c41 02be 2b58 8dbc
00000050: 14af 5abc 5106 d7bd f5a7 fd3c cdd1 62be
00000060: 789d 1dbe cfde 42be 1ed5 dcbd 453a 81bc
00000070: 4351 24be 8c9e 1fbe 7ac8 433a 3ccd 61be
00000080: 7aa9 22be cb5a bcbd f46a 95be b603 11be
00000090: 7403 92bd 256e 18bd e662 52be 3279 5fbc
000000a0: 0550 1bbe 5093 543d d483 febd 753c 80bc
000000b0: f6e1 93be 1903 94bd a73e 3cbe 1917 c9bd
000000c0: 7bd4 9cbd 2882 3abd ae60 62be a769 adbe
000000d0: 5ed0 7b3d 50a2 9bbe ec7d c9bc 7a0b 83be
000000e0: d2dc 93bd 899f 5fbe 7f8c 1abe de30 8ebe
000000f0: 4238 97be 4831 883c 09dd 633d c5bf f3bd
00000100: a004 39be 6b07 35be 097a 98bc 4f79 c3be
00000110: c486 46be 7be2 f73c 82c2 46be 2d9b 77bb
00000120: 2561 10bd 193f 0dbd 847b d4bd 042b 75be
00000130: 19b6 5abe e864 4b3e 8c54 0dbd c838 45bc
00000140: f208 4bbe de8e 47bd c3bb bdbd ead8 a3bb
00000150: f56d 4bbe 5374 06bf e548 9fbd a3dd fcbd
00000160: 0756 1bbe ad7f 00be bbdc c2be a8c4 dabd
00000170: c351 e03c 7a0a 9ebe 3152 41be e95a 22bc
00000180: 46cf 85be a5dd 023e 47dd be3d be7b a1bb
00000190: 0328 0b3d 63e0 6cbd c013 11be b115 1bbe
000001a0: 9e7e 82be 1146 90bd fdb3 04be 9da7 d13b
000001b0: 6669 5f3d a82d 9cbe 6b65 adbe e4b3 54be
000001c0: fb61 bb3d 79ac 9fbe fcd1 a4bd e58a 24be
000001d0: af9d b1be 2083 30bc d85e a0be fe95 e0be
000001e0: d2b8 1abc 196a dbbe c15f 50be cc6b fdbd
000001f0: ffa4 49bd 195e adbe 4679 13be 4d24 3bbe

module.base.1.layers.5.weight f4 [128]
0.9063488 1.0482118 0.87767166 0.889086 1.8555712 2.4832904 0.60762846 0.448807
1.3587548 1.586526 1.2658049 1.1604921 0.74133337 0.706948 1.2800411 0.79431874
0.96565 1.5337569 0.48670682 0.9760556 1.7028439 1.7666531 0.90656275 0.951188
0.5283904 1.7650788 1.4593267 1.3467015 2.7616239 1.2510647 0.8710207 1.5070889
1.2805176 0.57221645 1.2762353 1.5017679 1.4710544 1.059127 0.80351496 0.8889619
0.81449646 0.90561783 1.0322975 0.88347906 1.0751176 0.60047793 1.833141 1.2285551
0.8260608 0.66241384 1.3193312 1.6788615 0.95888996 2.4364784 1.2292454 1.4550766
1.2580218 1.6844039 0.9554087 1.1605327 0.64519894 0.8380251 0.6374387 0.88211507
1.6214231 0.678085 1.6249377 1.3263055 0.99495333 1.081013 1.0207555 1.2092161
1.4765064 1.2317911 1.1368914 1.5750308 1.0772221 0.89598984 1.1726959 1.7359341
0.7690766 1.1262897 0.8461963 1.4412935 0.85559267 1.0370507 0.9390056 0.9146413
1.0495077 1.9688014 1.7659124 0.99506503 1.2351048 1.752643 1.5673033 1.000282
1.1548117 0.8320375 1.5814242 1.2426031 1.0611426 1.782872 0.60113144 0.9163445
1.3504211 0.8485902 1.4673947 1.0554032 1.4311353 1.5525734 1.8731977 1.7464489
0.7769798 1.2933551 1.9905661 0.73460346 1.556631 0.80390036 0.8634009 1.3789798
1.1170424 0.7274933 0.82894593 0.87157285 1.2494313 0.99447566 0.69892937 0.8703345
00000000: 7a06 683f ce2b 863f 17af 603f 249b 633f
00000010: 5b83 ed3f 3bee 1e40 8a8d 1b3f 08ca e53e
00000020: adeb ad3f 4913 cb3f e505 a23f 018b 943f
00000030: 06c8 3d3f 8bfa 343f 63d8 a33f 7958 4b3f
00000040: d734 773f 2552 c43f a331 f93e c8de 793f
00000050: caf6 d93f b021 e23f 7f14 683f 0f81 733f
00000060: 9844 073f 1aee e13f 38cb ba3f b760 ac3f
00000070: 72be 3040 e322 a03f 36fb 5e3f 4ae8 c03f
00000080: 00e8 a33f c77c 123f ae5b a33f ee39 c03f
00000090: 834b bc3f 7991 873f 28b3 4d3f 0293 633f
000000a0: d782 503f 92d6 673f 5322 843f af2b 623f
000000b0: 749d 893f ecb8 193f 5da4 ea3f 4b41 9d3f
000000c0: b878 533f f493 293f d8df a83f efe4 d63f
000000d0: d079 753f 43ef 1b40 ea57 9d3f f33f ba3f
000000e0: dc06 a13f 8c9a d73f aa95 743f 568c 943f
000000f0: c22b 253f d088 563f 2f2f 233f 4bd2 613f
00000100: cb8a cf3f fb96 2d3f f5fd cf3f 61c4 a93f
00000110: 43b5 7e3f a25e 8a3f 1ea8 823f 98c7 9a3f
00000120: 29fe bc3f 55ab 9d3f a885 913f 9c9a c93f
00000130: 6ae2 893f 975f 653f e61a 963f 1733 de3f
00000140: 34e2 443f 432a 903f 52a0 583f 4e7c b83f
00000150: 1f08 5b3f 14be 843f ac62 703f ef25 6a3f
00000160: 4556 863f af01 fc3f 6b09 e23f 95bc 7e3f
00000170: ea17 9e3f 9b56 e03f 659d c83f 3e09 803f
00000180: dfd0 933f 6900 553f 1c6c ca3f 9e0d 9f3f
00000190: 85d3 873f 2635 e43f c0e3 193f 8e95 6a3f
000001a0: 99da ac3f 353d 593f 97d3 bb3f 7417 873f
000001b0: 712f b73f baba c63f f1c4 ef3f a38b df3f
000001c0: 26e8 463f a98c a53f dfca fe3f f90e 3c3f
000001d0: af3f c73f 6acc 4d3f d707 5d3f 6982 b03f
000001e0: 3ffb 8e3f 003d 3a3f cd35 543f 661f 5f3f
000001f0: 5ded 9f3f f595 7e3f 09ed 323f 3ece 5e3f

module.base.1.layers.5.bias f4 [128]
0.39541772 -0.0033507294 0.16420686 -0.06533275 -0.19508253 -0.25608686 -0.007615358 0.23400879
-0.26384082 0.12023504 -0.62334883 0.2513893 -0.3746233 -0.1925424 -0.010113176 0.13977946
0.19429246 -0.03344868 0.19245891 0.17698075 0.055497292 0.0024011508 0.39762795 0.21921071
-0.22845536 -0.15274645 0.5998511 -0.32792002 0.006966089 -0.09862367 0.15728922 0.4612143
0.25800908 0.15443371 -0.29738566 0.04257332 -0.10976325 0.10565077 -0.59929764 0.002378904
0.045148466 0.089492716 0.11045299 -0.37375912 0.059411798 0.016364615 -0.35444322 -0.015113177
0.14679973 0.31350514 0.129944 -0.12859586 0.3332477 -0.050235447 -0.23924151 -0.51202554
0.19138506 -0.35170582 0.22399992 0.0136102615 0.29091525 0.32144064 0.39049706 0.15617505
-0.2306474 -0.022775127 0.079837136 -0.67480433 0.068561584 -0.066414565 0.23173138 0.13034427
-0.36915392 0.18399869 -0.43205193 -0.05604782 0.066792555 0.33986098 0.13243921 -0.17141458
0.21776351 0.19898014 -0.15082838 -0.47481033 -0.2068064 -0.31032607 0.1128799 -0.24084184
0.060275 -0.6794387 -0.38506228 -0.40358686 0.0020592706 -0.3853006 0.251239 0.37159577
-0.6345285 0.30483654 -0.09996744 0.053556684 0.18730651 0.21985419 0.18300073 -0.3517383
0.21878311 0.3401226 0.26765978 0.5314896 0.72704285 -0.22245872 -0.7146744 -0.13893972
-0.020708185 -0.36653936 0.34336096 0.41042653 -0.3967185 0.10434911 -0.3676295 -0.12138026
0.05046064 0.12997112 0.16680059 -0.10298508 -0.15033664 0.20608845 -0.21934767 -0.06642122
00000000: 3174 ca3e e997 5bbb d825 283e 2dcd 85bd
00000010: b7c3 47be d11d 83be 418a f9bb 00a0 6f3e
00000020: 2516 87be ca3d f63d ca93 1fbf 19b6 803e
00000030: a0ce bfbe d629 45be bcb1 25bc 5922 0f3e
00000040: 9af4 463e 7c01 09bd f313 453e 713a 353e
00000050: 2151 633d a05c 1d3b e495 cb3e c678 603e
00000060: 34f0 69be 9169 1cbe d78f 193f 22e5 a7be
00000070: ca43 e43b 35fb c9bd 6d10 213e 4824 ec3e
00000080: c419 843e df23 1e3e ef42 98be 5d61 2e3d
00000090: 8ecb e0bd 6e5f d83d 926b 19bf 63e7 1b3b
000000a0: 99ed 383d f547 b73d 2d35 e23d 5b5d bfbe
000000b0: c959 733d 160f 863c 9579 b5be 429d 77bc
000000c0: ab52 163e bf83 a03e 0a10 053e a2ae 03be
000000d0: 719f aa3e afc3 4dbd bafb 74be 1b14 03bf
000000e0: 72fa 433e c912 b4be 3c60 653e 93fd 5e3c
000000f0: d8f2 943e de93 a43e 3bef c73e 5aec 1f3e
00000100: d52e 6cbe e792 babc a781 a33d fabf 2cbf
00000110: 046a 8c3d 5c04 88bd fe4a 6d3e f878 053e
00000120: be01 bdbe 276a 3c3e e935 ddbe 6692 65bd
00000130: 89ca 883d 4202 ae3e 259e 073e 4e87 2fbe
00000140: 66fd 5e3e 73c1 4b3e c172 1abe 571a f3be
00000150: 0fc5 53be 0fe3 9ebe 942d e73d 3e9f 76be
00000160: ebe2 763d b2ef 2dbf e226 c5be f0a2 cebe
00000170: d4f4 063b 1f46 c5be 66a2 803e cd41 be3e
00000180: 7670 22bf 8913 9c3e bbbb ccbd 415e 5b3d
00000190: 47cd 3f3e 7521 613e 8b64 3b3e 0b17 b4be
000001a0: ae08 603e 8d24 ae3e b40a 893e b40f 083f
000001b0: 7b1f 3a3f 38cc 63be e7f4 36bf 3746 0ebe
000001c0: 36a4 a9bc 0cab bbbe 02cd af3e 6d23 d23e
000001d0: b01e cbbe fcb4 d53d ef39 bcbe 3796 f8bd
000001e0: d1af 4e3d 2617 053e c6cd 2a3e d7e9 d2bd
000001f0: d9f1 19be da08 533e ad9c 60be d907 88bd

module.base.1.layers.6.weight f4 [128, 128]
-0.054264773 0.012355243 -0.09604554 0.29013523 0.08811438 -0.031968914 0.07821072 0.29451108
0.059076548 -0.15613051 -0.036495082 0.24530782 0.13615105 0.73783475 0.16583766 0.060853623
-0.021414492 -0.15175718 -0.12393818 -0.8406707 -0.049760096 0.065605946 -0.018075204 -0.026895303
0.060148347 -0.028159525 1.1139129 0.32784292 0.04633595 0.19452313 -0.29566035 -0.18519604
0.03929099 -0.19454168 0.03030414 0.15059325 0.1979526 0.31710508 0.07729137 -0.03835765
-0.017201697 0.2054117 -0.35127696 0.12457697 -0.032207236 0.63762754 0.1489368 0.07710264
0.33629695 -0.00854146 0.3105313 -0.061079036 -0.038462006 0.339144 0.04555132 0.17824817
-0.10917655 0.053459596 -0.06279309 0.25207812 0.1431725 -0.1730669 0.28974202 -0.19860774
-0.1266832 -0.069255285 -0.14881603 0.037074454 -0.53737205 -0.12911656 0.10995008 0.13651499
0.098935425 0.655712 0.30647403 0.014604439 -0.17041841 0.10732335 0.041463297 -0.00018764069
0.16529939 0.22737925 0.024394182 0.117112786 0.13978933 -0.067468576 0.30649734 0.461371
0.45135126 0.20621446 -0.034147665 0.06498621 -0.16286667 -0.01232218 -0.12420577 0.040613
0.073123164 0.03510726 0.3423992 0.029470347 0.13779974 -0.018053696 0.0023606787 0.12482223
-0.060669925 -0.20372076 0.21607566 -0.3015474 0.013180815 -0.017731013 0.30480707 -0.07252515
0.2909074 0.09718684 -0.11788586 -0.036616985 0.02431637 0.21639255 0.02136252 0.12774621
-0.20440753 0.27546614 -0.14660947 -0.19104621 0.18083313 0.0030120309 -0.089159176 -0.0069644093
-0.02435615 0.10787302 -0.5422165 -0.11129376 0.07491752 0.69453275 -0.54856634 -0.06607086
0.11126066 -0.063776396 0.33248228 0.13359046 0.13218853 0.10761076 -0.06519239 -0.0364844
0.08028714 0.3790879 -0.15607274 0.025230631 0.51264066 0.2771056 -0.13073407 -0.13056095
-0.10044348 0.1426181 -0.040254798 0.45076606 0.33952862 -0.16522312 0.14592142 -0.3013495
0.14558318 0.5467275 0.29184172 -0.21061257 -0.44687444 0.21106711 0.049236733 -0.3818692
-0.22693366 0.43485868 -0.079339094 0.15563753 -0.2609128 0.1820328 0.27282992 -0.16850492
0.4412984 0.12274584 0.3013419 0.5761192 0.5564296 -0.16629678 -0.5798999 0.022345504
0.041781694 0.16652513 -0.2122796 0.121461295 -0.30617177 0.17905813 -0.11748916 0.07967234
0.46222943 0.080392666 -0.44530302 0.28473553 0.3192157 -0.071296886 0.0050204396 0.08045964
0.19108343 0.60451233 0.13701423 0.06610404 0.037378054 -0.21907552 0.016251652 0.42991033
0.15108584 0.053626604 -0.7418286 0.2500059 -0.37858292 0.121322684 0.2795195 -0.11177832
-0.117719695 -0.0015428402 -0.0063031134 0.20892671 0.40489426 -0.011817108 0.39905888 -0.12921825
0.1632632 -0.1633917 -0.058292605 -0.38045976 0.072815366 0.027026922 0.25637951 0.05921043
0.23668575 0.37674013 -0.27743718 -0.3624315 -0.12728119 0.2124876 0.12900634 -0.27754453
-0.29118675 0.10113541 -0.15561207 0.0581913 0.15913513 0.41685525 0.18866609 0.59028023
0.23172954 0.18368691 0.14020202 -0.2628064 0.12502 0.68831414 0.16616574 0.5186385
00000000: bd44 5ebd a56d 4a3c 86b3 c4bd 9b8c 943e
00000010: 5075 b43d d6f1 02bd f12c a03d 28ca 963e
00000020: 40fa 713d ade0 1fbe de7b 15bd f931 7b3e
00000030: 2e6b 0b3e bde2 3c3f 59d1 293e a641 793d
00000040: 726d afbc 3c66 1bbe 4dd3 fdbd 3236 57bf
00000050: 3ed1 4bbd 695c 863d 7312 94bc 8a53 dcbc
00000060: 1d5e 763d ceae e6bc b394 8e3f 07db a73e
00000070: c4ca 3d3d 1231 473e cb60 97be 08a4 3dbe
00000080: 97ef 203d ef35 47be 6340 f83c 1e35 1a3e
00000090: 16b4 4a3e 995b a23e f04a 9e3d e91c 1dbd
000000a0: 93ea 8cbc 7257 523e 93da b3be 3622 ff3d
000000b0: bceb 03bd 8f3b 233f e382 183e fde7 9d3d
000000c0: 1d2f ac3e 7bf1 0bbc f5fd 9e3e 032e 7abd
000000d0: 568a 1dbd 48a4 ad3e 0594 3a3d b086 363e
000000e0: f497 dfbd 73f8 5a3d aa99 80bd 6210 813e
000000f0: d09b 123e 7338 31be 1159 943e d45f 4bbe
00000100: 3eb9 01be b7d5 8dbd 3b63 18be 62db 173d
00000110: 3791 09bf 2237 04be 822d e13d 96ca 0b3e
00000120: a89e ca3d bedc 273f 2aea 9c3e 7547 6f3c
00000130: 2a82 2ebe 58cc db3d 6bd5 293d 6ac1 44b9
00000140: 3e44 293e 1bd6 683e 4fd6 c73c d4d8 ef3d
00000150: ef24 0f3e f72c 8abd 38ed 9c3e d238 ec3e
00000160: 8317 e73e e229 533e 6cde 0bbd 7d17 853d
00000170: 85c6 26be f8e2 49bc 985f febd d159 263d
00000180: 99c1 953d a1cc 0f3d f34e af3e cc6b f13c
00000190: 601b 0d3e 58e5 93bc 9eb5 1a3b cca2 ff3d
000001a0: 0781 78bd 2d9c 50be f042 5d3e 6c64 9abe
000001b0: 58f4 573c a140 91bc ac0f 9c3e 1188 94bd
000001c0: d1f1 943e e509 c73d 246e f1bd b1fb 15bd
000001d0: 2033 c73c 0296 5d3e 7400 af3c e7cf 023e
000001e0: 3550 51be e609 8d3e cb20 16be 9ea1 43be
000001f0: 522c 393e 7e65 453b 1699 b6bd b335 e4bb
00000200: 8c86 c7bc 88ec dc3d b3ce 0abf fced e3bd
00000210: 5b6e 993d e6cc 313f d86e 0cbf 2950 87bd
00000220: a1dc e33d 339d 82bd 1e3b aa3e f0cb 083e
00000230: 6e5c 073e 0863 dc3d 9683 85bd ab70 15bd
00000240: 966d a43d cf17 c23e 88d1 1fbe 78b0 ce3c
00000250: 6b3c 033f c9e0 8d3e 27df 05be c5b1 05be
00000260: 50b5 cdbd 7b0a 123e 37e2 24bd cfca e63e
00000270: b2d6 ad3e 4030 29be 6d6c 153e 7b4a 9abe
00000280: c213 153e 55f6 0b3f 476c 953e d2aa 57be
00000290: bacc e4be fa21 583e 75ac 493d 5c84 c3be
000002a0: 4c61 68be cca5 de3e 897c a2bd 725f 1f3e
000002b0: 5d96 85be ce66 3a3e 5db0 8b3e 8e8c 2cbe
000002c0: ddf1 e13e 2c62 fb3d 7c49 9a3e 8c7c 133f
000002d0: 2c72 0e3f b449 2abe 5274 14bf eb0d b73c
000002e0: 4823 2b3d 9085 2a3e d35f 59be b3c0 f83d
000002f0: 8cc2 9cbe 045b 373e 289e f0bd 402b a33d
00000300: 56a9 ec3e e9a4 a43d c2fe e3be dbc8 913e
00000310: 3d70 a33e 1a04 92bd 8082 a43b 06c8 a43d
00000320: 60ab 433e 52c1 1a3f 754d 0c3e 8e61 873d
00000330: bb19 193d 5555 60be 2f22 853c 351d dc3e
00000340: 3fb6 1a3e 92a7 5b3d 7be8 3dbf c600 803e
00000350: 9fd5 c1be 0778 f83d 2e1d 8f3e 08ec e4bd
00000360: 0617 f1bd 2039 caba 598a cebb e2f0 553e
00000370: 4d4e cf3e 8b9c 41bc 7251 cc3e ca51 04be
00000380: 782e 273e 2750 27be 3ac4 6ebd 9fcb c2be
00000390: 3920 953d 9067 dd3c 2d44 833e a386 723d
000003a0: c05d 723e 15e4 c03e 3f0c 8ebe 9f90 b9be
000003b0: 0056 02be 5996 593e 3d1a 043e 511a 8ebe
000003c0: 6e16 95be 1520 cf3d c558 1fbe 005a 6e3d
000003d0: 52f4 223e 0d6e d53e af31 413e 9b1c 173f
000003e0: 824a 6d3e 6c18 3c3e 1e91 0f3e 8f8e 86be
000003f0: 3e05 003e 5b35 303f 5a27 2a3e 7ec5 043f
