scripts/shell/checkpoint/checkpoint_att_hover_agg.pt (torch, 477707 bytes, 32 tensors)

module.base.0.weight f4 [26]
00000000: 22cc 933f a2e9 883f 97ce 8e3f 29f8 803f
00000010: 8b6c 8a3f 18de 803f 024c 813f 5162 8c3f
00000020: 6308 903f ef24 703f 0af8 573f 5970 3e3f
00000030: c255 723f d531 853f ebe5 863f 5425 973f
00000040: 081e 893f e94d 8d3f a032 823f 991d 393f
00000050: c9af 203f a458 3e3f 53ea 303f 681f 8a3f
00000060: 6492 893f e939 853f
1.1546671 1.0696299 1.1156796 1.0075732 1.0814375 1.0067778 1.0101321 1.0967504
1.125256 0.93806356 0.8436285 0.7439018 0.94662106 1.0405833 1.0538915 1.1808267
1.071229 1.1039401 1.01717 0.7231079 0.62768227 0.74354005 0.6910755 1.0790834
1.07478 1.0408298

module.base.0.bias f4 [26]
00000000: 367c 91bc f7ab 8e3c fa21 523c f2e5 0dbd
00000010: 9385 983c 194f 0b3d 08d0 003d 5280 133d
00000020: ef19 453d 9754 cebb 9626 503c 094c 0f3e
00000030: 8537 ffbc 2ad8 f1bc 9ec2 ab3c 679b e33c
00000040: 85a7 9dba 51c8 a2bc ec05 e3bc 1661 77bc
00000050: 07be 1bbc 22b9 07bd a0ee 8fbc 0722 a53c
00000060: 56e1 d8ba d21d 5bbb
-0.017759424 0.017415984 0.012825483 -0.03464312 0.01861838 0.03401098 0.031448394 0.036011048
0.048120435 -0.006296705 0.012704512 0.13993849 -0.031154403 -0.02952202 0.020966824 0.027784063
-0.0012028074 -0.019870909 -0.027712785 -0.015098831 -0.009505755 -0.03313554 -0.01756984 0.020157827
-0.0016546648 -0.0033434522

module.base.1.layers.0.weight f4 [256, 26]
00000000: 7918 41be 6d0d 133d db2a 223d cbaf febd
00000010: db0d 06be e4a2 6cbd 0291 26bd 76e2 b2bd
00000020: 3597 263e cd51 fc3d a7ca 883d c568 3dbc
00000030: eb48 973d 97f8 de3d ed84 0a3e a0f4 b0bd
00000040: b4a7 8cbc 9a6f 553e ea5d e23d 7273 2ebe
00000050: ed66 853d b09b cb3d b452 cb3d 8772 813d
00000060: 3328 0d3e 3757 2abe fe6e 983c 5e26 71bd
00000070: 9931 53be e5ff 4d3c c55e a1bd 5d71 36be
00000080: 706f 0cbd 9d8a adbd 204c 30be 5c03 f8bd
00000090: bb23 5bbc 25c7 c9bc eba5 ae3d 5a87 2dbc
000000a0: eb80 893d 7389 dabc e6bb e5bd c1bb 963c
000000b0: 531d 4bbd bf3a 83bd 807d 81bd e0a6 b63d
000000c0: ef07 ecbd 4e5e 023e 2a0e fa3d fa1e 0a3e
000000d0: 22e2 d93c 6988 133d e64e a0bd 8782 743c
000000e0: 9917 0dbe 0785 babd 8535 ffbc b097 073c
000000f0: e99a 1e3e 98bc 9bbd 190d bd3c 9bfa b03c
00000100: 3f85 143e 7d5c 293c af8f 053d 4a28 60bc
00000110: d8e0 1ebc 0ff4 653e 15c2 cc3c 16ba 86bd
00000120: f054 4abd 8d81 ffbb 5411 d53d 8ea2 33be
00000130: 2350 f3bd e7a2 3039 e83c b23d c1e1 313d
00000140: fcda a03d d936 2a3e 7773 05be 4fe2 e2bd
00000150: b355 18be fdbf d03d 4bdc 3b3e 2206 373e
00000160: 1b11 b03b d3af 713c e13b 6c3d 92b0 32be
00000170: 7b29 32bc be28 86bd a0ac 0abe 7d39 36be
00000180: 3c2d 24bc f4b9 193e 213e 23be 2b32 413e
00000190: c1f0 003c b64f ccbd fa2d 033e 9029 44be
000001a0: 887c 1abe 2a28 39bd 89e6 1f3e f350 14be
000001b0: f000 31be fcb0 4a3e 72e5 8a3c 0d67 b43d
000001c0: d95b 7c3d 259e 79bd a2d7 30be 61e9 1a3e
000001d0: f6bb 62be 6a6d 9bbd 7e65 d93d c288 d83d
000001e0: e89c 07be 545e 253e ddfc 1abd 88bb 4c3c
000001f0: acf7 d5bd ec97 48bd fd3e 9c3d 597a 173e
00000200: f8dd b43c 3e91 113e 05d5 273e bc1a 4cbe
00000210: d169 56bd 3149 f1bd 3909 feba 579c 283e
00000220: 0875 0d3e ed64 1b3c 549a 37bb 9571 2a3e
00000230: 11f7 bf3c a1f0 a03b cf78 e43d 58c6 b5bd
00000240: fe72 94bc e8bd 6abe f1fd cf3c 25fc f93c
00000250: 37e5 193e 4509 e1bd ce49 1f3e d4ba d63d
00000260: 066d 283e f886 5ebb 2bf1 0abc 605b c8bd
00000270: 1387 443e 3bcb 823d 2f53 24be d9d9 0c3d
00000280: b2c7 3dbd 6290 f2bc 6107 d03d 7101 d5bc
00000290: 99a1 87bd 9e27 f83d 2cdd 9c3d 56da 33bd
000002a0: 0cbf 8a3a 9440 8b3d 30bc 7ebe de16 293d
000002b0: ddf6 773d 4d65 d7bd ad51 3a3e 0b30 0c3e
000002c0: f2f2 bd3d d802 29be 0567 6dbd 147b 543e
000002d0: 6bad 913d deea 80bc e1cb 883d c9e7 2b3e
000002e0: a19e fcbd 4b1a 113e 88b1 3bbd 6ec0 1a3d
000002f0: 5c3e c13d 1ec6 45be f32a 8c3d efe0 f33d
00000300: cb93 24bd ee96 16be 11e8 843d d32e f1bd
00000310: 5c48 8ebd 469d 96bd d1ac 133d 390e febd
00000320: 2496 99bd 2190 a1bd bb9a f33d 9970 e4bd
00000330: ef8a 95ba fda3 ec3d 9f9a ebbd 39e8 1dbe
00000340: 0d4d cdbd f1be 34be 49ce 5ebd 2457 aabd
00000350: d1c7 713e 6c90 a0bd 159e fe3d 22d9 14be
00000360: 01e8 7b3c d06a 2cbe c627 3bbe e719 353d
00000370: 3b88 d43d eec9 113e 617e 093d 3736 f23d
00000380: 10a4 dfbd 5fce 7c3e 3670 043e 6443 143e
00000390: c0f5 57bd a1c5 8bbd 679d 03be 9257 ae3d
000003a0: 0870 1bbe a4e7 4bbd 81b8 31be b1a8 313d
000003b0: 6b61 c83c e565 dc3d fbc3 183d 2c03 23bd
000003c0: 9dac 593e abc9 55bd 61c9 83bd 6003 523d
000003d0: 310a e33d 39fd 923d 298f c33c 33b4 09be
000003e0: 15c4 2b3e 7316 6d3e 4688 2a3e f416 14be
000003f0: d64e 84be 1410 03bc d111 743d b63a 2cbe
-0.18856992 0.035901476 0.03959165 -0.124358736 -0.13091223 -0.057772532 -0.040665634 -0.087346
0.16268618 0.1232029 0.06679278 -0.0115606235 0.07386955 0.108872585 0.1352727 -0.086404085
-0.01716981 0.20843354 0.11053069 -0.17036226 0.06513772 0.099418044 0.09927884 0.063206725
0.13784866 -0.16634832 0.018607613 -0.05887448 -0.20624389 0.012573217 -0.07879404 -0.17816682
-0.034285963 -0.08473704 -0.1721654 -0.12110016 -0.013375218 -0.024631092 0.0852774 -0.010591352
0.06714042 -0.026676869 -0.112174794 0.018400075 -0.049588513 -0.06407689 -0.06322765 0.08918548
-0.11524951 0.12731287 0.12209733 0.13488379 0.026597086 0.036018763 -0.07827549 0.014923698
-0.13778533 -0.09107404 -0.03115345 0.008275911 0.15488781 -0.07604331 0.023077535 0.021603873
0.14503954 0.010336992 0.03260773 -0.013681481 -0.009697162 0.22456382 0.02499489 -0.06578462
-0.04939741 -0.007797426 0.10403696 -0.17542478 -0.11880519 0.00016845354 0.08703023 0.043428186
0.07854268 0.16622485 -0.13032328 -0.11078321 -0.14876442 0.10192869 0.18345754 0.17873433
0.005373133 0.014751392 0.057674292 -0.17450169 -0.0108741475 -0.0655074 -0.13542414 -0.17795368
-0.01002055 0.15012342 -0.15941669 0.18866794 0.0078699 -0.09976141 0.12810507 -0.1915648
-0.15086567 -0.04520432 0.15615286 -0.14484005 -0.17285514 0.19794077 0.016955111 0.08808718
0.06161103 -0.060941834 -0.17269757 0.1512809 -0.22142014 -0.075892285 0.10615061 0.105729595
-0.13243449 0.16149265 -0.037838805 0.012495883 -0.1044763 -0.04897301 0.076292016 0.14792766
0.0220785 0.14215562 0.16389854 -0.19932073 -0.05234701 -0.11781538 -0.0019381411 0.16465889
0.13814175 0.009484512 -0.002801557 0.1664489 0.02343324 0.0049114977 0.11155855 -0.08875722
-0.018121239 -0.22924006 0.025389643 0.03051574 0.15028845 -0.10988096 0.15555498 0.104848534
0.16447839 -0.003395496 -0.0084803505 -0.097830534 0.19192152 0.063864194 -0.16047357 0.034387443
-0.046333022 -0.029609863 0.101576574 -0.026001664 -0.06622619 0.121169314 0.07659373 -0.043909393
0.0010585501 0.06799427 -0.24876475 0.041281573 0.06053816 -0.105173685 0.1819522 0.13690202
0.09274854 -0.16504991 -0.057959575 0.20750076 0.07113155 -0.015736993 0.06679512 0.16787638
-0.123349436 0.14170186 -0.045823604 0.03778117 0.09435722 -0.19313857 0.068441294 0.11908137
-0.04018001 -0.14706013 0.06489576 -0.11776509 -0.06947395 -0.07354216 0.036053482 -0.124050565
-0.0749934 -0.078888185 0.11894747 -0.11154289 -0.0011409203 0.11554716 -0.11504101 -0.15420617
-0.10024462 -0.17650963 -0.054395948 -0.08317402 0.2361138 -0.07840046 0.124324955 -0.14535955
0.015375138 -0.1683762 -0.18276891 0.044214156 0.103775464 0.14237186 0.03356779 0.11826747
-0.10919964 0.246881 0.1293343 0.14478832 -0.0527246 -0.06824804 -0.12853013 0.085127965
-0.15179455 -0.049781457 -0.17355539 0.043373767 0.024460515 0.10761622 0.037296277 -0.039797947
0.21257253 -0.05219428 -0.06434894 0.05127275 0.11085928 0.07177205 0.023871975 -0.13447647
0.16774018 0.23153095 0.16653547 -0.14461881 -0.25841397 -0.007999439 0.059587304 -0.16819271

module.base.1.layers.0.bias f4 [256]
00000000: 5895 8b3a fd20 063d da52 c93c b2fc f93d
00000010: ecfd b9bd 606b 24be 3672 2dbe 62ad 063e
00000020: ecf1 fd3d 220a 47bd 1dc8 ff3d 9f66 ff3d
00000030: 9e2b 003e 0358 c03d 4d59 9c3d e154 c03d
00000040: ad85 09bd 304e 4e3e 1cdf f9bc efa0 2cbe
00000050: 082a 323e 87c5 a83d 1040 39be f170 493e
00000060: 35fb 9c3d 57b3 debd dc62 15bc 2409 3bbe
00000070: 4ac6 8bbd f8b4 313d d31e ddbd 8781 333e
00000080: 7088 82bd 556c cb3d 2370 943d 9425 4e3e
00000090: 6eb8 1dbe af69 34be 274e dc3c 0848 1f3e
000000a0: 823f 2abb b69f d23d a45b bb3d eee7 133e
000000b0: fe4e 9fbd ac53 c13d 579f 28be 7991 9cbb
000000c0: f609 8dbd 5ef4 c8bc e5d2 98bd 980b 713d
000000d0: b2ce 26be ad30 d0bd 9856 2ebe 8270 13be
000000e0: efb2 0b3e cb02 72bd bea3 d8bd 6505 8ebc
000000f0: bfd9 9d3d e2c3 883c 5da8 833c d932 df3d
00000100: cd6f 373e b87d 3abe 3a90 cebd b175 903d
00000110: 5cce 47be 0a6b 143e fa30 13be 5b30 903c
00000120: d049 30be 6150 4dbe f6e0 11be 57ec 073d
00000130: 5c53 c03d 266a 173e 3516 3d3e 8695 ae3d
00000140: 0608 243e b8af 9c3d a2d1 9c3c a861 0cbe
00000150: c39d 53be aa92 4ebe b6d2 b43d fc29 103e
00000160: 62c7 e83d 5a6d 0bbe a94f a1bd 9bbb 443e
00000170: a8f8 3dbe b71e dfbc a9cb 03be d639 53be
00000180: 75d0 8ebc d291 173e 3853 fc3c 533a 01be
00000190: afa7 e33d 2e58 cdbc 82c4 d33d fa92 3e3e
000001a0: 33a7 cdbb 1620 63bd 6907 363e 0b1a 563e
000001b0: 180f cb3c 6d3a 563e f419 373c 8665 47be
000001c0: b2b8 173e 46d8 69bd 36c6 9f3a cd6a 413d
000001d0: 12d6 153e 9772 37bc 8da4 09be 9643 813b
000001e0: 8f0b 053d c126 3fbe 646b c6bd 2851 acbd
000001f0: f4c3 023e a8c7 50bd 28ef 273e 4c8a 183e
00000200: 3408 5d3d d364 2c3e 3a46 d93d 26fc 253e
00000210: 8009 39be 76d6 45be 2ce3 853c 2596 4d3d
00000220: 0041 a53d 3728 21be 2add 8bbd 57a2 943d
00000230: 3b59 babd 07fe 333d 4fe4 c43d 1ee6 7c3c
00000240: 3b35 f33d 4693 253e a6a5 9e3d 84fe 873d
00000250: 8fdb fabd 0be9 b3bd edaa 473d 68dc f73d
00000260: 1926 383d fef3 483e c574 03be e827 b63b
00000270: e29f 713c e7f5 b33d 5cc2 3ebe 6f06 e3bc
00000280: 42d6 c9bd 65b7 1b3e da6d ce3c 5f2a 41bd
00000290: ba08 0ebe 277a f33d df87 603c 41de cb3c
000002a0: 34e8 04bd e09a 453d c63c bfbd 542a 3abd
000002b0: f3ae 97bd 33e2 033e 50d3 0fbe 1ff0 89bd
000002c0: 11b3 073d e737 013d f64d aebc c0c6 95bc
000002d0: 67a6 083b 7deb 393e fd76 0fbe c5f6 c0bc
000002e0: d353 44bd 99c2 17bd 6d8c b6bd c130 e4bc
000002f0: 4e76 a53c e824 28bd 8264 5b3d 263e 123e
00000300: d272 f0bb 76a1 173e f96a c03c 0adc f03d
00000310: 3875 48bb cbf3 ffbd 03a1 863d 2418 0c3e
00000320: 7172 d2bd 60e7 f7bd 9823 34bd c37e e23d
00000330: a2e0 143d ab47 d9bd 5cfd 4c3c 7f48 253c
00000340: feb7 213e 8d92 0e3e 9a64 273d 6506 373d
00000350: cef8 f0bd df38 e4bd efe8 16be 6cfe f9bb
00000360: 09de 00bd 5272 443e 03bb 43be ec5e d13d
00000370: 1764 953c 3c48 af3c 8630 8bbd c077 36bd
00000380: 7f4f cebd 0756 ecbd 1c81 2c3e fbdf 873b
00000390: 9a17 433e b18e 18be a0cc 9abd 62ee 003c
000003a0: 9341 0fbd 00ff 7d3d d3ff 10be 3ab4 533d
000003b0: 0f4f 023e 8d15 1dbe fd88 8a3d 5bf4 d4bd
000003c0: 964f 993c 10cd 2fbe 11b7 2a3e 2889 a5bd
000003d0: fb5f 243e ca80 06be d697 073c 90d5 1abe
000003e0: 78b1 a83d f1e4 f93d 6191 e23d 16d9 d4bc
000003f0: 2636 1bbc 4517 a43d 8a97 bcbd 3c48 203e
0.0010649366 0.032746304 0.02457564 0.12206401 -0.09081635 -0.16056585 -0.169381 0.13152078
0.123996586 -0.048593648 0.124893405 0.12470745 0.12516639 0.09391787 0.0763422 0.09391189
-0.03357475 0.20147014 -0.030501895 -0.16858266 0.17398846 0.082408 -0.18090844 0.1967199
0.076651014 -0.1087405 -0.009117808 -0.18265206 -0.0682493 0.043385476 -0.10796895 0.1752988
-0.0637368 0.09932772 0.07247951 0.20131522 -0.15402386 -0.1761844 0.026892735 0.15554821
-0.0025977795 0.10284369 0.091483384 0.14443943 -0.077787384 0.09439787 -0.16467033 -0.004778084
-0.068866655 -0.024530586 -0.074621 0.058848947 -0.16289786 -0.10165534 -0.1702522 -0.14398387
0.13642476 -0.059084695 -0.10578106 -0.017336557 0.077075474 0.016694967 0.016071493 0.1089837
0.17913742 -0.1821202 -0.10086103 0.07053698 -0.19512314 0.14493957 -0.14374152 0.017601183
-0.17215657 -0.20050193 -0.14245972 0.033184376 0.093908995 0.14786586 0.18465503 0.08524613
0.16018686 0.07650703 0.01914293 -0.13709128 -0.2066565 -0.20173135 0.088292524 0.14078516
0.11366154 -0.13615933 -0.07876522 0.19212191 -0.18551886 -0.027236326 -0.12870659 -0.20627531
-0.017433384 0.1480172 0.0308014 -0.12619905 0.111159675 -0.025066461 0.10340215 0.18610755
-0.006276035 -0.05545052 0.17776264 0.20908372 0.02478747 0.20920725 0.011175621 -0.19472322
0.1481655 -0.05709102 0.0012189809 0.047220994 0.14632443 -0.011196754 -0.13441677 0.0039448244
0.032481726 -0.18667127 -0.09688452 -0.08413917 0.12770063 -0.050971657 0.16399825 0.14896506
0.0539629 0.16835336 0.10609098 0.16209468 -0.1807003 -0.19320092 0.016343676 0.050192017
0.080690384 -0.15737997 -0.06829293 0.07257526 -0.090990506 0.04394343 0.09613859 0.015435724
0.11875387 0.16169462 0.07746439 0.06640342 -0.12248909 -0.08784684 0.048746992 0.12102586
0.044958208 0.19624326 -0.12837513 0.0055589564 0.014747592 0.087871365 -0.1862883 -0.027713029
-0.098553196 0.15206678 0.025198866 -0.04715955 -0.13870516 0.11888533 0.013704269 0.024886252
-0.03244801 0.048243403 -0.093377635 -0.045450523 -0.07406416 0.12879257 -0.14045453 -0.067352526
0.033129755 0.031547453 -0.021277409 -0.018283248 0.0020851137 0.18156238 -0.14010234 -0.023555169
-0.047931504 -0.037050817 -0.08913503 -0.027855279 0.020198014 -0.04105082 0.05356265 0.1428152
-0.0073379064 0.14807686 0.023488509 0.11760719 -0.0030587446 -0.12497672 0.06573679 0.13681084
-0.10275734 -0.12104678 -0.043979257 0.11059334 0.03634704 -0.10609373 0.012511577 0.010088085
0.15792844 0.13923092 0.040867426 0.044683833 -0.11766206 -0.1114366 -0.14737295 -0.0076292064
-0.03146175 0.19184235 -0.19114308 0.10223183 0.018236203 0.021396749 -0.067963645 -0.044547796
-0.100737564 -0.11539846 0.16846126 0.0041465736 0.19051972 -0.14898182 -0.0755856 0.007869335
-0.034974646 0.062010765 -0.14160089 0.05168555 0.12725471 -0.15340252 0.0676441 -0.103981696
0.018714707 -0.17168069 0.16671397 -0.08082801 0.16052239 -0.13135067 0.008275947 -0.1512053
0.082369745 0.1220187 0.11062885 -0.02598242 -0.009473359 0.08012251 -0.09208591 0.15652555

module.base.1.layers.2.weight f4 [256]
00000000: 3418 813f efc1 7f3f ab09 743f be50 843f
00000010: 80ff 843f c1da 883f 6540 873f 12c2 7e3f
00000020: a002 843f 1136 893f b976 7e3f 0f2c 833f
00000030: be26 7c3f 7188 813f dabd 813f d4d7 853f
00000040: 8fc0 803f 7beb 833f f8fe 833f 17e7 8e3f
00000050: 75de 7d3f 1ed5 853f bd85 813f c08f 883f
00000060: f4de 823f 7a11 813f afeb 813f 0f3d 833f
00000070: a78f 803f 33a3 7f3f 85c3 853f 83f0 823f
00000080: b579 833f eb3b 833f c9c1 8c3f d405 863f
00000090: 2d5a 883f c235 803f 6e96 893f febf 813f
000000a0: 3dcf 823f 56f4 7d3f 094e 813f 10cf 793f
000000b0: 14e6 813f 1c39 803f 7696 843f fb89 7f3f
000000c0: b965 813f 7dfe 833f 0796 883f aff5 813f
000000d0: 3d35 823f 501c 893f 8285 813f dd21 813f
000000e0: f661 813f 43be 803f 1589 7f3f a329 823f
000000f0: ad51 813f 69ba 803f 60d6 813f 5b0f 833f
00000100: a575 803f 5f70 833f c568 823f 6807 823f
00000110: 0baa 863f a70e 863f e8fc 793f 0c79 833f
00000120: 43d3 833f a083 833f 856f 823f 91dd 863f
00000130: ec78 7f3f ead7 823f 17d1 7f3f da9d 813f
00000140: c803 823f 68e9 813f 72f7 803f dbc2 873f
00000150: 04e6 873f 94be 863f c425 813f 953c 823f
00000160: 9be8 763f e37e 823f aa33 903f 791c 853f
00000170: 00c2 803f 7705 853f e073 823f cf95 823f
00000180: b335 853f b648 813f 1613 833f 8e17 803f
00000190: 57bd 8c3f fe14 873f 9515 7a3f 5d95 823f
000001a0: ba34 803f f787 823f 9816 8e3f 1b04 873f
000001b0: f7a7 813f 4587 863f 6b49 813f 1af6 8a3f
000001c0: 3ac8 813f bc46 803f af7c 803f d44f 7a3f
000001d0: 1c1a 8c3f 652c 833f 28b7 823f e6ef 823f
000001e0: 204a 833f b4ba 873f 3b48 803f bd90 813f
000001f0: 5a78 813f 68a9 7c3f d332 7f3f 9f45 833f
00000200: 371e 7f3f 8736 7f3f c741 853f 5752 883f
00000210: 5c9f 803f 3317 8d3f ce22 813f 1372 903f
00000220: 1bf9 863f d052 863f f5b3 853f 776b 853f
00000230: ae23 843f f5a5 863f 514e 813f 74a5 833f
00000240: a0ad 803f 17e3 843f 54c2 8a3f d0f2 883f
00000250: 10f3 823f 2848 803f 5055 8e3f ee8a 923f
00000260: fff1 823f 2deb 7d3f 7544 7f3f dd18 813f
00000270: 5e93 833f 0925 873f 323e 853f 80da 803f
00000280: 4246 8d3f 5d8b 833f 5dda 813f 4aac 8c3f
00000290: a0ee 833f 3283 863f bf08 823f a0b7 813f
000002a0: cb28 8a3f 101a 813f 6bab 803f 8534 823f
000002b0: 91bd 8f3f 63c8 843f d4fc 883f ce9f 803f
000002c0: 94ef 873f 7c2c 803f 17c5 813f 9b24 833f
000002d0: f55d 853f b4c9 813f f446 8a3f 811f 833f
000002e0: 389c 863f 964c 833f a7b5 803f e30e 843f
000002f0: 34eb 863f 40cc 883f a37c 813f 6df7 7e3f
00000300: 57b2 823f 7649 843f d46a 7e3f 789f 833f
00000310: b9b4 843f ce8e 823f b2b4 833f 5cd3 823f
00000320: f9da 813f da8a 803f cc53 813f 6e17 803f
00000330: 48fd 833f 34f9 833f cc62 853f 1d01 813f
00000340: 23be 833f d5e6 803f 42eb 853f 37b2 803f
00000350: c9c8 7f3f 5159 833f 3bd2 813f 39f8 803f
00000360: 4482 833f 11c4 803f 1cb7 7f3f ee83 833f
00000370: b727 8b3f 327c 813f 88ff 823f e4e3 843f
00000380: 0d33 803f b21d 823f a837 813f 02dd 843f
00000390: 236a 863f 1de6 853f 02a9 843f 4e8f 833f
000003a0: 7f78 843f 0097 843f 7ab4 823f 7056 813f
000003b0: 64b2 843f 60af 803f 219a 823f 138a 863f
000003c0: 745a 793f 0f9e 863f efb4 883f 35bd 873f
000003d0: 51ae 823f 1b0f 803f 9ff2 813f d8a5 813f
000003e0: 7e0c 873f 2af7 803f d2a6 7c3f 8e94 893f
000003f0: df00 813f 5a32 8d3f eca9 853f 080a 803f
1.0085511 0.99905294 0.9532725 1.033714 1.0390472 1.0691758 1.0566527 0.9951488
1.0313301 1.0719625 0.99399906 1.0247821 0.98496616 1.0119764 1.0136063 1.045649
1.0058764 1.0306238 1.0312185 1.1164273 0.9916757 1.0455663 1.0118939 1.0668869
1.022429 1.0083458 1.015005 1.0253009 1.0043839 0.998584 1.0450293 1.0229648
1.0271517 1.025266 1.0996639 1.0470529 1.065252 1.0016406 1.0749032 1.0136716
1.0219494 0.9920095 1.010194 0.9758158 1.0148339 1.0017428 1.0358417 0.99819916
1.0109168 1.0312039 1.0670785 1.0153102 1.0172497 1.0711765 1.0118868 1.0088459
1.010802 1.0058063 0.99818546 1.0168957 1.010305 1.0056888 1.0143547 1.0239061
1.0035902 1.0268668 1.0188223 1.015851 1.0520643 1.0473222 0.9765153 1.0271316
1.0298847 1.0274544 1.0190283 1.0536367 0.9979389 1.0222142 0.9992842 1.0126297
1.0157404 1.0149355 1.0075514 1.060634 1.061707 1.052691 1.008965 1.0174738
0.9644868 1.0194973 1.1265767 1.0399314 1.0059204 1.0392293 1.0191612 1.0201968
1.0407013 1.0100315 1.02402 1.0007188 1.0995282 1.0553281 0.9768918 1.0201832
1.0016091 1.0197743 1.1100645 1.0548128 1.0129384 1.0510031 1.010053 1.0856354
1.0139229 1.0021586 1.003805 0.9777806 1.0945468 1.0247923 1.0212145 1.0229461
1.0256996 1.0603852 1.0022043 1.0122296 1.0114853 0.98695993 0.99686927 1.0255622
0.9965548 0.9969258 1.0410699 1.0650128 1.0048633 1.1022705 1.0088747 1.1284813
1.0544771 1.0494022 1.0445544 1.0423421 1.0323389 1.0519396 1.0102025 1.0284867
1.0052986 1.0381802 1.0840554 1.06991 1.0230427 1.002202 1.1119785 1.1448648
1.0230101 0.99186975 0.9971383 1.0085713 1.0279348 1.0558177 1.0409606 1.0066681
1.1037066 1.0276905 1.0144764 1.0990078 1.0307198 1.0508788 1.0158919 1.0134163
1.0793699 1.0086079 1.0052313 1.0172278 1.1229726 1.0373653 1.0702157 1.0048769
1.0619988 1.0013576 1.0138272 1.0245546 1.0419298 1.013968 1.0802903 1.0243989
1.0516424 1.0257747 1.0055436 1.0317043 1.0540528 1.0687332 1.0116161 0.9959629
1.0210675 1.0334918 0.99381757 1.0283041 1.0367652 1.019983 1.0289519 1.0220752
1.014495 1.0042374 1.0103698 1.000715 1.031167 1.0310426 1.0420775 1.0078465
1.02924 1.0070444 1.046242 1.0054387 0.9991575 1.0261632 1.0142282 1.0075752
1.0274129 1.0059835 0.9988878 1.0274637 1.0871495 1.0116026 1.0234232 1.0382047
1.001558 1.0165312 1.009511 1.0379946 1.050114 1.046085 1.0364077 1.0278108
1.0349272 1.0358582 1.0211327 1.0104504 1.036694 1.005352 1.0203286 1.0510887
0.97403646 1.0516986 1.0680217 1.0604616 1.0209447 1.000461 1.0152167 1.0128736
1.0550687 1.0075428 0.9869205 1.074846 1.0078391 1.1030991 1.0442481 1.0003061

module.base.1.layers.2.bias f4 [256]
00000000: 97ac 3fbc 7a74 6abb 6b0d 92bd 3f42 9c3a
00000010: a015 8ebc e0ac adbc b501 353a 9f66 07bc
00000020: 1f13 8fbc f3be 0bbc dda5 88bc b1b3 4aba
00000030: bc2a 6e3c 3dbe 08bc a920 bc3b 295b bbbc
00000040: c777 033c c17c b03a 7ebe 97bb ad84 adbc
00000050: 6465 c63b 36df 04bc 37d8 563a 1cdf 343d
00000060: 956f 78bb f804 3bbc 39ed 703b 36a9 e9bc
00000070: 0a35 97bb 1fdd 583c 6549 0b3c 9b61 2c3c
00000080: 3f5e 1f3b d3f4 d6bb 6cb1 78bc a4d2 e83c
00000090: 434d 2c3c 448c 823c f476 39bc d11e ee3b
000000a0: 3d3a 74bb 5541 e23c 2bee 5e3c 108c 7dbb
000000b0: a479 ddba 567b 3f39 d73b 1dbc 4277 0d3c
000000c0: 65bf b33c 7201 033d f4c6 863b 392d 98bc
000000d0: 2545 a8bc 03ca 12bd 40d3 de3a 6852 e7bb
000000e0: cc33 683c 0a85 083c c91b e1bc 3a7a e1bb
000000f0: f9ab 463c 7701 b7bb 9513 4f3c b170 fc3c
00000100: bb96 733c 0c92 c4bb 5adc b4bc efec 0cbb
00000110: fc32 32bd f57e 083d ff3c d43b 816c 6a3c
00000120: a1a7 3abb 0556 b33a 211f 07bc 0c29 1c3c
00000130: 08f4 a6bc 9985 17bc dffb 883c 28c8 233c
00000140: 5a75 323c 7f35 dd3b b9e6 f4bb 90bb f2ba
00000150: 0c98 2dbd c065 85bc 9a92 b83b d9e3 8bbb
00000160: f3f8 1abc 24cc 223b e33f 8c3c f523 873b
00000170: 73fa 7fbc f7c7 9fbc e452 1bbd ef39 cebc
00000180: 8c2d 31bc 875e be3c bfc4 7ebb ff4a dfbb
00000190: 5882 363c 77eb d7bb e25b 193c 01dd fd3c
000001a0: 21f2 a3bb de24 3abc ec6e e73c 2f5f 123d
000001b0: 8ae3 d83b f703 803c 8d3c 19bc 2f43 91bc
000001c0: 6e94 713c 9b79 11bc 9b88 843b a3b8 b9bb
000001d0: 03fd 3c3d 7350 1d3d 0629 313c 5dbe c4bb
000001e0: 4ba5 d139 3b68 9bbc a9d2 bfb9 0e42 a3ba
000001f0: fb7e 6d39 0542 d63c f0f4 b93c 3a37 a63c
00000200: bd21 5d3c 56bd 5bb9 976d bf3c fd14 903b
00000210: 9d55 c9bb d612 20bd 9a79 a1bb b44e 0ebd
00000220: 3cb8 823c f61f a93b 4957 053c 4a0a 3ebc
00000230: f6b9 703b d322 a93c e12c 7c3b 14b3 ed3b
00000240: 84ef 553c c712 593b 87e6 633c 0b81 a7bb
00000250: be73 d23a d0c7 1a3b 6a55 cfbc 7d9c 0e3c
00000260: 8c2d 26bc fb54 a93c 3e27 e4bb e39b a7ba
00000270: 6b65 bbbc 045e 5cbc a88a fcbc 224f 81bb
00000280: 3066 82bc b142 963c 4c0e 04bc 5399 d33c
00000290: d0b1 d4bc 5cbf b13b 8d6c 213b 9c35 ac3c
000002a0: fa43 15bd 074e 003c f6bf f63a 7a7f f5bb
000002b0: 1cdd ff3b 2eb2 a63c 53b4 00bd 23dd f9ba
000002c0: 6a2f 0d3c a89d d1bb 4672 82bc 10b8 1d3b
000002d0: 429c 3bbc 10b3 5c3c 417a 413c 9126 283c
000002e0: fae6 ecbb f115 b1bc 7477 dbbb 0fec c33c
000002f0: 3c41 32ba 052d 9dbc 0894 4b3c b811 30bb
00000300: 8813 8e3c b744 623c a595 e33b 3eae aebb
00000310: 50e9 223c 5bee 3cbc 9c5f a4bb d571 c4bb
00000320: 9706 93bb f91d 33bc 0048 533c d827 783c
00000330: d97a 23bb 6ede c3bb 5944 b7bb 48e5 7e3c
00000340: c900 a63c ac7b 733c 4383 7f3c 57b1 bfb9
00000350: 2691 f6bb 9d23 393b 7feb 37bc e898 ddba
00000360: e38b 253a 92a1 d53b 8c7b 98bb a054 9c3b
00000370: 50d0 a23c 1f98 3d39 77e4 f4bb 1762 9e3b
00000380: 7ce0 9f3b 15e6 8ebc 2447 d33b c92b c6b9
00000390: f236 e9ba ccd1 47bc d4f3 c53a ba99 b73b
000003a0: cba9 a9bc 6d51 a73b d671 1fbd c2ca 0eba
000003b0: 4ed2 89bc 13db 0fbc f786 37ba 35ff 303b
000003c0: d174 86bc ae3a e0bb 3ef2 1e3c e726 e23b
000003d0: 8d17 4a3c be10 85b9 eb1b 03bd 3bd9 b3ba
000003e0: 6062 a43c beec 8d3c c6dd 3b3b 9f7f 33bd
000003f0: 3d41 6fbc 9aca 43bd a9c4 08bb 0f46 1cb9
-0.0116988635 -0.0035774992 -0.071314655 0.0011921598 -0.017344296 -0.021200597 0.00069048564 -0.008264213
-0.017465172 -0.008529413 -0.016680652 -0.00077324646 0.014536556 -0.008346138 0.005741198 -0.022870617
0.008024163 0.0013464914 -0.0046308627 -0.021181429 0.006054567 -0.008109858 0.00081956707 0.044158086
-0.0037908305 -0.011414759 0.003676249 -0.028523069 -0.004614477 0.013236313 0.008501385 0.010521318
0.002431765 -0.006559947 -0.015179019 0.028420754 0.0105164675 0.015936024 -0.011319865 0.007266857
-0.0037266158 0.027619043 0.013606588 -0.003868822 -0.0016897214 0.00018261126 -0.009596786 0.00863439
0.02194185 0.0319838 0.0041130725 -0.018576251 -0.020540783 -0.035837185 0.0017000213 -0.007059384
0.014172506 0.0083325 -0.02747907 -0.0068810256 0.012125962 -0.0055848914 0.012638946 0.030815454
0.01486748 -0.0059988555 -0.022077728 -0.0021503528 -0.043505654 0.0333242 0.006476998 0.014308096
-0.0028481262 0.0013682252 -0.008247168 0.009531271 -0.020380035 -0.009248161 0.016721664 0.009996451
0.010892237 0.006750762 -0.0074737933 -0.0018519033 -0.04238133 -0.01628387 0.0056327106 -0.004269105
-0.009458768 0.0024840916 0.017120307 0.0041241595 -0.015623677 -0.01950453 -0.037920848 -0.02517411
-0.010814082 0.023238434 -0.0038874594 -0.00681436 0.011139475 -0.006589349 0.0093602855 0.030989172
-0.0050032292 -0.011361329 0.028251134 0.035735305 0.0066189216 0.01562689 -0.009352815 -0.017732231
0.014744861 -0.008879091 0.004044605 -0.0056677624 0.04613973 0.0384068 0.010813003 -0.0060041384
0.0003998674 -0.0189706 -0.00036587313 -0.0012455599 0.00022649385 0.026154527 0.022699803 0.020290006
0.013496813 -0.00020956 0.023367686 0.0043970332 -0.006144239 -0.039080463 -0.004927826 -0.034743026
0.01595699 0.0051612807 0.008138486 -0.011599133 0.0036731935 0.020646488 0.0038478898 0.007254014
0.013057593 0.0033122764 0.0139099425 -0.0051118187 0.0016056222 0.0023617633 -0.025309283 0.008704302
-0.010142695 0.020670405 -0.006962686 -0.0012787547 -0.022875508 -0.013450149 -0.030827835 -0.003946201
-0.015917867 0.018342348 -0.008060049 0.025829947 -0.025963694 0.005424423 0.0024631352 0.021021657
-0.03644178 0.007831103 0.0018825519 -0.007492003 0.0078083407 0.020348635 -0.03142197 -0.0019063096
0.008617261 -0.006396968 -0.01592363 0.0024066009 -0.011450829 0.013470426 0.011808933 0.010263101
-0.007229683 -0.021616908 -0.0066975895 0.023916272 -0.0006799882 -0.019186506 0.01242543 -0.002686603
0.017343298 0.013810328 0.0069453293 -0.00533083 0.009943321 -0.011531438 -0.0050162803 -0.005995015
-0.0044868696 -0.010932439 0.012895584 0.015146218 -0.002494505 -0.0059774434 -0.0055928645 0.015557595
0.020264046 0.014861029 0.01559526 -0.00036562487 -0.0075246273 0.0028249987 -0.01122558 -0.0016906532
0.0006315095 0.006519505 -0.0046534 0.0047708303 0.019874722 0.00018081114 -0.007473524 0.0048334706
0.0048790555 -0.017443696 0.0064476896 -0.00037798125 -0.0017792864 -0.012196016 0.0015102574 0.0056030424
-0.020710846 0.0051061423 -0.03892692 -0.00054470834 -0.016823914 -0.008780259 -0.00070010073 0.0027007584
-0.016413124 -0.0068429327 0.00970131 0.00690161 0.0123347165 -0.0002538021 -0.032009047 -0.0013721356
0.02006644 0.017324802 0.0028666123 -0.04382288 -0.014602956 -0.047800638 -0.0020869172 -0.00014903418

module.base.1.layers.3.weight f4 [128, 256]
00000000: 2158 dc3c a6d4 183d 4e82 be3c ad14 29bd
00000010: 5a90 5a3b 1be6 3bbd ff0d 4abd ae0f b1bc
00000020: 52de 80bd 939b 3cbb fff2 11bd 866f b63b
00000030: 16e5 b9bb f8b7 44bd 31e7 223c 2ac9 903d
00000040: 2626 fdbc 85d8 363d 447c d6bc e836 1bbd
00000050: 96d9 88bd 94cd 653d 9ffd 1e3d db3b 233d
00000060: 96e8 73bc 825b 403d 97fe 8a3d 191b 493d
00000070: 2fe4 2f3d 77d7 dc3b b78d 95bd 0dcc 793b
00000080: 3bc0 fd3b 7d38 82bd 7083 743d 08b8 ae3c
00000090: 9639 2abd 885a bd3c 55b3 493d b16d 4f3c
000000a0: ecf1 dfbc 4f45 b03c e17e 323d 75a3 d23c
000000b0: 6cc4 d33c 130a 1dbd f4c5 283c 153a 563d
000000c0: 625c 963c 1cc2 36bc f0a2 18bd 5efc 093d
000000d0: 1e34 29bc 6d5a 283c 828d 55bd 8338 f43c
000000e0: 72f3 4d3d 5a2d 71bb a121 81bc b52b 253d
000000f0: 40dd dabc 12d8 96bc 9655 f3ba d668 1b3d
00000100: d66d 2cbc 5312 9abc da86 c4bc a9a6 4bbc
00000110: f7fd 6a3c 7b08 343d 0ede b93c 2d29 8e3c
00000120: dc2c 81bc bbcb aabb c182 1dbd 18be 2dbc
00000130: 51d8 873b 8501 de3c 4554 9d3d 5f14 83bd
00000140: e9cd 6d3b 342d 6bbd 6af6 cb3b ebb5 febc
00000150: e475 2c3c ec41 fabc ad79 acbc 5037 e6bc
00000160: 504e f9bc bf45 783d 5bea 87bd 5fbb 45bd
00000170: f11c 743d 4075 48bd 69ab 8abc 53fa 4b3d
00000180: c4d9 c7bc 2424 09bd eb6c 5cbd 0c17 19bd
00000190: 1c71 dfbc 3df3 20bd 2c14 373d 8c66 0e3d
000001a0: b94a 03bd 4b6b 803c 392b e63b 9420 353c
000001b0: c309 423d d734 833d e18e 8cbd 726e 803d
000001c0: 7742 fdba 81f8 bbba 10fa 233b 4c37 443c
000001d0: 5116 053c f2dd fbbc f9ef dbbc a2dc efbc
000001e0: c32d 993b 950e b83c 6c07 98bd b30f 1cbd
000001f0: f354 a5bc 84d7 4b3d 73ac 0fbd e865 583d
00000200: e0aa 513c 2152 e5bc 4474 4b3b c4ba e53b
00000210: 4f11 90bc 3f66 cc3c 6d10 e0bb d360 04bd
00000220: b669 6ebd dbfc 0dbd e63a 763d d46b d7bc
00000230: da3f 03bd f533 31bd cad9 d93c 741d 713c
00000240: d98f b0bd fade 6e3d 1809 3fbd 5705 493d
00000250: 6951 0a3c 91be 3e3d 3c7b 95bd d232 2bbd
00000260: 3723 2d3d a95b 413b cf28 2dbb 22cc ccbb
00000270: 2af3 23bd cbdf 663d 04e3 03bc 2902 98bc
00000280: 8fe5 d8bc 65c2 f03c fd4d 2b3d 4853 44bc
00000290: 4420 1cbd 5269 403d 762d 35bd ab31 dbbc
000002a0: 894e bfbc 2a4b d03c d3cb 053d fedb 863d
000002b0: af41 ce3c 261b 3c3d 060b a93c 52b5 803c
000002c0: 9f1d 1abb 1647 a1bc 8b6b 513d 55b5 ebbc
000002d0: a86d 4e3c e486 0cbd 1163 d53c ca42 743d
000002e0: d4b9 8cbd 1a86 03bd 7c09 843c 9329 3b3c
000002f0: f6b2 1b3d 9e94 193d 24a4 ea3c 546e 8dbc
00000300: 9dda 02bc 78f2 6ebc 3b35 ce3c 5c6e 1b3d
00000310: ef93 63bd 889e c83c c7f5 ce3b a960 95bd
00000320: d23a abbc e335 453b 7e0f ab3c a2e5 c83c
00000330: 7cb5 bf3c 8f17 1fbc 104e 6d3c d4b0 053b
00000340: 858a 0f3d 1616 a83a 85cc e83c 4f08 3dbb
00000350: 467e 033d 8577 4e3d d985 693d 9704 96bc
00000360: 35a7 c23b 7a5c 9a3c d20d 4abc 1ee2 a33c
00000370: 7be4 bc3c cb6f 5e3d 7dec aa3d 2c6c dcbc
00000380: f504 28bd 777c 5b3d 0314 173d 9932 dc3c
00000390: 59a9 bf3c 9db0 58bd cbd0 3e3c 11e7 1c3a
000003a0: 04f7 0e3c a0d0 4e3d 5cc5 03bd e53e 5a3b
000003b0: 4042 ba3d 61c4 8a3d 5bb5 e23b 26fe 0e3d
000003c0: bef1 8bbd 8aa3 bebc d361 003d 2a30 f03c
000003d0: 0052 a6bd 3b04 823d aba1 633d 2974 63bd
000003e0: fb8f 01bd dcf6 81bd 501a 2d3d b234 52bd
000003f0: f699 613d e33c 3b3d 89b9 4ebd 9fd0 703c
0.026897492 0.037312172 0.023255493 -0.041279484 0.00333502 -0.045873743 -0.049329754 -0.021613922
-0.06292404 -0.0028779253 -0.03563213 0.005567494 -0.005673061 -0.04802701 0.009942816 0.07069619
-0.03090198 0.044640083 -0.026182301 -0.03789416 -0.06682126 0.056104258 0.03881609 0.039852004
-0.014886996 0.04696227 0.067868404 0.049098108 0.042942222 0.0067395526 -0.073024206 0.0038116009
0.007743863 -0.063584305 0.05969566 0.021327987 -0.041558824 0.023114458 0.04924329 0.01266043
-0.027337037 0.021517424 0.043578032 0.025712708 0.025850497 -0.038339686 0.010301102 0.052301485
0.018354598 -0.011154678 -0.037264764 0.03368794 -0.010327367 0.010275465 -0.052136905 0.029812103
0.050280996 -0.0036800713 -0.015763106 0.040324885 -0.026716828 -0.018413577 -0.0018564935 0.037941776
-0.010524234 -0.018807566 -0.023990083 -0.012429872 0.0143427765 0.0439534 0.022688892 0.017353619
-0.01576846 -0.005212275 -0.038454775 -0.010604404 0.00414566 0.027100334 0.07682089 -0.0640037
0.0036286062 -0.057416156 0.006224443 -0.031092605 0.010526154 -0.030549012 -0.021054113 -0.028102547
-0.03043285 0.06061339 -0.06636497 -0.048274394 0.059597913 -0.048939943 -0.016927438 0.049799275
-0.02439583 -0.033481732 -0.05381481 -0.037375495 -0.027275614 -0.03929447 0.04469697 0.034765765
-0.032053683 0.015676161 0.0070241955 0.0110551305 0.04737259 0.06406563 -0.068631895 0.06271066
-0.0019322176 -0.0014341028 0.0025020875 0.011976074 0.008122996 -0.03074548 -0.026847826 -0.02928001
0.0046746447 0.02246789 -0.074232906 -0.03810091 -0.020182109 0.04976608 -0.03507657 0.05283156
0.012797087 -0.027993264 0.0031044642 0.0070107896 -0.017586378 0.024951098 -0.0068378956 -0.0323189
-0.058206283 -0.03466497 0.060114764 -0.026296534 -0.032043315 -0.04326244 0.026593108 0.014716495
-0.08621187 0.058318116 -0.04663953 0.049077358 0.008442261 0.046568457 -0.07298896 -0.041796513
0.04226991 0.0029504097 -0.002642203 -0.0062499205 -0.04002682 0.05636577 -0.00804973 -0.018555718
-0.02647665 0.02938957 0.041822422 -0.011982746 -0.03811671 0.04697544 -0.044232808 -0.026757082
-0.023352878 0.025426466 0.032665085 0.06584929 0.025177805 0.04592433 0.02063514 0.01571146
-0.002351619 -0.019687217 0.05112795 -0.02877299 0.012599386 -0.03430833 0.026048215 0.059634008
-0.068713814 -0.03211031 0.016117804 0.011423486 0.038012467 0.037495248 0.028642721 -0.017264523
-0.007986692 -0.014584176 0.025171867 0.037947044 -0.055561002 0.024489656 0.00631592 -0.07293827
-0.020902071 0.0030091933 0.02088141 0.02452356 0.023401968 -0.009710207 0.014483944 0.0020399587
0.035044212 0.0012823965 0.028417835 -0.0028844064 0.032102846 0.05040695 0.057012413 -0.018312735
0.005940343 0.018842924 -0.012332397 0.020005282 0.023058167 0.054305833 0.08345888 -0.02690705
-0.041020352 0.053585496 0.03688432 0.026879596 0.023396181 -0.052902807 0.01164646 0.00059853593
0.008725885 0.05049193 -0.03217064 0.0033301648 0.090946674 0.067757376 0.006918592 0.034910344
-0.06833218 -0.02327134 0.031343292 0.029319841 -0.08121109 0.06348463 0.0555741 -0.0555307
-0.03163145 -0.06345913 0.04226142 -0.051319785 0.05507847 0.045712363 -0.05046991 0.014698177

module.base.1.layers.3.bias f4 [128]
00000000: 15dd 2bbd 05d3 c0bb 21c1 25bd 5920 d93c
00000010: 79cc b63b 0789 98bc 2a9e c2bc 8716 713c
00000020: 10b5 123d 795d 48bd 4909 e0bb 166f fabc
00000030: 1808 68bd 0c15 65bd d56f 46bd 193b 3fbc
00000040: f21f 1bbc d00a 04bd fd24 72bd 6907 76bd
00000050: e1ef d43b 3858 f0b9 696c 6d3c ccdf 26bd
00000060: b13b 08bb 75cb c53c cc68 4abd 0760 3a3d
00000070: 0600 9bbd 05df 35bd 3286 8f3d 2810 11bd
00000080: 4341 3cbd 5ef3 27bd c832 8ebb 5b32 193d
00000090: 544b 3c3d a8fb e0bb f412 8d3d 2968 15bc
000000a0: e213 3abd 35cb acbb b5bb 613b 6b75 363c
000000b0: 677f 6abd 7468 993d 43ee 90bb 8413 59bd
000000c0: 0218 c23c 78b5 83bd 9708 f2bc 3c2c d7bc
000000d0: fbdd 61bd 29d9 44bd 88d9 163d e0bd 91bd
000000e0: 2357 8f3a 3f24 63bd c112 55bd 4226 48bd
000000f0: c89d 903d beaa a83c 94a3 673d 7143 513d
00000100: 668d 95bc 3199 c53b 3f0f 283d a1cf 313d
00000110: facb 2f3c 1904 e0b9 b78b 4abd 6d37 0b3c
00000120: 30d5 e3bc 45fd 66bd c70d 00bd 78b5 e73b
00000130: c8de 603d 23df 243d 455b 0abd 8298 34bd
00000140: 58d2 7a3d bc0e 96bd ce8a 56bc cddb 8f3c
00000150: cddc 2e3d de71 a03d 105e 11bc ba31 96bd
00000160: 5e4d 5dbd f9ad 27bd 6cee 87bd 8695 7d3c
00000170: 613f 8bbb 8d12 5dbd a5eb 563d a735 54bd
00000180: e47e 84bd 69f7 b4bc 1d12 c23b 51c2 0a3d
00000190: ab90 423d a115 803d 3b54 a9bc 18bb cbbc
000001a0: 6844 31bd 8b53 cfbc aa0d 6a3d 3d1f 463d
000001b0: 8afd 233d df6c c7bb 48cc 15bd 6689 e63c
000001c0: 2546 02bd 55a3 8c3b 8752 edbc 6885 413c
000001d0: 49e9 cf3c 10cc 243b 5c54 0d3d 7c91 8b3d
000001e0: d8fb 21bc b8b1 72bd 171f 7ebd f385 91bc
000001f0: 5a9d a5bc bffa 0dbd 5314 7bbd 60b4 bdba
-0.041958887 -0.0058845305 -0.040467385 0.026504682 0.0055785743 -0.018620027 -0.02375706 0.014714844
0.035817206 -0.048917267 -0.0068370444 -0.030570548 -0.056648344 -0.055928275 -0.048446495 -0.011671805
-0.009468066 -0.032236874 -0.059117306 -0.06006566 0.0064983224 -0.00045842095 0.014491179 -0.040740773
-0.0020787532 0.024144867 -0.04941635 0.045501735 -0.07568364 -0.04440214 0.070080176 -0.0354158
-0.045960676 -0.041003577 -0.0043395497 0.03740154 0.045970276 -0.0068659373 0.06888381 -0.009119072
-0.045429118 -0.0052732476 0.0034444157 0.011136393 -0.057250407 0.07490626 -0.0044229343 -0.052997127
0.023693088 -0.06431097 -0.029545112 -0.02626621 -0.055143338 -0.048058663 0.036828548 -0.07116294
0.0010936003 -0.05545449 -0.05201984 -0.04886461 0.070613444 0.020589229 0.056552485 0.051089708
-0.0182559 0.0060302247 0.041030165 0.0434109 0.010729784 -0.00042727662 -0.04944965 0.008497101
-0.027811617 -0.05639388 -0.03126314 0.0070711933 0.05489996 0.040251862 -0.033778448 -0.044090755
0.061235756 -0.07327029 -0.013094617 0.017560864 0.04269104 0.078342184 -0.008872524 -0.07333703
-0.05402886 -0.040937398 -0.06637272 0.015477544 -0.0042494987 -0.05397277 0.052470822 -0.05180898
-0.06469515 -0.02209063 0.0059225694 0.03387672 0.047501247 0.062541254 -0.020670047 -0.024869487
-0.043278128 -0.025308391 0.057141937 0.048369635 0.040036716 -0.0060859765 -0.03657177 0.028141689
-0.031805176 0.0042919316 -0.028970016 0.011811592 0.025379794 0.0025146045 0.03450428 0.06814858
-0.009886704 -0.059251517 -0.06204137 -0.017764067 -0.020216633 -0.03466296 -0.06129868 -0.0014473312

module.base.1.layers.5.weight f4 [128]
00000000: ad21 893f 22a9 873f de1d 803f 10af 893f
00000010: ef2c 833f ec46 833f df6f 953f 13d4 893f
00000020: c5a5 8d3f 5d29 823f 9cd8 803f f4b5 803f
00000030: 5515 853f 5261 8b3f d1a7 803f 8425 863f
00000040: 2301 803f e556 893f fc1a 8f3f 2787 843f
00000050: cd2e 803f fd3c 883f 28fe 833f 66a4 813f
00000060: 5c41 823f d9ab 803f d314 833f 9beb 823f
00000070: fb21 8c3f 5e85 863f 63ad 903f d855 863f
00000080: a90b 883f 0969 7e3f 3f2b 853f f27e 813f
00000090: 8324 823f 4050 8f3f a078 7f3f cdae 803f
000000a0: da71 823f 7056 853f afb9 843f 125c 843f
000000b0: 965e 833f 6bb2 843f ba70 813f 6418 833f
000000c0: 7da4 873f cc13 853f a6fa 813f 7cdc 883f
000000d0: f0e0 803f 9824 8d3f 3d95 813f a1aa 833f
000000e0: d9e9 813f d496 7e3f 0727 7f3f 71e6 833f
000000f0: ceb7 883f 9c91 893f 30fc 803f cce6 883f
00000100: ec86 873f 739b 8c3f 1952 853f b0e9 833f
00000110: 4985 823f e994 833f 1c46 8c3f 1c52 7d3f
00000120: 9889 853f 52de 8c3f 2868 8e3f 9573 833f
00000130: 473c 863f f7b7 823f 5886 8d3f 041b 8f3f
00000140: 339a 823f 5fd8 8b3f f687 823f 4a1b 883f
00000150: de7a 8f3f a116 903f d1a0 803f 7857 863f
00000160: d592 893f 11be 803f 0fe1 8f3f 599a 803f
00000170: 227c 7e3f 4488 8a3f 4bd7 893f d1b7 833f
00000180: 06d0 893f 3649 873f af1c 863f 3267 863f
00000190: 7942 893f a951 863f 2598 7d3f 3971 833f
000001a0: 9527 883f e32c 873f cfec 7d3f 9113 843f
000001b0: 9929 803f a02a 883f d336 873f 0617 873f
000001c0: 4c51 823f 1209 7e3f 12a6 833f cbe1 803f
000001d0: 8ad3 853f 42b8 833f 3e94 873f bcad 803f
000001e0: 4d90 7d3f 3c7d 893f 521f 843f e75e 893f
000001f0: 0888 893f 996f 8d3f 1e70 863f 5eff 853f
1.0713402 1.059849 1.0009115 1.075655 1.0248088 1.0256019 1.1674765 1.0767845
1.1066214 1.0168873 1.0066104 1.0055528 1.0397135 1.0889075 1.0051214 1.0480199
1.0000347 1.0729643 1.118011 1.0353745 1.0014282 1.0643612 1.0311937 1.0128295
1.0176196 1.0052444 1.024073 1.0228151 1.094787 1.050945 1.1302913 1.0494947
1.0628558 0.9937902 1.0403823 1.0116866 1.0167392 1.1196365 0.99793434 1.0053345
1.0190995 1.0417004 1.0369166 1.0340598 1.026324 1.0366949 1.0112526 1.0241818
1.0597073 1.0396667 1.0154617 1.0692286 1.0068645 1.1026793 1.0123669 1.0286447
1.014949 0.99448895 0.99668926 1.03047 1.0681093 1.0747561 1.0076962 1.0695434
1.058805 1.0984939 1.0415679 1.0305691 1.0196925 1.0279819 1.0958896 0.98953414
1.0432615 1.1005347 1.1125536 1.0269648 1.0487145 1.0212392 1.1056623 1.118012
1.0203308 1.0925406 1.0197742 1.0633328 1.1209371 1.1256906 1.0049077 1.0495443
1.0747935 1.0058004 1.1240557 1.0047103 0.9940816 1.0822835 1.0768827 1.0290471
1.0766609 1.0569217 1.0477504 1.0500243 1.0723411 1.0493671 0.9906028 1.0268928
1.063708 1.0560573 0.99189466 1.0318471 1.0012695 1.0638008 1.0563606 1.0553901
1.018106 0.9923259 1.0285056 1.0068907 1.0455182 1.0290606 1.0592115 1.005302
0.9904831 1.0741343 1.0322058 1.0732087 1.0744638 1.1049682 1.0502965 1.0468557

module.base.1.layers.5.bias f4 [128]
00000000: 6761 653c dbb4 013d cae1 7d3c 0ebf f43c
00000010: aa06 1f3c 9cae c4bb 01f4 80bd a286 93bc
00000020: adfa e23c 85b1 3f39 4b24 b5ba be8f c9ba
00000030: 7f0b 14bc dfab 4abc d136 77bc 40f7 bdbc
00000040: 8817 26bc d8b5 dbbc 6c0c bcbc 671a 473c
00000050: 6f26 26bc a9a9 8e3c 3711 1fbb 5d79 bdbc
00000060: 1433 4bbc 504f ec3c eead ad3c 7201 e7b9
00000070: b363 60bc 6694 563d 1070 3bbd 8e9e eebb
00000080: a7cc bb3c fe39 093d 9628 0c3c 80fb b4bc
00000090: 9f76 1fba 7175 9bbb 9278 a43c 3f0d bd3b
000000a0: 1bfb a73b 0246 33bc 48fe 42bd 51ad 70bc
000000b0: ec60 00bd 9385 bd3c edac a0bc 7b86 053c
000000c0: 05c1 e2bc 2a0e 0bbc 5190 96bb 95dd 8939
000000d0: d28b 293c ecab 423b ae27 e13b fa84 d9bc
000000e0: 95fd b4bc 0e65 9c3c db32 14bc 5c06 f23b
000000f0: 612e 6d3c 4e8a 03bd 1f39 59bb bd0e 1d3b
00000100: c27f b4bc 3aa3 44bc 8538 a73c d119 533b
00000110: a4c1 94bb b6bc 9abc c01b 5c3c dcaa 7f3c
00000120: 7b6e f7bc f783 3f3d bf3c b83c 4286 2bbb
00000130: 8c63 aa3b 99f2 91bc e6a1 393d e8ce efbb
00000140: cb99 16bb b6ee 6e3b 94e3 393c 72ae 433d
00000150: b67f 87bb 204d 953d 356d 683c eea6 4abd
00000160: 4c57 a73c 73c9 79bc 9d17 a63c 543f 2a3c
00000170: 57c7 2c3c b2cb 0c3d 64b0 ec3c a011 acba
00000180: 9877 0dbc af60 e3bc d5b4 a6bb b8c7 0c3d
00000190: 48f3 113d 690b 143d aafe 93b8 3f3b 403d
000001a0: b4cb 563c 4120 283d 2be4 84ba 7d0b ff3b
000001b0: eace aabc d393 fb3b 7fe6 ee3c 44ec b1bb
000001c0: 6dde dabc d555 893b a6ae 24bd c274 99bc
000001d0: 3518 973c 23c0 bcbb 7ef5 48bc bdd5 743c
000001e0: 7042 963c 6ccf 10bd 1977 1439 dbc6 babb
000001f0: 8199 46bd a276 b53d e877 f1bc 769b df3b
0.014000273 0.031666618 0.015495727 0.029876258 0.009706179 -0.0060022604 -0.0629654 -0.018008534
0.027707422 0.0001828131 -0.001382002 -0.0015377922 -0.009035944 -0.012370079 -0.015088753 -0.023189187
-0.010137446 -0.026820108 -0.022955142 0.012152291 -0.010140999 0.017414885 -0.0024271735 -0.02312916
-0.012402315 0.028846413 0.0212011 -0.0004406083 -0.013695645 0.052387618 -0.045761168 -0.007282085
0.022924734 0.03350257 0.008554598 -0.02209258 -0.00060830446 -0.0047442247 0.020077024 0.0057694013
0.0051263697 -0.010941984 -0.047605783 -0.014689759 -0.031342432 0.023134982 -0.019613707 0.008149738
-0.02767993 -0.008487264 -0.0045948406 0.00026295768 0.010348277 0.0029704524 0.0068711853 -0.026552666
-0.022093574 0.019091155 -0.009045328 0.007386012 0.01447639 -0.03211432 -0.003314562 0.0023965084
-0.022033576 -0.012001807 0.020412693 0.0032211433 -0.0045396853 -0.018888813 0.0134343505 0.015604701
-0.030204048 0.04675671 0.022489903 -0.0026172553 0.005199855 -0.017815875 0.045320414 -0.0073183663
-0.0022979851 0.00364582 0.011345763 0.047773786 -0.0041350974 0.07290101 0.014186193 -0.049475603
0.020427369 -0.015245783 0.020274932 0.010391075 0.010545573 0.034373946 0.028892703 -0.0013127811
-0.00863447 -0.027756063 -0.005087475 0.034370154 0.0356324 0.036143694 -7.056941e-05 0.0469315
0.01311009 0.041046385 -0.00101388 0.007783352 -0.020850617 0.007677534 0.029162643 -0.0054297764
-0.026717389 0.00419114 -0.04020562 -0.018732432 0.01844416 -0.005760209 -0.012265561 0.014943537
0.018342227 -0.035354063 0.00014158747 -0.005699975 -0.048486236 0.08860518 -0.029476121 0.0068239523

module.base.1.layers.6.weight f4 [128, 128]
00000000: e1de b83d b9c0 3eba 80d1 3cbc 4c7a 93bd
00000010: 272e 82bc 4d1b 1dbd 938f 523d 4752 1abd
00000020: 35c7 e2bd 8480 84bd 0e69 ae3d fd02 543d
00000030: 062f 603d fe42 4f3d cd42 813d b62c fc3c
00000040: e0cc 69bd bff3 1abd 67bd a93b 901e 4f3c
00000050: 0dde 8c3d c5b6 fbbc d07e 9dbb 1a62 abbd
00000060: b97b 543d 58e2 8fbc 1c81 10bc 7161 b2bc
00000070: 96eb 8fbd 8885 aabd 6e44 e13c 9b5e 833c
00000080: 2f64 813d 5a80 3ebd 3773 503d ac11 2d3c
00000090: 05fd fabc b5b1 9d3d 9d17 563d bc52 853b
000000a0: 3f6d 9fbd 401c 00bd 4ed4 c53c 3340 093c
000000b0: 0070 10bd 7e2c 7abc 4c8c 7fbb ef9d 783d
000000c0: 2e00 3d3d 041b b7bd 4ff1 e23c cf67 00bd
000000d0: 8fdb 38bd b49a 663d 4349 57bd d664 b03d
000000e0: 3149 863c 880a 153d 0d65 903d a4df 573d
000000f0: ff90 e13c a2d8 9c3d 3d04 e8bc aaf6 d0bc
00000100: 83f7 3abd f780 99bd 9c21 d73a 6f92 303d
00000110: cf2a 36bd 93e9 23bc 9461 053c 7f3c c1bc
00000120: a6d6 033d 4c90 023d c8c0 8abd a59f 04bc
00000130: 5e46 8f3d c4de 87bd 3148 aa3d 318c b9bb
00000140: fb2a 8c3d 0b8e c93d 1928 d8bd 99e8 f4bd
00000150: 4a5c 433d c238 b9bd 042d 153c 0b4e 203d
00000160: 6e8f 7f3c bccc 5dbd 6cf1 3ebd 44a6 473d
00000170: 4d9a 26bd 8db9 14bd 3384 c33d 1910 cfbb
00000180: 6211 a5bb 2c52 c0bc 81f0 b73d 9bfb eb3d
00000190: 0aca 7abd 5560 d0bc 54e0 65bd eb8e 70bd
000001a0: e063 bc3b a054 623d 7356 43bd 0bf8 263c
000001b0: ef98 7cbd cd15 2d3d 0b7a 30bd 2ace 213d
000001c0: d171 9dbd 8ff9 233d eba7 8e3d 1e2e 9c3d
000001d0: f3b6 2cbd acff d63b 1f4c bc3c 0150 96bd
000001e0: 2400 23bd 5527 d43b 2771 ef3c fa5a d63b
000001f0: a0a0 31bb ad4c a8bd 5b26 27bd ef1c 2cbd
00000200: cf23 a6bb a58b 06bd 7842 b9bd 9782 9cbc
00000210: 5f8c 51bc 60d3 e8bb c113 d23c 5bf8 283b
00000220: 2252 d03c 5212 703d 8d87 89bd 19c0 733d
00000230: 80c5 a93d cdff 143c 4871 91bc c7f1 843d
00000240: 4ae5 60bd 4e93 babd 152a bd3d 5561 caba
00000250: 0a49 e23b abd3 8e3c 92b0 e1bb a38f 853d
00000260: 7027 96bd 806d 863d 290a 4e3d f1e9 663d
00000270: ace4 623d c02b 9cbd fa08 95bd 8726 29bd
00000280: 9cc2 23bc d1f4 09bd 6de5 ae3d 2b0b 613d
00000290: b543 c33c 65eb bd3d dcae aebd 8762 673d
000002a0: 5e7e b3bc 2813 0f3c 978c c1bc 2e9c 973d
000002b0: c938 8c3d 1258 65bd 3c8e 2e3d 6993 0ebc
000002c0: 643b d039 cc86 b0bc aee6 aa3d a847 b73d
000002d0: 0f81 24bd 5446 b2bc d82f 40bc 8455 d3bc
000002e0: 9703 7cbc ae42 8abd 2ab7 58bd 30ba 163c
000002f0: 03a2 58bd 1ab0 963d 9f62 043d 2785 aebc
00000300: 2a8f 4f3d d927 3c3d e830 8d3d 72df 5abd
00000310: 943a aabb 5d4b 923d 1542 27bd 0137 d4bc
00000320: a1a9 773d f579 a03d 11e8 053d f483 c0bc
00000330: 8599 89bc 2e46 e239 77fc 91bd f6cf c33a
00000340: 7ffe 913d 75b0 3e3d 09ce 54bd bab8 c8bb
00000350: 40a3 babd ade6 e1bc 2b96 bcbc 937b af3c
00000360: e535 9bbd 8ec2 91bd aa5f a6bc 9656 87bd
00000370: 43b8 9c3c 2333 84bc efa9 a13d 0dde 403d
00000380: 41fe 3f3d b41c 403d fa27 a03d 0274 123d
00000390: 9c6c 5cbc 3d1b 09bc e53c 853d d8be 1dbd
000003a0: bbeb 77bc bc1d 92bc f566 b7bc bd56 3cbc
000003b0: 65ff 82bc 4a40 cd3c 5a9e a63d 9c22 5d3d
000003c0: b3f1 93bd ce9c a7bd 46fd 043d 1d08 4b3d
000003d0: 001d 553d 91be 3cbc 4d58 c53a 3e71 17bd
000003e0: c040 f6bc 44c1 25bd 3a1c 173d 0b5f 85bd
000003f0: 031c ab3d bd76 873d 79cb bc3c afe5 79bd
0.09026886 -0.0007276643 -0.011524558 -0.07201061 -0.015891148 -0.038356114 0.051406454 -0.037676122
-0.11073152 -0.06469825 0.08516131 0.051760662 0.054732345 0.050600998 0.06311569 0.030783039
-0.05708015 -0.03783011 0.005180049 0.012641564 0.0687829 -0.0307268 -0.004806377 -0.08368321
0.051875804 -0.017563984 -0.008819845 -0.02177498 -0.07027356 -0.0832625 0.02749845 0.016036322
0.06317937 -0.046509124 0.050891127 0.010563295 -0.030638227 0.076999106 0.052268613 0.0040687006
-0.07784509 -0.03127694 0.024149086 0.008377123 -0.03526306 -0.015269397 -0.0038993536 0.060697492
0.04614275 -0.089407 0.027702956 -0.031349 -0.045131262 0.05629988 -0.052560102 0.08612983
0.016392322 0.036386997 0.07050524 0.052703515 0.02753496 0.07658507 -0.028322333 -0.025508244
-0.0456462 -0.07495301 0.0016413215 0.0431084 -0.04447442 -0.010004419 0.00814094 -0.023588417
0.032187127 0.031875893 -0.06775051 -0.008094703 0.06995843 -0.06634286 0.08314551 -0.005662464
0.068441354 0.09841546 -0.10554523 -0.11958427 0.047695436 -0.09044029 0.009104971 0.039136928
0.015598161 -0.054150328 -0.046616957 0.048742548 -0.040674496 -0.036309768 0.095466994 -0.0063190577
-0.0050374726 -0.023476683 0.08981419 0.11522599 -0.061227836 -0.02543656 -0.05612214 -0.058730047
0.0057492107 0.055256486 -0.047689866 0.010190974 -0.061669286 0.04225712 -0.04308514 0.039503254
-0.076877244 0.04003292 0.069656216 0.07625984 -0.04216666 0.00656124 0.022985516 -0.07339478
-0.039795056 0.0064744153 0.02922876 0.006541607 -0.0027103797 -0.0821775 -0.040808063 -0.04201978
-0.0050701867 -0.03284802 -0.09045881 -0.019105239 -0.012789815 -0.007105276 0.025644185 0.0025782797
0.025429789 0.05861122 -0.067153074 0.05950937 0.08289623 0.009094191 -0.017754212 0.06491428
-0.054906167 -0.091101274 0.09236542 -0.0015440384 0.0069056796 0.017434916 -0.006887504 0.06521537
-0.07331741 0.06563854 0.05030266 0.056375448 0.05539386 -0.07625532 -0.07277103 -0.04129651
-0.009995129 -0.03368074 0.08539853 0.05494229 0.023835996 0.092734136 -0.085294455 0.056490447
-0.021910843 0.008732595 -0.023626609 0.07402836 0.068467684 -0.055992194 0.042616114 -0.0087021375
0.000397171 -0.021548651 0.0834478 0.08949214 -0.040162142 -0.02176205 -0.011730157 -0.025797613
-0.015381715 -0.067509994 -0.052909054 0.009199664 -0.05288888 0.073578075 0.032320615 -0.021303726
0.05067364 0.04593644 0.06894094 -0.05343575 -0.0051949713 0.07143281 -0.040834505 -0.025905134
0.060464505 0.078357615 0.03269202 -0.02350042 -0.016796837 0.00043158367 -0.07128232 0.0014939297
0.071286194 0.046555 -0.051954303 -0.0061255367 -0.09113169 -0.027575815 -0.023020824 0.02142123
-0.07578639 -0.071171865 -0.020309288 -0.06608312 0.019130832 -0.016137665 0.078937404 0.047086764
0.046873335 0.046902373 0.07820125 0.035755165 -0.013453629 -0.0083683105 0.06505755 -0.03851208
-0.015131886 -0.017836444 -0.02238796 -0.011495289 -0.015990922 0.02505507 0.08135672 0.053988084
-0.07223835 -0.08184205 0.032468103 0.049568284 0.05202961 -0.011520044 0.0015056223 -0.03697323
-0.030060172 -0.040467516 0.036892153 -0.06512269 0.08354952 0.066144444 0.023046242 -0.06101006
