scripts/shell/checkpoint/checkpoint_att_agg.pt (torch, 498443 bytes, 32 tensors)

module.base.0.weight f4 [36]
00000000: 3ea7 853f 33aa 873f fb6d 7e3f 2e11 863f
00000010: b024 853f 7851 823f ac90 7c3f 0b8a 7b3f
00000020: 4417 7e3f a3f8 883f 1e63 1b3f b87d 4a3f
00000030: c12f 283f 12d1 833f 6f7e 833f 43a3 893f
00000040: e87e 843f 5d5f 8c3f f68e 933f e335 303f
00000050: 8f96 f53e be57 393f 1659 0a3f 3989 893f
00000060: fb6e 873f 3159 7e3f b498 853f 6c54 803f
00000070: 0039 9a3f 9e18 773f 5f26 7e3f bc2c 7b3f
00000080: ec80 853f 9760 853f cf76 893f 7aa9 7d3f
1.0441663 1.0598816 0.99386567 1.0473993 1.0401821 1.0181112 0.9865825 0.9825751
0.9925425 1.0700878 0.60698116 0.7909808 0.65697867 1.0298178 1.027296 1.0752949
1.0351229 1.0966603 1.1528003 0.68832225 0.4796643 0.7239951 0.54042184 1.0745002
1.0580744 0.99354845 1.0437226 1.0025764 1.2048645 0.9652194 0.992773 0.98115134
1.0429969 1.0420102 1.0739383 0.99086726

module.base.0.bias f4 [36]
00000000: fbd1 0abc 42f6 96bc 3819 febc 62dd 10bc
00000010: 6b21 f5bb 4de9 743b d1df 1039 ee42 b13c
00000020: 2ac8 e4bc 43b5 8ebd fe11 473d 8cae 6d3d
00000030: a8e1 55bc 03c8 0a3b 3aac eb3b 2ce2 adbb
00000040: 2648 403c 60b8 dbbc 114b a2bb 4969 0ebb
00000050: faa5 09bc 3185 dfbc 455d 5bbb 9637 033c
00000060: 2ab7 d03c f368 d5bb fd3f 9d3c d0cd cc3c
00000070: 931a 023d a7fe 933d 5579 d7bc 1dce 0f3d
00000080: 0b78 583c 4fab cb39 577f 403b f2e5 1bbc
-0.008472915 -0.018427972 -0.031017885 -0.008841844 -0.0074807904 0.0037370503 0.00013816288 0.02163836
-0.027927477 -0.06968167 0.048601143 0.05802779 -0.013054289 0.0021176345 0.007192162 -0.005306503
0.0117359515 -0.026821315 -0.0049527963 -0.0021730235 -0.008401388 -0.02728519 -0.003347234 0.008008858
0.025477964 -0.006512755 0.019195551 0.025000483 0.031763624 0.072263055 -0.026302973 0.035108674
0.013212214 0.00038846812 0.0029372775 -0.009515272

module.base.1.layers.0.weight f4 [256, 36]
00000000: 2d11 9c3d bbec 6e3d 112a e2bc a365 88bd
00000010: a840 8b3a 0932 e0bc 61a2 1c3e 1883 f0bd
00000020: 61c2 11bd 434f a2bc 558f 023d 3851 d4bd
00000030: 0cc1 aebd 3c89 ba3d fb48 0ebe fd37 8e3d
00000040: 7152 afbd 0038 e93d acec cabd 53f7 be3c
00000050: 58ca 4bbd ec55 03be 3ee0 4fbc d3b3 8f3d
00000060: b7a8 d23d d516 42bb f942 7a3d fe94 943d
00000070: 2996 273e 5c10 883d 3245 f1bc 46c7 b7bd
00000080: 6854 bbbb b441 27be a464 99bb a4fc 0d3e
00000090: 534b f03c 6660 3fbd a133 923d b24a 403e
000000a0: 1ca5 60bd 29dd fd3d 7ba8 40bd 784f 093e
000000b0: 6e97 5b3d c385 f1bd c57f eb3c 3230 7ebd
000000c0: 8827 e0bd 7b22 0f3e 1d65 6f3d 09c5 f03d
000000d0: 9c84 083e f885 1c3e 7904 ca3d 6d97 1fbd
000000e0: 5037 febc a50f 783d 8c2a 063d db15 3d3b
000000f0: 2d9f 82bd d91a 51bd 799c 273c 440f 043e
00000100: 947a b5bd 1e57 393d ee29 983d 8fd0 123e
00000110: 4270 6c3d d99f 2b3e a4b0 35bd e776 d3bb
00000120: 305e 8b3d 7fd6 af3d cdc9 18be 0efd 00be
00000130: 87a8 d0bd 2b1d e8bd 7e2a dc3b 0315 933d
00000140: e0aa dd3d e2e6 b1bc b7b6 93bd 93d9 e4bd
00000150: 60f7 983d 3bd3 073e 667a d7bd ab6b cb3d
00000160: a68c 5f3d 0651 8c3c 32fa 1cbe 03f0 cabd
00000170: da3e 16bd c3a4 373e 9fbf ff3d 66bb 083d
00000180: bfed b13d 4bc1 e43d dc1c e5bd 4099 753d
00000190: f999 00be 03cd e73d a0b2 803c be0e dbbd
000001a0: 5095 9e3d b678 b03d eeb9 56bd e779 753d
000001b0: e426 f03d 5c7f 093e 8f45 18be b3c2 2e3d
000001c0: 9bd1 083d ab95 1d3e c6c2 113e 37c1 913d
000001d0: 5e19 74bd b579 c4bd ed4d 273d f70f 0f3e
000001e0: de2f 5bbd 870b 95bd d27b 1ebe e23f 5c3d
000001f0: f2da f73d 469f 713b 4e83 bcbd e25c b8bd
00000200: 9ab7 90bd 376f 50bd 1ab4 873d 42c1 fd3d
00000210: 5972 9bbd 8107 eb3d 4aa4 cdbd 348d 00be
00000220: bf8f 01be a540 99bd 0c92 543d accd 2b3d
00000230: bba2 043e 410e 1cbe 4e93 0c3c 83da bebc
00000240: b47f 8abd 9edf 763c 28fa db3d d5ff 5abd
00000250: 535d 65bd 3b0e 023e 7149 283d 7af6 c83d
00000260: 3730 80bd 5285 ae3d 4697 413c 9fc6 06bd
00000270: cb44 863d b12c 3cbe 2c75 85bd a44a 003e
00000280: c57c 2d3d c8d6 823a 492e 9dbc af84 5ebd
00000290: 3ee8 abbc c0d8 fd3d 7b23 5a3d a6fc 88bd
000002a0: 6935 333d d920 c3bc 66c5 f13d 9f36 ed3d
000002b0: bb7f eabd 191b f6bd 388b a1bc 70bb b93d
000002c0: b393 bfbd 1445 25be 46ad e53b 8f4e a83c
000002d0: 7f43 d6bd b398 9cbd 916e 8f3d e3c4 fcbd
000002e0: 3308 f1bc acbb ef3d 89d7 72bc 1f76 733c
000002f0: 480b 0bbe d903 babd e401 963d a253 483c
00000300: 01cf 58bd 75df b5bd 0cd5 4abd 475f 293e
00000310: 967b 083d aae5 85bd 0d26 17be a9e4 91bd
00000320: 0c79 f53d 5ba2 2abe 79e7 babd b21f 2dbe
00000330: 2609 1ebe c7f6 5abd 5f04 e43d fc38 c3bc
00000340: 399e f53d d0f5 e5bc 37e1 fdbd 4de3 f03c
00000350: d2b9 043e 5b58 a5bd aa18 023e 05b1 bdbd
00000360: 8c05 6b3d 4edc 1cbe b614 83bd b996 22be
00000370: e432 c23d 56c3 97bc 26a3 1abe 0a6a e73b
00000380: c5d4 fcbb fb6c a23d a9ac abbd 3f9c 34bd
00000390: d1f7 b3bd 36d1 21be d845 bb3d 71c1 9ebd
000003a0: 085d 75bb 2b5f 173e cb72 c63d 98c9 d2bd
000003b0: ca41 23be 5bd9 be3d 1ddc 6aba 3c23 67bd
000003c0: 8e54 0b3d 77e0 0f3e 0c72 39bb a800 09be
000003d0: 6a7a 283d 9ee3 a9bd e019 cebd 7227 21be
000003e0: 0a55 ebbd 9fe8 7dbd 2d4d e13d 56e8 2d3d
000003f0: a045 d3bd 7d9a d1bc 5a7c 263e 89ff 7bbd
0.076204635 0.058331233 -0.02760795 -0.06660011 0.0010624127 -0.027367609 0.15296318 -0.11743754
-0.035585765 -0.019813186 0.031874973 -0.10367054 -0.085329145 0.09108207 -0.13895027 0.06944273
-0.08560646 0.11387634 -0.09908423 0.023311293 -0.049753517 -0.12825745 -0.012687741 0.070167206
0.10286086 -0.002961566 0.061099026 0.072549805 0.16365875 0.06643745 -0.02945194 -0.08973555
-0.005716849 -0.16333658 -0.0046811868 0.13865906 0.029332792 -0.046722792 0.07138754 0.18778494
-0.05484496 0.123956986 -0.047035675 0.13409221 0.05361121 -0.11793091 0.028747449 -0.06205768
-0.1094504 0.13977997 0.05844604 0.117563315 0.13331836 0.1528548 0.09864134 -0.03896277
-0.031032234 0.060561795 0.03275542 0.0028852138 -0.063780166 -0.051050995 0.010230177 0.12896448
-0.088612705 0.045249097 0.074298725 0.14337371 0.057724245 0.16760196 -0.04435791 -0.0064533832
0.06805074 0.08585834 -0.14920731 -0.12596533 -0.10188394 -0.11333688 0.0067189327 0.07181742
0.108236074 -0.021716539 -0.072125845 -0.111743115 0.07469058 0.13264172 -0.105213925 0.099326454
0.054577492 0.017128479 -0.15329817 -0.0990906 -0.036681034 0.17933945 0.12487721 0.033381842
0.086879246 0.1116968 -0.11187145 0.059960604 -0.12558736 0.113184 0.015710175 -0.10696171
0.07743323 0.08616774 -0.05242341 0.05993071 0.11726168 0.1342749 -0.14870284 0.04266615
0.03340302 0.15389125 0.14234456 0.07116931 -0.059594505 -0.09593526 0.0408458 0.13970934
-0.053512447 -0.07277589 -0.15476921 0.05377186 0.121023074 0.0036868616 -0.09204732 -0.09002091
-0.07066269 -0.050887313 0.066261485 0.123903766 -0.075901695 0.11476041 -0.10041101 -0.12553865
-0.12652491 -0.07483033 0.051897094 0.04194419 0.12952702 -0.15239812 0.008580042 -0.023297554
-0.06762639 0.015067963 0.10741073 -0.053466637 -0.055997204 0.12700741 0.041085664 0.09812637
-0.06259196 0.085215226 0.011815852 -0.032904264 0.0655609 -0.18376423 -0.065164894 0.12528473
0.042355318 0.0009982223 -0.01918711 -0.054325756 -0.020984765 0.123948574 0.053256493 -0.06688814
0.043752108 -0.023819374 0.11805229 0.11582684 -0.11450144 -0.12016887 -0.019719705 0.09068954
-0.09354343 -0.16139632 0.007009181 0.020545272 -0.104620926 -0.076463126 0.07003511 -0.12342241
-0.029422855 0.117057174 -0.014821895 0.014859705 -0.13578522 -0.09082765 0.07324579 0.012226971
-0.05293179 -0.08880512 -0.049519584 0.16540252 0.033320986 -0.065379456 -0.14760609 -0.071236916
0.119859785 -0.16663496 -0.09126181 -0.16906622 -0.15433177 -0.053458 0.11133646 -0.023830883
0.11993069 -0.028071314 -0.12396472 0.02940526 0.1296151 -0.08073493 0.12704721 -0.092622794
0.057378337 -0.15318415 -0.06400435 -0.15877809 0.09482363 -0.01852576 -0.15101299 0.0070622014
-0.007715794 0.079309426 -0.08382542 -0.04409432 -0.087875016 -0.15802464 0.09144181 -0.0775174
-0.0037439484 0.14782397 0.09689864 -0.10292357 -0.15943065 0.09318801 -0.0008959191 -0.056430086
0.034016185 0.1405047 -0.0028296737 -0.13379157 0.04113237 -0.08295368 -0.10063529 -0.15737703
-0.11490829 -0.061989423 0.11001048 0.0424579 -0.10316014 -0.025586361 0.16258374 -0.061522994

module.base.1.layers.0.bias f4 [256]
00000000: 9056 07be 2bd0 9fbc 4965 203e e741 883d
00000010: ff17 143e 8ac2 173e 3eb3 c2bd 79c4 b13d
00000020: 118b ccbc 3d82 063e c45d b43d 7ff4 153c
00000030: 84ec c63d 30a7 a4bd 5d25 4fbd a4a9 073e
00000040: 2e1a 0ebe 6ba3 1fbe 5fc4 8f3b 930d be3d
00000050: 01fd 703d 76f6 2dbd 031c 09be 6435 a73d
00000060: e1f1 ccbc b61f 02be 026f 12bd 2f8b e5bb
00000070: 370b aabd 783f ec3d 6739 b0bd 65e1 0fbe
00000080: e54a 35be a0a1 3ebd c5bc f33d ec43 773d
00000090: fef1 45bd 6284 113e 9264 08be 08a2 e03b
000000a0: 4fae 5b3d 5302 4d3c e55d 433d 709b 2abd
000000b0: d9f6 0fbe 357a 9c3c 8f1e f23d 81ae c7bc
000000c0: dfd8 b6bd a838 f7bc 0389 6ebd c350 b6bd
000000d0: 4584 903d 9bda 223e e318 963a dd31 f2bd
000000e0: e54a 393c 2830 ce3d 0dca e6bd 2359 86bd
000000f0: 40a0 15be 23bb 9dbd 929b 11be a0fd 5b3c
00000100: ba1e 49bd a7ba 7dbd 900a aa3d 8ff8 dc3d
00000110: 3517 ed3d 7d5a 09be fe1a b23d 59b5 243d
00000120: b07f 01be 6e86 00be dbe5 bcbd 3c12 2f3e
00000130: e5e6 0c3e 3bd3 fbbc 1e39 a03d 1efd 01be
00000140: e4fb 023e d0e2 083e 1fa3 a2bd 567e 0fbe
00000150: 9663 b43d 3194 0a3e ca1d 0d3e f894 21be
00000160: 3d56 bf3d 58ef 933d 09e6 0abe a4aa 8d3d
00000170: 7bcf f7bd 8b3e eebd 635c 003d 6147 39bd
00000180: 4543 1e3e 0b86 983d dd01 6c3d 4222 e63d
00000190: be6f 983d 2934 513d ab1c 19be d565 cb3c
000001a0: f379 12be ca48 913d c8ff d8bd d64c 2f3e
000001b0: 0d19 bebd d6c7 c03c ff78 b53d 5c4b afbd
000001c0: 5f10 f8bd 0115 e1bd d407 a6bc e233 313c
000001d0: dbe2 e93d 679e 15be adc8 893d d8d6 a33d
000001e0: 75f5 ab3d 135f acbd aff7 f43d a4d6 95bc
000001f0: c27c 113e 9f62 0dbe e88c 22bd a27e 553d
00000200: 88e6 cbbd 332c 023e 4757 34bd af95 a4bc
00000210: f3bc 033e 71c0 903d 53d5 7ebd 666e a63c
00000220: 8af9 edbd 691d e63d 3f8e 603d 0c88 163d
00000230: 4a45 30bd 0143 41bc b17d 253e 34c1 ab3d
00000240: ce9d 36be 682f 853d 1351 01be 0385 143e
00000250: ebae 13be 7877 443e 15bf 1cbd 467f a93d
00000260: 372d cc3d a862 f5bd 1892 99bd 2fbf 763d
00000270: 50dd aa3d 8647 fb3d 9dc4 92bd 442b 22be
00000280: bfa7 6a3d 752d 61bc 5287 89bd 1c4a b3bc
00000290: 1a5e a43d 0f8a 9d3c afef c53d b322 cfbd
000002a0: ece8 e9bc a2a6 9b3d 2773 803d a362 13be
000002b0: 8ba6 60bd 8c29 b93d 7404 1dbe e44e 25bc
000002c0: 64a0 a1bc 5e2f 54bc 0c9c f33d 6619 a2bd
000002d0: bf5f 2abd 7350 573d eff6 42bd 4299 3ebd
000002e0: 4814 07be 2eac e93d 5365 3c3d eb6e 953d
000002f0: 469d 6b3d 0bf9 be3d 8b42 993c 3e72 bebd
00000300: 8066 04be 9da4 8abd 31db 903c 48e0 983d
00000310: 5d09 cb39 117a 89bd 93bf 2d3d 6435 f2bc
00000320: af12 97bd 46fd b23d 0467 ca3c 0287 b4bd
00000330: 41da 23be 4345 113e fea6 e73d 6081 e23d
00000340: 7c98 5a3d 6b2b 563d cbc2 04be 38cc 0f3e
00000350: 264d 08be 4704 123e 5fb2 a43d 40eb 7b3d
00000360: 6f20 823d aefc b63d 9989 c03b 5e84 bd3b
00000370: db7a f13d f524 063e 0971 88bd 2ff0 6bbd
00000380: 24de 5b3d 11aa a53d 3a1c cb3d 0bea 4abd
00000390: f36c b9bc a8fb 25be bb24 253e cddd 743d
000003a0: d7a7 973c d71a 68bd 1b19 c3bd b850 0a3e
000003b0: b3e7 2b3e effa 0ebe aa21 ab3d fdd9 0ebe
000003c0: ce15 ecbd 49aa 25bc fe61 153e 6068 cabd
000003d0: fb9e 1d3e b67b a7bc 45a5 1e3e 1028 29be
000003e0: d6a5 02be 29bc 1ebb ea89 e93d be03 eb3c
000003f0: 9037 943d 117a a7bd 173d 85bd 5a12 cd3c
-0.13216615 -0.019508442 0.15663637 0.06653195 0.14462279 0.14820305 -0.09506844 0.08680052
-0.024968656 0.1313562 0.08806947 0.009152531 0.097130805 -0.08039701 -0.05057274 0.13248307
-0.13877174 -0.15589683 0.004387423 0.09279933 0.058835033 -0.04247137 -0.13389592 0.0816448
-0.02501768 -0.1270741 -0.035750397 -0.0070051174 -0.0830292 0.11535543 -0.08604699 -0.14050825
-0.17704351 -0.046540856 0.11901239 0.06036751 -0.048326485 0.14210656 -0.13319615 0.006855253
0.05363303 0.012512761 0.047696967 -0.041652143 -0.14059009 0.019101242 0.11822235 -0.024375202
-0.08928084 -0.030178383 -0.058236133 -0.08902123 0.070564784 0.15903704 0.0011451509 -0.11825917
0.01130936 0.10067779 -0.11269007 -0.0655997 -0.14611912 -0.07701709 -0.14219502 0.013427168
-0.04910157 -0.061945584 0.08302796 0.10789596 0.11576692 -0.13413425 0.086965546 0.04021201
-0.12646365 -0.12551281 -0.09223529 0.170968 0.13759954 -0.030740371 0.07823394 -0.12694213
0.12791401 0.13367772 -0.07941269 -0.14013037 0.08808057 0.13533093 0.13780895 -0.15779483
0.093426205 0.072233856 -0.13564314 0.06917313 -0.12100121 -0.11633023 0.031338107 -0.045234088
0.15455349 0.07447442 0.057618964 0.11237003 0.07443188 0.051075134 -0.14952342 0.02482883
-0.14304332 0.070939615 -0.105956614 0.17119154 -0.09282122 0.02353279 0.08860969 -0.085592955
-0.121124975 -0.10990334 -0.020267405 0.0108155925 0.11420222 -0.14611207 0.06727729 0.079999626
0.083964266 -0.084165715 0.119613044 -0.018290825 0.14207748 -0.13807152 -0.03968516 0.05212272
-0.0995608 0.12712173 -0.044028547 -0.020090906 0.12865047 0.07067955 -0.06221516 0.020316314
-0.116198614 0.11236078 0.054823156 0.03675084 -0.04303483 -0.01179576 0.16161229 0.0838646
-0.17833635 0.06503183 -0.12628584 0.14503865 -0.14422195 0.19186199 -0.038268168 0.082762286
0.099695615 -0.11981708 -0.07498568 0.06024092 0.08342993 0.122695014 -0.07166407 -0.15836817
0.05728888 -0.013743748 -0.067152634 -0.021885924 0.08025761 0.01923087 0.09664857 -0.1011404
-0.028553449 0.07600142 0.062719636 -0.14393096 -0.054846328 0.090411276 -0.1533373 -0.01008961
-0.0197298 -0.012950746 0.11894998 -0.079150006 -0.041595217 0.052566957 -0.047598775 -0.046532877
-0.1319133 0.11409794 0.045995068 0.072965465 0.057523035 0.09324845 0.018708488 -0.09299134
-0.12929726 -0.06769679 0.017682644 0.07464653 0.00038726153 -0.067127354 0.042419028 -0.029566474
-0.073766105 0.08739714 0.024707325 -0.08814813 -0.16001226 0.14186577 0.11311148 0.110598326
0.053368077 0.0522875 -0.12964933 0.14042747 -0.1331068 0.14259444 0.08041834 0.06150365
0.063538425 0.089349136 0.005875778 0.0057836017 0.11791011 0.13100035 -0.06662185 -0.057602104
0.053678647 0.08089078 0.09917493 -0.049539607 -0.022634959 -0.1620928 0.16127293 0.05978184
0.01851265 -0.05666622 -0.09526273 0.13507354 0.16787605 -0.13962911 0.0835603 -0.13950343
-0.115275964 -0.0101114 0.14588162 -0.09883189 0.15392677 -0.020444732 0.15492733 -0.16519189
-0.12758574 -0.002422104 0.11403258 0.028688308 0.0723716 -0.08177579 -0.065057926 0.025033165

module.base.1.layers.2.weight f4 [256]
00000000: b985 803f 601f 803f 623a 7d3f 0118 833f
00000010: ecf1 7f3f 3e8a 823f 55a7 7f3f a525 873f
00000020: 736e 813f a0d8 833f 05bb 873f dbda 833f
00000030: 248b 853f 2364 863f 8020 843f ce09 823f
00000040: 8f3d 963f 9324 813f 6fd4 7d3f f45d 813f
00000050: 9e77 873f 7bba 813f f020 833f 1501 843f
00000060: ae94 823f 112d 813f 7848 803f ef67 813f
00000070: 2d16 843f f3de 813f 8741 823f b29e 843f
00000080: b68c 823f 2794 7e3f dabf 843f 9668 883f
00000090: e954 823f 753f 853f 64a9 7f3f 1d29 7e3f
000000a0: c816 8f3f 20a8 813f 25af 833f 3e90 7f3f
000000b0: 3376 803f 5825 813f 1d3f 873f 1286 8e3f
000000c0: 1c59 8a3f daab 893f 550c 823f 36b4 883f
000000d0: e692 883f f012 833f 2477 7d3f cd69 843f
000000e0: c73f 843f 10f6 853f 1113 873f d2b5 803f
000000f0: 510d 803f 4a03 823f 83fe 7f3f e1f0 823f
00000100: 860b 803f 8109 833f e86c 823f 913e 843f
00000110: 45f8 813f 0a03 7e3f c417 843f 8870 7f3f
00000120: c7f1 853f fe6e 7f3f e9da 813f 0ebb 823f
00000130: e1b5 853f 35a1 7e3f 8802 803f 5583 813f
00000140: 1490 823f 8919 883f 2e68 7f3f 7a40 853f
00000150: 126d 803f adcd 853f e093 863f cf91 7d3f
00000160: 9dd3 873f 53fd 813f a7da 813f 4184 7e3f
00000170: ee69 8b3f 5326 843f efcd 7f3f 0fb4 823f
00000180: ed8b 803f d206 833f 2b31 813f 77c9 803f
00000190: 9df4 843f 5bbf 7f3f 2388 8a3f d883 813f
000001a0: d49b 803f 7a6c 843f bac9 823f 0092 833f
000001b0: 1939 7f3f 2bab 813f bdfe 7e3f e772 813f
000001c0: 189b 853f 8d4b 8d3f f507 883f ed10 843f
000001d0: e22f 843f 2f3f 7f3f e237 853f 3e04 853f
000001e0: d7e8 823f db3d 813f 2d06 8b3f 2a87 803f
000001f0: 1e3b 843f c1dd 7d3f 4ffd 813f 68ce 803f
00000200: a215 843f fab6 833f 790a 813f 2b47 843f
00000210: ed82 7d3f 6c19 843f 9f1c 813f ad39 8a3f
00000220: 53eb 823f 2721 843f 59c2 873f 8f85 803f
00000230: b1dd 853f 9db1 823f fdeb 813f 59fb 853f
00000240: edc3 813f ae2f 853f 9ae9 853f 014b 843f
00000250: 3e32 813f 6b4d 873f d38d 803f 9b8b 803f
00000260: f4d7 813f e66e 7e3f 4f18 843f f126 833f
00000270: 24ea 7e3f 3879 833f 7346 823f cd3d 813f
00000280: e187 863f 0d79 813f 1379 803f 8e78 813f
00000290: 6d88 823f 49e9 823f 8f17 843f 7dab 7d3f
000002a0: 306e 803f 3d4c 833f ac0d 833f 4439 833f
000002b0: 6f1e 803f 70d5 803f 2811 873f 9051 8c3f
000002c0: cd20 813f f2cb 863f 1959 7e3f 155e 833f
000002d0: 787a 833f 98bb 803f fb64 803f 2e94 823f
000002e0: c048 823f 3405 823f 319a 803f e2fe 833f
000002f0: 834f 873f 6128 883f 9ee1 833f 146b 833f
00000300: 5a37 823f f545 813f 0cde 903f fdf7 7e3f
00000310: 0516 7f3f e9bb 8b3f 0d16 803f 8b0c 8a3f
00000320: 67a1 833f 9ec6 873f e718 8e3f 4d9b 7f3f
00000330: 1c47 803f cd0c 853f b974 803f 805a 843f
00000340: cd54 833f 21cd 813f 7ac4 853f b171 813f
00000350: 316c 873f a90b 813f eef5 863f 4d54 803f
00000360: 94a7 803f f26d 863f 93bc 7e3f 5447 873f
00000370: d5ef 883f d68c 813f a41b 803f 4593 823f
00000380: 5055 863f 8bbb 813f a6fe 843f 5cf9 853f
00000390: 81b3 833f 5b8c 823f dfea 813f f4ac 803f
000003a0: 1b92 803f 1dd9 883f a3fb 7f3f 860f 833f
000003b0: b87d 833f 8e09 7d3f fee7 813f c292 813f
000003c0: 5615 803f 3f0f 893f f681 803f cf4d 7f3f
000003d0: bbab 843f 70e6 7f3f 09fb 813f c6ba 823f
000003e0: 1ff6 873f fa30 803f a260 803f 475b 813f
000003f0: 42d1 8a3f df4e 823f 5f09 833f 66a8 813f
1.0040809 1.0009575 0.9891721 1.02417 0.9997852 1.0198438 0.99864703 1.0558363
1.0111831 1.0300484 1.0603949 1.0301164 1.0433087 1.0499309 1.0322418 1.0159242
1.1737536 1.0089287 0.9915227 1.0106797 1.0583379 1.0135034 1.0244427 1.031283
1.0201623 1.0091878 1.0022116 1.0109843 1.0319268 1.0146164 1.0176247 1.036093
1.0199192 0.9944481 1.0371048 1.0656917 1.0182163 1.040999 0.99867845 0.99281484
1.1178827 1.0129433 1.0287825 0.9982947 1.0036072 1.0089521 1.0566136 1.1134665
1.0808444 1.075557 1.0160013 1.0679996 1.066983 1.0240154 0.9900992 1.0344788
1.0331963 1.0465717 1.0552694 1.0055487 1.0004064 1.0157254 0.9999773 1.022976
1.0003517 1.0237275 1.0189486 1.0331594 1.0153891 0.9922339 1.0319753 0.99781084
1.046441 0.99778736 1.0144931 1.0213335 1.044613 0.9946473 1.0000772 1.0118204
1.0200219 1.0632793 0.9976834 1.0410302 1.0033286 1.0453392 1.0513878 0.9905061
1.0611454 1.0155433 1.0144852 0.99420553 1.0891702 1.0324196 0.99923605 1.02112
1.0042702 1.0236456 1.009313 1.0061482 1.038715 0.9990136 1.0822796 1.011836
1.0047555 1.0345604 1.0217812 1.0278931 0.996965 1.0130361 0.9960745 1.011319
1.0437956 1.1038681 1.0627428 1.0317665 1.0327113 0.99705786 1.0407679 1.039192
1.0227307 1.0097002 1.086126 1.0041249 1.0330541 0.99166495 1.0155429 1.006299
1.0319102 1.0290215 1.0081321 1.0334219 0.990279 1.0320258 1.008686 1.0798851
1.0228065 1.0322617 1.0606185 1.0040759 1.045828 1.0210453 1.0150143 1.046733
1.0137917 1.0405176 1.0461915 1.0335389 1.0093458 1.0570501 1.0043281 1.0042604
1.0144029 0.9938797 1.0319918 1.0246259 0.9957602 1.0271368 1.0177749 1.0096985
1.0510217 1.0115067 1.0036949 1.0114915 1.0197884 1.0227443 1.031969 0.99089795
1.0033627 1.0257641 1.0238547 1.0251851 1.0009288 1.0065136 1.0552111 1.0962391
1.0088135 1.0530989 0.993547 1.0263087 1.027175 1.0057249 1.0030817 1.0201471
1.0178452 1.0157838 1.0047055 1.0312159 1.057114 1.0637323 1.0303228 1.0267053
1.0173142 1.0099474 1.1317763 0.9959715 0.99642974 1.0916721 1.0006729 1.0785078
1.0283631 1.0607488 1.110135 0.99846345 1.0021701 1.0394531 1.0035621 1.0340118
1.0260254 1.0140725 1.0450585 1.0112821 1.0579892 1.0081683 1.0543802 1.0025727
1.0051141 1.0502303 0.9950649 1.0568643 1.0698191 1.0121105 1.0008435 1.0201193
1.0494785 1.0135359 1.0390213 1.0466723 1.0289155 1.0199083 1.0149802 1.0052781
1.0044588 1.0691258 0.9999334 1.0239112 1.0272741 0.98842704 1.0148923 1.0122912
1.0006511 1.0707778 1.0039661 0.997281 1.0364908 0.99960995 1.0154735 1.0213249
1.0621985 1.0014946 1.002949 1.0105981 1.084511 1.018032 1.0237235 1.0129516

module.base.1.layers.2.bias f4 [256]
00000000: c5de 953c 06d6 c63c 0a7d 643c 2fbd aabb
00000010: 92bd f2b9 3e39 823b 2a51 9c3a 9242 ed3b
00000020: 87da 9bb9 1956 8b3b d8c9 85bc 12d8 7d3b
00000030: debb 573c afea 5e3c 7f7c d6bc 2164 283b
00000040: eb95 89bb 3e21 54bc 7d03 0f3b 0159 053c
00000050: e407 203c fed3 c43b 5af9 263c 88e9 903b
00000060: 6bba 9fbb b8b1 853c a81b a5ba f8b9 84ba
00000070: fc89 7ebc ce7c 933c 580d ac3c 29ef 4bbc
00000080: 0daf 22bb e049 ba3b 90bc da3b 8a4d 5bbc
00000090: eb7c f43b a7df e7ba 1051 c43b c3a2 47bb
000000a0: e2ff 9b3b a90a 9bba 7f03 35bc a34b a33c
000000b0: 38e8 883c 1bbc cc3b 9a77 40bc 6e54 9a3c
000000c0: fb29 1ebc 321f 953b 0581 fe3b 9bab 693b
000000d0: e555 8bbb ea8e 7f3c cb74 1c3c 0c92 0cbd
000000e0: e560 ac3b ca0e 2e3b 8cfc a2bc b189 c3ba
000000f0: ca33 3f3c ed56 16bc 227f 30bb a331 073c
00000100: d1df fc3b ba22 7ebb 68dc d73c a88c c83b
00000110: 57bf cabc 5e51 dd3b 8625 953c 1e3a 1d3a
00000120: 5ddd b1bb 5f5f 573c e5e6 1fbb 42e5 22bc
00000130: 4eea a0ba 4cba 7a3a 3b3b b23c 5baa 8a3c
00000140: 792e f2bc 9a56 51bc 3f41 b33b d2e5 16bc
00000150: eff9 183b 3fbf a13c 60df 023c c376 71bc
00000160: 33b4 a73b 35f6 9bbc 6f89 953b 3d97 643c
00000170: 0e7d e93c 038d 24bc a798 6e3b 1e51 74bc
00000180: cf0e 4e3c 50ec 1ebc 5796 e8bb 4b2e 8dbb
00000190: b09f babc d126 90bb 0bf6 753a 567b fabb
000001a0: 36ea 893b 237e cebb 1efb 80bc b6ce 6a3c
000001b0: f1c6 8dba 1f83 15bd 2c4c 50bb 1e2b 033b
000001c0: 1016 cdbb 3e7f 5dbc f9a1 093c de89 5bbb
000001d0: c5f0 d13b 7fdd 14bc 0d16 753c b5f5 023d
000001e0: ba7d 433c f5f6 f8ba c2ea de3c fcb3 40bc
000001f0: 8abd 00ba e7f5 6fbc 69f6 d13b ffef d83b
00000200: 7a52 e73b 90c0 773c 5ac3 9e3a a71e 0abc
00000210: bbbb 703b b494 5fbc cb3a 713c 961f afbc
00000220: edd4 9a3b 22b8 a73b 26e1 4b3b 461c 5abb
00000230: ba6c 3d3c d9ea aa3b 560b bb3c f93a 15bc
00000240: 1e8e bebc 71a9 3c3c f25e c2bc 6f94 7ebc
00000250: 912d 5ebc db61 373c 59d3 ddba ed5c 5d3c
00000260: bf5e 77bc 5644 2e3c f646 b7bc 50bd 0b3c
00000270: cf2f 273d 7158 0ebb b2c4 933c c18e 3bba
00000280: 8165 86bc 5b19 903c 0148 4c3c 8602 873b
00000290: 5939 ef3b 12b3 f2ba b157 d13a ca9b 873c
000002a0: 7f6b 2bbb 451f af3c bfaf 073d bd14 063b
000002b0: 6f39 1f3b e3fc a9bc f59c 253a 1bf2 efbb
000002c0: a549 0d3c 77d0 42bc d1d8 74bb c3cb 80bc
000002d0: 4626 8c3c 6af1 2f3c 5556 a33a fce8 433b
000002e0: 7ff4 72bc 0106 02b9 6c36 a3bb 74cc 0abc
000002f0: 0d1d 01bc f502 1abd 360b 5dbc 818a 10bc
00000300: eb87 cabb a8aa a23a 1e70 2b3b ed57 1fbc
00000310: 1f02 843b 15c6 253c ee23 d9bb 1113 543b
00000320: 8268 68bc e1b0 113c a869 16bd 533d be3b
00000330: 8cd2 b8bc d7ae abbc 8f56 1e3c ee1f 573b
00000340: 9ae7 72bc 6e5f 98ba 81aa 32bd fed5 70bb
00000350: 8613 dbbb 1d64 f13c 5735 503c 9054 23bc
00000360: 3c32 6c3c dbde 9abc 143a 04bc 17cf 42bc
00000370: d1ba bc3c 16ba e53b df6f f4bb 0299 43bc
00000380: 1afd 77bb 3709 143c 3d58 bcbc 3925 15bb
00000390: a596 9dbc 6831 cdbb b775 aa3c 2e2b ae3b
000003a0: 75bc fabb c6db b23b 800f 4abc 2dbf 783a
000003b0: 8030 7f3c aaa1 593c b794 8e3c e3e7 343c
000003c0: 8044 44bb 7cc0 8c3a d0ae 75bc 1dc0 9fbb
000003d0: 8103 91ba 83d7 18bc a957 c63c f444 36bc
000003e0: bc31 86bc 8be0 cfbb 399d 13bb 7ff0 23bc
000003f0: 64e0 7f3c fa7d 6dbb e705 e4bb 820e 4bbc
0.018294701 0.024271976 0.013945827 -0.0052105407 -0.00046299078 0.003974109 0.0011926044 0.007240602
-0.0002972672 0.004252207 -0.016331598 0.0038733524 0.01316735 0.013605758 -0.026182411 0.0025694447
-0.00419878 -0.012947379 0.0021822148 0.008138896 0.009767506 0.0060067168 0.010191286 0.0044223703
-0.0048745177 0.016320094 -0.0012596743 -0.0010126224 -0.015535828 0.018003847 0.021002457 -0.012447157
-0.0024823577 0.005685076 0.0066753104 -0.013385186 0.0074611804 -0.0017690555 0.0059911087 -0.0030462004
0.004760728 -0.0011828738 -0.011048197 0.019933527 0.016712293 0.00624801 -0.011747265 0.018839087
-0.009653564 0.004550838 0.007766845 0.0035655263 -0.004252183 0.015598038 0.00954933 -0.03431897
0.005260574 0.0026559108 -0.019895814 -0.0014918355 0.011670062 -0.009175998 -0.0026931246 0.00825158
0.0077171107 -0.0038778023 0.026350215 0.006120283 -0.024749441 0.0067540845 0.01820637 0.0005997735
-0.005428 0.013145297 -0.0024399098 -0.009942355 -0.001227686 0.00095645036 0.021756759 0.016926935
-0.029563176 -0.012776995 0.0054704244 -0.009210067 0.0023342331 0.019744514 0.007987827 -0.014737788
0.005117917 -0.0190383 0.0045635025 0.013952074 0.028502014 -0.010043385 0.0036406906 -0.014911918
0.012576773 -0.009699896 -0.007098 -0.004308497 -0.022781223 -0.0043991585 0.00093826716 -0.0076440973
0.0042088283 -0.0063016578 -0.015744742 0.01433151 -0.0010816735 -0.036502 -0.0031783683 0.0020014714
-0.0062587336 -0.013519106 0.008400434 -0.0033498923 0.006406876 -0.009086012 0.014958871 0.031972606
0.011931831 -0.0018994497 0.02721155 -0.011761662 -0.0004911056 -0.01464603 0.006407548 0.0066204066
0.0070593925 0.015121594 0.0012112663 -0.00843016 0.003673299 -0.013646293 0.01472349 -0.021377366
0.0047250898 0.005118386 0.003110954 -0.0033281012 0.011561567 0.0052159843 0.022832554 -0.009108298
-0.023261126 0.011515007 -0.023726914 -0.015538319 -0.013560669 0.011192764 -0.0016923948 0.013510925
-0.015098273 0.01063641 -0.022372704 0.008529022 0.04081708 -0.0021720196 0.018038128 -0.0007154756
-0.016405823 0.017590215 0.012468339 0.004120174 0.0073005375 -0.0018516502 0.0015971569 0.016553778
-0.0026156602 0.021377215 0.03312659 0.0020459138 0.0024295708 -0.020750469 0.0006317639 -0.0073225624
0.008623515 -0.011890522 -0.0037360678 -0.015722161 0.017108094 0.01073871 0.0012461642 0.0029893508
-0.0148288 -0.00012400003 -0.004980853 -0.008471597 -0.007880461 -0.037600476 -0.013491442 -0.008822084
-0.0061807535 0.0012410479 0.0026159356 -0.009725553 0.004028573 0.010118027 -0.0066265976 0.0032359997
-0.014185073 0.008892269 -0.036721855 0.0058056503 -0.022561334 -0.020957394 0.009664192 0.0032825428
-0.014825726 -0.001162512 -0.043619636 -0.0036748643 -0.006685677 0.029466683 0.01270803 -0.009968892
0.014416274 -0.018905094 -0.0080704875 -0.011890194 0.0230383 0.0070107086 -0.007459625 -0.011938335
-0.003784007 0.0090354 -0.022991294 -0.0022757782 -0.019236872 -0.006261993 0.020808084 0.005315206
-0.0076518604 0.005458328 -0.012332797 0.00094889366 0.015575528 0.013283173 0.017404897 0.011041614
-0.0029948056 0.0010738517 -0.014995292 -0.0048751966 -0.0011063666 -0.009328726 0.024211721 -0.011124838
-0.016381137 -0.0063439063 -0.0022524132 -0.010006069 0.015617464 -0.0036238418 -0.0069587114 -0.012393596

module.base.1.layers.3.weight f4 [128, 256]
00000000: b9f8 133d e313 c63c ee94 193d 46b6 1bbc
00000010: b22a 24bd 276d 05bd 7e88 503d a66a b73a
00000020: 867b ee3c 8e6c 28bd 8b84 f0bc 5ae0 1b3d
00000030: fa11 44bd 172e c4bc 8589 273b 39cc 75bd
00000040: 5586 1e3d 5a40 b93c 60df 0c3d a255 253d
00000050: e541 b6bc 84ad f4ba 9bfe 46bd 511f 463d
00000060: 6ce1 10bc 94de 593d 1518 52bd 26e8 98bd
00000070: ede7 cb3c e2e9 283d 2d03 1c3c a01a 233d
00000080: 9ce7 423d 5527 603d 824b 20bc 3af4 f93c
00000090: 6bcc 393d 16a3 82bd 2679 943c 35b5 4b3c
000000a0: 8b67 893c 420b 2abd c8ea 06bc aafb ac3b
000000b0: 69fb f7bc dc2b 9cbc 2999 5fbc cfbc ba3b
000000c0: ad76 86bd 2fd7 4b3d 02c7 693d 8363 f5bc
000000d0: 215c d33a 5550 fe3c 2e89 64bd 0d23 dbbc
000000e0: 0889 89bd 2243 7cbc d214 993c 62c1 2e3d
000000f0: 04ac 043d fe10 793d a06f 1fbd ea57 94bb
00000100: 5092 19bd a7fa 183d 5ee5 e7bc f4d9 2a3d
00000110: de58 5dbc 95af 05bd ba38 14bc 1997 3bbd
00000120: 15ed ce3c fcc5 08bd 7964 273b 6be6 29bd
00000130: 5c5f 74bb 30b1 033d 42f7 62bd abf7 593d
00000140: cfc5 c3bb f057 59bc a2e5 813d d59f 5a3c
00000150: 77a9 21bb 07e1 373d 8b08 8f3c bbe4 283d
00000160: d5cd 293d d7ab 413c 8165 3e3d d0d6 2c3b
00000170: 3730 76bc a108 0abd 3e63 7bbd 4fb3 92bc
00000180: 97de 613d f53d dcbc 7d4b 4d3d 38fd 343d
00000190: 3f0d 63bd b662 8cbc 78b5 0bbd 8406 163c
000001a0: eb0a 0d3d 474d 16bd 6270 17bd 43d4 0c3d
000001b0: 06f6 81bd 34db e2bc 889e 5a3b 79a5 46bc
000001c0: 38e6 e93b 8aa0 1c3d 329d 563c e101 9e3c
000001d0: d1f6 f33c 2a7b 843d 7ea2 3dbd d30d e13c
000001e0: b54c 793c 4f5f 633c d190 983d aabc f8bc
000001f0: b82d 123d 20e4 a4bd 5b6d 413d e977 ef3c
00000200: e766 01bd 12a0 313b db7e b5bc de3b 54bd
00000210: 6f0b 673d e5bb 97bc bb7f 2e3d 585d 8cbd
00000220: 02d4 1cbd 6a1c 253d d8ce e33a a552 873b
00000230: fd14 1f3d af55 713d 1eb0 d2ba c801 2a3d
00000240: c8cd 63bd 1427 723d 6c1c 213d 46b7 8c3c
00000250: 0553 2c3c 8cf3 193d a64a 00bd e2dc 31bd
00000260: 526f 2e3c eab8 f03c 1173 263c 5215 6c3d
00000270: 59a3 dd3b 7820 40bd 6ad0 9cbc 150e 92bd
00000280: 2aa7 0ebc 88f0 c13b cd10 613d 31b7 b0bb
00000290: 9470 ecbc af33 673c 5534 f3bc dee3 353d
000002a0: 58e6 093c 8eac c7bc 0b77 55bb eb1c 00bd
000002b0: 472a 4e3d fe67 67bb 39ff 82bc d9cc 8f3c
000002c0: 5d43 80bd d5ea 49bd f05e dd3c 22ce 98bb
000002d0: 1c8d 17bd f25d 2bbc 5061 9c3c eb1a 5cbd
000002e0: 574b 76bd 24f5 243d 0dad 003d 4707 b3bc
000002f0: 73d7 103d 4b61 66bd 1d6f 3c3c 4582 7cbd
00000300: b654 c3bc 1269 19bd cf21 593d e1b3 7fbd
00000310: 6ebe 483d 0b73 25bd 9913 023d 18e5 7e3d
00000320: 0491 4d3d 599b 373d 9267 973d 0263 a2bd
00000330: abf7 67bd 3d85 87bd eb6c c3bc bde2 463d
00000340: fa8a 463d 25db bfbc 9daa 133d e314 213d
00000350: ad9f 563d b82a 00bd c249 88bc 93ce 2fbd
00000360: cd0c 9cbc beb9 883c d40d a5bb 7701 0e3d
00000370: 97b1 7abd f5e2 9c3c d2da 7f3d 83cf 343d
00000380: bced 863d e7d7 253c f6e6 8439 c5c8 dcbc
00000390: c410 e4ba d1f5 80bd f9a7 20bc e21c 053c
000003a0: 89f4 28bd dec9 18bc 3354 14bc 33a1 69bd
000003b0: cc6e 293d 7b89 78bd 102e 67bc 4ce8 5abd
000003c0: 785a db3c 64c6 853c 6ad5 02bd e959 073b
000003d0: 37d3 a0bb 2005 4ebd f1f0 19bd 1bde 10bd
000003e0: 9bf9 acbc d6e9 883c e9ae 4cbd 6c86 9ebc
000003f0: ae1d 8f3d f78b c1bc 3123 1c3d ac70 e63b
0.036125872 0.024179405 0.037495546 -0.009503907 -0.04007978 -0.0325748 0.05091142 0.0013993576
0.029111635 -0.04111915 -0.029360076 0.038055755 -0.047868706 -0.023947759 0.0025564146 -0.060009215
0.038702328 0.022613693 0.034392715 0.04036487 -0.022248218 -0.0018667434 -0.048582654 0.04836971
-0.008842807 0.053190783 -0.051292498 -0.07466154 0.024890864 0.041238673 0.009522242 0.039820313
0.04758416 0.05472501 -0.009783627 0.030511964 0.045360964 -0.063787624 0.018124174 0.01243334
0.016773006 -0.041514643 -0.008234687 0.005279024 -0.030271249 -0.019063883 -0.013647356 0.0056987773
-0.06565604 0.049765762 0.057074554 -0.029954677 0.0016125479 0.031044165 -0.055794887 -0.026750112
-0.0671559 -0.015396865 0.018686686 0.042664893 0.03239061 0.06080722 -0.038924813 -0.0045270817
-0.03749305 0.037348416 -0.028307613 0.041711763 -0.013509957 -0.03263815 -0.009046728 -0.045798395
0.025259534 -0.033391938 0.0025542064 -0.04147951 -0.0037288284 0.0321514 -0.055411585 0.05321471
-0.0059745084 -0.013265595 0.06342627 0.013343771 -0.002466766 0.044892337 0.017460128 0.04123376
0.041456062 0.011820755 0.04648352 0.0026373155 -0.015026144 -0.033699635 -0.06137394 -0.017907767
0.05514392 -0.026885012 0.05012082 0.0441868 -0.055432554 -0.017136913 -0.03410861 0.009156827
0.03443424 -0.03669479 -0.03697241 0.034382116 -0.06345753 -0.027692415 0.0033358652 -0.012124413
0.00713804 0.03823904 0.013099002 0.019288005 0.029780777 0.06468804 -0.046297543 0.027472412
0.015216042 0.013877704 0.074494965 -0.0303634 0.035688132 -0.08051324 0.04722343 0.029231982
-0.031592276 0.0027103466 -0.022155216 -0.051814906 0.05640739 -0.018522212 0.042602282 -0.068537414
-0.038288124 0.0403103 0.001738037 0.004129725 0.038838375 0.058919605 -0.0016074216 0.041505605
-0.05561617 0.0591193 0.039333746 0.017177235 0.01051784 0.03758578 -0.03132119 -0.04342354
0.010646658 0.029385049 0.01015927 0.05763752 0.0067638573 -0.046905965 -0.019142348 -0.07131592
-0.008706847 0.005918566 0.054947663 -0.005392932 -0.028862275 0.014111443 -0.02968804 0.044406764
0.008416735 -0.024374273 -0.0032572176 -0.03127758 0.050333288 -0.0035309787 -0.01599084 0.017553734
-0.062628485 -0.04929622 0.027022809 -0.004663245 -0.036999807 -0.01045941 0.019089371 -0.05373661
-0.060130443 0.040272847 0.031415034 -0.021854056 0.03536172 -0.05624513 0.011501101 -0.061647672
-0.023844104 -0.03745372 0.053010758 -0.062427405 0.049009733 -0.040392917 0.03175697 0.0622302
0.050187126 0.044825885 0.07392801 -0.079290405 -0.05663268 -0.0661721 -0.023855647 0.04855608
0.048472382 -0.023419926 0.03605138 0.03932656 0.052398372 -0.03129074 -0.016636733 -0.042921614
-0.019049073 0.016690131 -0.005037049 0.034669366 -0.06120452 0.01915119 0.062464543 0.04414321
0.06588313 0.010122276 0.0002534908 -0.026951203 -0.0017400016 -0.06296886 -0.009805673 0.008124562
-0.041248832 -0.009325473 -0.009053278 -0.057038497 0.04136543 -0.060677987 -0.014110103 -0.05344419
0.026776537 0.016329952 -0.03194181 0.0020652956 -0.0049079913 -0.050297856 -0.037583295 -0.035368066
-0.021115115 0.016713064 -0.049971495 -0.019351207 0.06988083 -0.02362631 0.0381195 0.0070324745

module.base.1.layers.3.bias f4 [128]
00000000: 21f3 d6bc 645d 7dbd 771c 0e3d 5ae9 523d
00000010: 2ccd 60bd 02be b3ba 1cc1 323d ccb6 493d
00000020: 747e 493d 7240 9a3c 9bd7 cabc bae9 083c
00000030: 2057 2ebd a3c0 613c 1b94 723c 6dae c53c
00000040: c8ac 20bd c348 15b9 235f 4ebd bba8 b53c
00000050: b5b0 9f3c b982 cf3c ce74 afbc d162 c23c
00000060: 5d77 81bd 9305 65bc 646e 013d 2fb2 5dbd
00000070: 2854 68bd 17cf 4cbd 3664 b4bb 0558 473d
00000080: b2b8 d03c 6908 793d c375 06bb 9cc0 21bd
00000090: a61d 1f3d fdda d1bc 83bb 0d3a 94bc 773a
000000a0: ac98 8dbd 4f0e 143d fbfa 213d f4c5 2b3d
000000b0: 65d2 ff3c 70ce 1b3d b95a acbc ee1f 40bd
000000c0: f56d 183c f483 253b 74c0 cbbb 28af 013d
000000d0: b72a 5bbb be66 0c3c bc53 033d 5268 653d
000000e0: 8655 d33c e985 3f3d 6ce1 2c3d e11f 7cbd
000000f0: 2b49 91bc d36e 05bd b869 cc3a 32a1 82bd
00000100: 1a8f eb3b cc74 72bd 0ec0 14bd 8d8b 64bd
00000110: 6570 85bc edc0 d6bc 7567 423d 95d3 02bd
00000120: 2c97 abbc 6aaa 39bd 710e 153d 061b 8bbd
00000130: 24c3 533d 202f 903c c993 89bc be7a 523c
00000140: 3824 eb3c c43e 94bd 1c09 33bd 9e18 8ebc
00000150: 6fac 193c 74be b43c d089 163c c259 44bd
00000160: 9659 3a3d 8ccd 8cbd 1017 043d 318b f33b
00000170: 1428 433d 04fb cabb 5a06 a4bd a00a f33c
00000180: f403 693d 7ca4 61bd 7340 0abd c418 45bd
00000190: 8182 fb3c 2546 88bc 842d d13c 3fcc 4c3b
000001a0: 3e9a ed3b 05b8 76bd 7532 0fbd f82f a2bb
000001b0: 275e 613c a638 b63b 27e9 3fbc 72ad 26bd
000001c0: 0144 b4ba 1d67 123d 284f 5bbd 23e0 69bd
000001d0: e7de 65ba d0c5 393d 0e4b 293c 178a 013d
000001e0: f7bd 64bb 09fb ef3c d60e c6bc aedf 313d
000001f0: 05ab aabc 741d c53c 12a8 2cbd 499a d0ba
-0.02623898 -0.061856642 0.034695115 0.051492073 -0.054883167 -0.0013713243 0.043641195 0.049246594
0.04919286 0.018829558 -0.024761012 0.008356506 -0.042563558 0.013778838 0.014805819 0.024131024
-0.039227277 -0.00014236853 -0.0503837 0.022175184 0.01949344 0.025330888 -0.021418002 0.02372876
-0.06321595 -0.01397838 0.031599417 -0.054125007 -0.056720883 -0.050002184 -0.00550511 0.048667926
0.025478695 0.060799036 -0.0020516969 -0.039490327 0.038846634 -0.025617117 0.00054066646 0.00094504026
-0.069138855 0.03614646 0.039545994 0.04193683 0.031228254 0.03803867 -0.021039354 -0.04690545
0.00930356 0.0025255652 -0.0062180106 0.031661183 -0.0033442208 0.0085694175 0.032062277 0.05600769
0.025797617 0.046758566 0.042207167 -0.06155384 -0.017735085 -0.032576393 0.0015595471 -0.06378402
0.00718869 -0.059193417 -0.03631597 -0.05579715 -0.016288945 -0.026215041 0.047461946 -0.03194006
-0.020946108 -0.045328535 0.036390726 -0.06792264 0.051699772 0.017600596 -0.016794102 0.012846647
0.028703794 -0.07238534 -0.04370986 -0.017345723 0.00937949 0.022063471 0.0091881305 -0.047937162
0.045495592 -0.068751425 0.032248557 0.0074323644 0.047645643 -0.006194474 -0.08009024 0.029668152
0.056888536 -0.055088505 -0.03375287 -0.04811932 0.030701878 -0.01663501 0.025534399 0.003124967
0.007251053 -0.06023409 -0.03496023 -0.004949566 0.013755358 0.0055609522 -0.011713303 -0.040692754
-0.0013753177 0.035742868 -0.053542286 -0.05709852 -0.0008768872 0.045354664 0.010332836 0.031625833
-0.0034903267 0.029294508 -0.024176996 0.04342621 -0.020833502 0.024061896 -0.04215247 -0.0015915121

module.base.1.layers.5.weight f4 [128]
00000000: aeae 843f feeb 823f 2832 873f 0a1d 823f
00000010: cfac 853f 8d92 7f3f 686f 923f 6dcc 823f
00000020: 58e1 7f3f 2072 883f 6486 853f fc2a 803f
00000030: 13c7 913f d4c4 823f 70a9 8d3f 568b 823f
00000040: ca03 843f 666b 913f 2571 883f 0117 9a3f
00000050: 1365 7f3f 0a4c 933f 17ad 843f 215d 803f
00000060: d5bf 883f eaa7 8c3f 5419 813f ae68 823f
00000070: 98f1 803f 78aa 813f 77f3 803f b295 853f
00000080: 5b21 8d3f 9914 973f 3101 813f 6167 7f3f
00000090: bad5 893f b98c 813f ca8d 813f aa0a 843f
000000a0: 5273 883f 7bcb 853f 0bb4 813f 1b65 843f
000000b0: 183c 833f 9780 8a3f aed7 843f 070a 863f
000000c0: 9b2d 863f 93af 833f 533b 7d3f 5d6e 803f
000000d0: b5fa 933f 47f8 8b3f 24ff 813f 3915 883f
000000e0: 6fc1 893f 1b9a 833f 5502 8c3f 72b2 893f
000000f0: 6349 8a3f e06b 833f 436c 873f 80a4 893f
00000100: bcf9 933f 4cb4 8a3f 13b6 873f bc3f 823f
00000110: 821e 893f eab4 813f 559f 833f 095a 803f
00000120: c64d 813f bcde 8a3f 1cb9 863f 3841 833f
00000130: 8664 833f fc7a 833f 3b20 873f eb99 813f
00000140: f52b 803f 7526 853f 7484 883f eec5 893f
00000150: c28c 813f 9ee4 953f 40fa 803f edbe 823f
00000160: 50fa 823f 93bd 8c3f da84 893f a638 813f
00000170: 5bf3 833f 5089 873f 6a1a 883f 0772 843f
00000180: eccd 813f bad1 863f 6518 893f 9edc 853f
00000190: 230d 843f 35ee 813f 90fd 813f 1b07 853f
000001a0: 6c9b 813f c931 803f 0c02 803f 785a 893f
000001b0: 4211 843f 9183 883f 244f 923f 67b2 8d3f
000001c0: ce09 8b3f f61c 853f f3ce 8d3f 4307 823f
000001d0: 8b80 813f 12cc 8e3f 35af 803f 1a9b 803f
000001e0: 0e4e 833f fe97 803f 194e 823f 5915 843f
000001f0: dbf6 813f 7660 8b3f d298 813f 2335 803f
1.0365808 1.0228269 1.0562181 1.0165112 1.0443362 0.99832994 1.1440248 1.0218636
0.9995322 1.0659828 1.0431638 1.0013118 1.1388878 1.0216317 1.1067333 1.0198772
1.0313656 1.13609 1.0659529 1.203827 0.997636 1.150758 1.0365323 1.0028421
1.0683542 1.0988743 1.0085855 1.0188196 1.0073729 1.0130148 1.00743 1.0436308
1.1025804 1.1803161 1.0078489 0.9976712 1.0768349 1.012107 1.0121396 1.0315754
1.0660193 1.0452722 1.013307 1.0343355 1.0252714 1.0820493 1.037832 1.047181
1.0482668 1.0287956 0.98918647 1.003368 1.1560885 1.0935143 1.0155988 1.0631477
1.0762156 1.0281404 1.0938212 1.0757582 1.0803646 1.0267296 1.0579914 1.0753326
1.1560588 1.0836272 1.060244 1.01757 1.0712435 1.0133336 1.0282999 1.0027477
1.010186 1.0849223 1.0525241 1.0254278 1.0265052 1.0271907 1.0556711 1.0125097
1.0013415 1.0402361 1.0665421 1.0763528 1.0121081 1.1710393 1.007637 1.0214516
1.0232639 1.0995353 1.0743668 1.0095413 1.0308641 1.058878 1.0633061 1.0347298
1.0140967 1.0532753 1.071057 1.0457952 1.0316509 1.015082 1.0155506 1.0392793
1.0125556 1.0015193 1.0000625 1.0730734 1.0317767 1.0665151 1.1430402 1.1070069
1.0862367 1.0399463 1.1078781 1.0158466 1.0117353 1.1156027 1.0053469 1.0047333
1.0258195 1.0046384 1.0180084 1.0319015 1.0153459 1.0888813 1.0124762 1.0016216

module.base.1.layers.5.bias f4 [128]
00000000: 8865 043d 8f50 7dbb c537 673b 3655 073b
00000010: 2986 aebc f9ce de3b 6f56 36bd 66f9 10bb
00000020: b286 0dbb 5c5b 0db9 2689 9dba b5d0 8e3b
00000030: 06a4 c73c 78f5 6d3b aeab bb3c ec8d 30bc
00000040: 9e0a ba3b 0d53 d23b 88c7 2d3c 0de9 f93b
00000050: 4c9f 063c fa34 a33c 727a 633b 2814 c0ba
00000060: b339 c03c 1ba7 aa3c 04df 09bc 5296 403c
00000070: eb07 5f3c cd05 b5b9 8310 203d 189f c63b
00000080: 460c 0f3c 1835 833c a7d3 3cbb f525 af3a
00000090: 573e 743c 771c 3c3b ee43 5dbc 9015 1fbc
000000a0: a146 053c 2d13 733c e1d8 f1bb f082 c43b
000000b0: d855 9bba 7dc3 a73d 6a5a ad3b 0725 d73c
000000c0: 9a69 70bb e7b9 8c3c acef 153c d6bc 153c
000000d0: 6ac4 ff3c a72f d7bb 1599 583b 0933 a53c
000000e0: 324a 2a3d 8668 0bbb c211 d4bb b572 54bc
000000f0: bdd8 4e3b 89a3 e13b 983f 7f3c c94d f63b
00000100: 0df2 89bc af41 adbc 2b70 223d 91f3 b93b
00000110: 5e6b 0bbd f3a5 09bc cbde 5e3c f84d aabb
00000120: 35fd bfbb 4170 66bc 831b f03c 4c23 d4bb
00000130: 36ef 103c 57ec 89b9 a52b adbc ce42 193b
00000140: 2012 623a bfd5 6c3c a5d2 ebbb bb4c ca3c
00000150: f348 233b ed57 c43c e521 913a 7818 b2bc
00000160: ff27 b13c 4a04 2bba b887 ae3b d4c0 34bc
00000170: 32af 993c eed2 4c3c 0ac1 8c3c c766 343c
00000180: 4650 1fbc 50ff 08bd d9bf 78bb 199b a13c
00000190: 9d0e e13b 2932 38bc c6de fdbb 7f73 91bc
000001a0: 054c d5ba 7a7a 1fbc 2bb2 e53b 39e4 943c
000001b0: 52f2 ac3c 7e8a eebb 8dfb d5ba a092 4bbd
000001c0: 2bb4 95bc 03c3 df3c 480e 0a3c 020f bb3c
000001d0: 52ac 183c ca68 493d 4631 e83b f20a 123c
000001e0: ac15 39bb 029d a83a 579f 073b 09c7 92bc
000001f0: 51ce 40bc fe3f fa3c 3a41 a93c afc1 d13b
0.03232339 -0.0038652753 0.0035281044 0.0020650155 -0.021304207 0.0067995754 -0.044516023 -0.002212131
-0.0021595177 -0.00013480842 -0.0012019023 0.004358376 0.024370205 0.003630964 0.022909012 -0.010776024
0.005677535 0.006418592 0.010606654 0.007626659 0.00821669 0.019922722 0.0034710434 -0.0014654445
0.023465013 0.020831635 -0.0084149875 0.011754589 0.013612728 -0.00034527332 0.039078247 0.006061446
0.008730954 0.016016528 -0.0028812678 0.0013362753 0.014907441 0.002870349 -0.013504965 -0.009709731
0.008134515 0.014836115 -0.0073805903 0.0059970543 -0.0011851145 0.08191583 0.005290319 0.026262773
-0.0036684037 0.017178489 0.0091513805 0.00913926 0.031221587 -0.00656696 0.0033050228 0.020165937
0.041574664 -0.0021272018 -0.0064718435 -0.012966801 0.0031562292 0.00688595 0.015579127 0.007516597
-0.016839052 -0.021149484 0.039657753 0.0056747873 -0.03403794 -0.008401382 0.013602923 -0.005197283
-0.005859042 -0.014064849 0.029309994 -0.0064739343 0.008846095 -0.00026306763 -0.021138975 0.0023385766
0.00086239167 0.014455258 -0.0071967416 0.024694791 0.0024915307 0.023967708 0.0011072723 -0.021740183
0.021625517 -0.00065237714 0.0053262375 -0.011032302 0.018760297 0.012501461 0.017181892 0.011010832
-0.0097237285 -0.03344661 -0.0037956147 0.019727277 0.006868197 -0.011242428 -0.007747504 -0.017755268
-0.0016273266 -0.0097337905 0.0070097647 0.018175231 0.021111641 -0.007279693 -0.0016325578 -0.04970038
-0.018274387 0.027314669 0.0084262565 0.022834305 0.009318428 0.0491722 0.007085952 0.008913742
-0.0028241677 0.0012864175 0.002069434 -0.017917173 -0.01176794 0.030548092 0.020660985 0.0064012627

module.base.1.layers.6.weight f4 [128, 128]
00000000: 61b2 25bc 3865 293c 4f90 663d d73f 033d
00000010: 9a5c ba3d 1980 acbd d0f4 ad3d 0008 d73c
00000020: f1c0 9abc 9a19 7ebc 057a 6b3d 7c89 433a
00000030: a0a2 b8bd 0904 2ebd 1992 8f3d e7d0 cfbc
00000040: e236 0e3d 2577 61bc 7fd2 ae3c 7de0 8d3d
00000050: 7e0a db3b 7a18 abbd d92c 753d b0a8 25bd
00000060: 0953 20bd 97f7 49bc 45b9 3f3d 7c26 273d
00000070: c667 c6bc 079a 7cbd 0fd3 a7bc f674 423d
00000080: b440 9dbc 07ec 7a3c 6e65 51bd 7a8f c2bc
00000090: 2dac 8e3d 86bb 993c f391 b73d 297d 32bd
000000a0: 2e3f 57bd a313 cf3b f54d 06bd f4b8 de3b
000000b0: 9370 6bbc 812f 90bd 1e37 773d 9ac3 bbbd
000000c0: e8df 86bd e112 403d 8747 29bd db28 7cbd
000000d0: 6365 efbc 7e5b d03b 99fd 4ebd 89a7 8bbd
000000e0: d1e1 b33d c3bf b5bc d14a ce3c 8ff8 24bd
000000f0: 953b 46bd 079f abbc 03bd 55bd abb9 61bd
00000100: 42db 303d 299f 2e3d 1667 3cbb 9022 2a3d
00000110: 8c6b 50bd 0d5a e6bb 1162 bfbd 9d7b dbbb
00000120: aeed 583d dda9 86bc 8472 443d 8476 2d3d
00000130: bdbd 473d 7366 7cbd 649a 3fbb 583c 80bd
00000140: 09c5 1d3d faba bebc a4bb 493c f1b9 94bd
00000150: 4ebc 67bc df75 323d 9d14 933d 4e74 383d
00000160: 94d5 843d 3687 9c3d 0d2f 933d bd73 88bb
00000170: 92fe fcbb 6a0a bebd 60fe b4bb c1e8 ebbc
00000180: f6f8 b23d 61b6 dcbc b314 623d 40b6 a8bb
00000190: 0918 4d3c 5014 243c c4c4 2c3d fa78 8c3b
000001a0: 8acc 8e3d fb2c ad3d e383 75bd acbc 73bc
000001b0: d835 753d 0bd0 dc3c b514 7d3d 5bd4 9a3d
000001c0: 3ebf 103d 90ea 7bbc cfd6 4ebd 7456 49bd
000001d0: c27e 003d 6e8b 8c3d ac44 99bd d485 9cbd
000001e0: d0ee a3bb e2ec 72bd 48f5 2bbd 467c 44bd
000001f0: 3c09 82bd 515a 79bc a63f c0bd dcb1 5ebc
00000200: 4dfa 27bd c4ba 94bc eb40 a13d cc4d 043d
00000210: a325 c73c 50ec 1c3d a151 5f3d 2b58 09bd
00000220: b52d 95bd b803 1bbd 2ac4 b23d ccf9 853d
00000230: c24b dfbd 12a8 c03c 0e38 813d d55d bcbc
00000240: 244a 81bb df28 11be f1ff 053d aecc c03d
00000250: ab88 bdbd 27e9 153d 1bfe 82bd e6d4 cdbd
00000260: 60ac c4bd 53c6 d7bc ed99 b53d d5ca 86bd
00000270: 6d22 d3bb 44e1 69bd 0a73 963b a29d 83bd
00000280: ee6a 81bd d4b7 ccbd 07a3 423d 3b27 51bd
00000290: e3f9 b33c 434f c73c 19ec 10bd 2b0e 5dbd
000002a0: 29bf dc3c ab69 92bd 4f31 e83c 080b e73c
000002b0: 3168 83bd 4fc8 303d 4cc1 8abd 744a 923c
000002c0: 6ce0 c6bd f80d 263d f3ee 15bc e6ca 5d3d
000002d0: 3237 18bd 2317 b1bc fb9e 143b 750a 143c
000002e0: 3d47 0a3b 3ed9 8a3d 2fc7 2c3c 7d40 74bd
000002f0: 738a 363d 7d9a ddbd 9fbd 823a 8d16 aa3d
00000300: c6ed d2bd 6867 f33d cfdb edbc 0c1b 8abd
00000310: e060 abbd c85b 683a 2e9d 3a3d 84a5 293d
00000320: 5520 9ebd edea 963d af5c d5bc 0b1f 313c
00000330: 058f 9a3d 0533 843d 6010 853d dab5 7cbd
00000340: 6daf 8e3d 38e5 cfbd 729d cebb 64f8 f33d
00000350: ddb6 b83d d19b b63d e550 5bbc 258b 3e3d
00000360: 8be6 ff3c 491d da3d 1640 c13d 7209 23bd
00000370: d32f a53d 2b0a cc3a af59 be3c a861 d53d
00000380: e9e7 96bd bf99 b93c fd54 273d b5b6 46bc
00000390: c94c 813d 506b 6abd 8422 11bd fa5f 2fbd
000003a0: 2951 8b3d 0d3d dcbc b22e 5ebd a71f 8cbc
000003b0: 269f 01bd 02af 7fba 84c7 34bd 4f8a cabd
000003c0: be80 6d3d eba7 72bd cf85 a6bd 3016 b8bd
000003d0: 1960 cb3d 2d29 203e 8716 7fbd 66ce 3abd
000003e0: f4f1 af3b e6c0 183d 3405 2bbd 337a 193c
000003f0: 0e95 4c3d bbe5 153b 5518 af3d f4be abbd
-0.01011333 0.010339074 0.056289967 0.032043304 0.090996936 -0.0842287 0.0849396 0.026248932
-0.01889083 -0.015509034 0.057489414 0.00074591464 -0.09015393 -0.042484317 0.07010288 -0.025368167
0.03472031 -0.013761316 0.021340607 0.06927583 0.0066846004 -0.08354278 0.059857223 -0.040444076
-0.03914169 -0.012327096 0.046807546 0.040808186 -0.024219405 -0.06167033 -0.020486383 0.047474824
-0.019195892 0.015315062 -0.05112212 -0.023750056 0.06966434 0.018766176 0.089633845 -0.043576393
-0.052550487 0.0063194796 -0.03278919 0.0067969505 -0.0143701015 -0.07040311 0.0603553 -0.091681674
-0.065856755 0.046893004 -0.04132798 -0.0615624 -0.02922315 0.006358563 -0.05053482 -0.06819064
0.087833054 -0.022186166 0.02518216 -0.040276106 -0.048396666 -0.020949854 -0.05218221 -0.055108707
0.04317785 0.042632256 -0.0028747967 0.041536868 -0.050883815 -0.007029778 -0.093448766 -0.0066980855
0.052961044 -0.016438419 0.047960773 0.042349353 0.048764933 -0.06162114 -0.002923631 -0.0626151
0.038517985 -0.023282517 0.012312803 -0.07262028 -0.014144016 0.043569442 0.07181666 0.04503279
0.06486049 0.07642977 0.071867086 -0.0041641877 -0.007720777 -0.0927933 -0.005523488 -0.02879751
0.08738892 -0.026942434 0.05519552 -0.005148679 0.012517937 0.0100146085 0.042179838 0.0042868825
0.069726065 0.08455845 -0.05994023 -0.014876526 0.059865803 0.026954671 0.061787326 0.07560035
0.035338633 -0.015375748 -0.050497826 -0.049154714 0.031370886 0.068625316 -0.07483801 -0.07642713
-0.005002834 -0.05930794 -0.041981965 -0.04797008 -0.063494176 -0.015219287 -0.0938714 -0.01359221
-0.04101019 -0.018155463 0.0787371 0.032300755 0.024309939 0.038311303 0.054521207 -0.03353135
-0.072841085 -0.037845343 0.087288216 0.065417856 -0.109031215 0.023517642 0.0630952 -0.022993961
-0.003945606 -0.14175747 0.032714788 0.094140396 -0.09254583 0.036599305 -0.06396123 -0.10050373
-0.096031904 -0.026339686 0.0886725 -0.06581656 -0.006443313 -0.057099596 0.0045913504 -0.064265504
-0.06319223 -0.09996 0.047518756 -0.051062804 0.021969741 0.024329787 -0.03538141 -0.05396859
0.026946621 -0.07149061 0.028343825 0.028203502 -0.06416357 0.04315978 -0.0677515 0.017857768
-0.09710774 0.040540665 -0.009151208 0.054148577 -0.037162013 -0.021617478 0.0022677768 0.009035696
0.002109959 0.06779717 0.010545536 -0.059631813 0.04456563 -0.10820482 0.0009974724 0.083050825
-0.10299258 0.118849576 -0.029035477 -0.0674344 -0.08368087 0.0008863774 0.045560054 0.041417614
-0.077210106 0.07369027 -0.026045172 0.010810624 0.0754681 0.06455044 0.06497264 -0.061696865
0.069670536 -0.10151142 -0.00630539 0.11912611 0.090192534 0.08916438 -0.013385986 0.046519417
0.031237861 0.10650117 0.094360515 -0.03980393 0.08065762 0.0015566995 0.023236124 0.10419017
-0.07368452 0.02265632 0.040852536 -0.012128522 0.06313474 -0.057231247 -0.035433307 -0.04281614
0.068025894 -0.02688458 -0.05424375 -0.017104937 -0.031645916 -0.0009753556 -0.044135585 -0.098896615
0.057984106 -0.05924217 -0.08130991 -0.08988607 0.099304385 0.15640707 -0.062277343 -0.045606993
0.005369419 0.037293337 -0.04175301 0.0093675135 0.049946837 0.0022872526 0.08549563 -0.08386031
