scripts/shell/checkpoint/high_level_old/4.pt (torch, 955673 bytes, 48 tensors)

module.act_dist.operator.bias f4 [1, 13]
000000 ac eb a6 bd 62 fb 93 3d c5 89 88 3c 1f fa 5d bd
       -0.081504196 0.07225682 0.016667256 -0.054193612
000010 c6 d7 50 bd fd ed 56 bb 19 fe e0 bc 1d bf 22 bd
       -0.050987028 -0.003279566 -0.027464913 -0.03973304
000020 fb a0 73 3c 7e f4 0d 3c be 4e a1 bd 85 aa 96 bd
       0.014869924 0.0086642485 -0.07876347 -0.07356743
000030 da 91 37 3d
       0.04481683

module.act_dist.operator.weight f4 [1, 13, 128]
000000 23 11 83 bd 6d c0 51 3e 7f 70 72 3d 29 89 34 3e
       -0.06399753 0.20483561 0.059189316 0.17630447
000010 41 73 42 3d 98 71 99 3d 55 6c 34 bc ad 49 e7 3b
       0.047473196 0.074923694 -0.0110121565 0.0070583434
000020 5d 6b a1 3d 76 dc f7 3b fc c6 8d 3d 58 52 b3 bd
       0.07881806 0.007564123 0.06922719 -0.0875594
000030 6f 5a 88 3d d8 42 6f 3c 2b fb 0c be 1e 81 a8 3d
       0.06657874 0.014603339 -0.13767688 0.08227752
000040 d3 87 0f 3e 25 8d 53 3d a7 61 c5 bd 32 55 18 bd
       0.14016657 0.051648278 -0.09637766 -0.037190624
000050 d8 10 d8 bd 3d 1f f2 3d a6 9f fb 3a 08 71 02 3d
       -0.10550088 0.118223645 0.0019197359 0.031846076
000060 5c 32 9a bd d1 7d 00 be 90 02 af bc 1a 1a 76 bd
       -0.075291365 -0.12547995 -0.021363527 -0.060083486
000070 47 fb ea bd 2c d3 f2 ba c9 2f e2 ba a7 03 b9 bd
       -0.114737086 -0.0018526069 -0.0017256673 -0.090339
000080 e7 a4 d8 bd 96 87 45 bd 7c ff 12 be 8a 79 cc bc
       -0.105783276 -0.048225008 -0.14355272 -0.024960298
000090 0e 2a e3 bd 2e fb 11 3d 42 d3 10 3e 7e 0d ea 3d
       -0.11092006 0.035639934 0.14143088 0.11428355
0000a0 d9 c2 4e bb 45 93 0d 3e 1f 4b f1 3d 4a d2 b5 3d
       -0.0031549244 0.1382571 0.11781906 0.08878
0000b0 c5 f9 0f be 37 6e 30 3e ed ce d4 bd 51 0f 90 3b
       -0.14060123 0.17229544 -0.103910305 0.004396357
0000c0 6b b4 21 3e 5e 65 2a be 55 62 c8 bd ad 99 33 3d
       0.1579148 -0.16640231 -0.0978438 0.04384773
0000d0 d5 cf c1 3b 04 70 e5 3d b6 ed 07 3d 2b 72 95 bd
       0.005914668 0.11203006 0.033185683 -0.072971664
0000e0 f9 5c b8 bd d8 0a 8f bd 90 3b 67 3e cd d9 87 bc
       -0.09002108 -0.0698449 0.22581315 -0.016583348
0000f0 a9 96 01 3d c0 54 cb bd 13 c9 09 be 55 05 07 bd
       0.03163782 -0.09928274 -0.1345561 -0.03296407
000100 37 88 85 3d 16 cf 29 3d 31 b3 d7 3d ef b6 89 bd
       0.065201215 0.04145726 0.10532225 -0.06724345
000110 42 06 92 bd ff 3d 9e 3d ca 3e ef 3d 59 df a5 bd
       -0.071301 0.077266686 0.11681898 -0.08099241
000120 4c 83 16 bd 95 8d 5f 3d d4 ee 1e be 5c 6e fa bc
       -0.03674631 0.054578383 -0.15520793 -0.030570202
000130 aa 99 7e 3c 0b 91 09 3e 6a 1e 32 3c b2 ea ec ba
       0.015539566 0.13434236 0.010871509 -0.0018075316
000140 27 14 1c be 58 3d 05 3e 8e 36 85 3d 32 27 7a 3d
       -0.15242063 0.13011682 0.06504546 0.061072536
000150 40 c4 42 be 90 40 d2 3c 88 17 68 bc 05 bb 18 bd
       -0.19020176 0.025665551 -0.014165767 -0.03728773
000160 93 bb ac bd f7 40 23 3e 11 0a 2e 3d c3 88 f3 3c
       -0.084342144 0.15942751 0.04249007 0.029728299
000170 45 60 45 bd b1 73 53 bd 22 b1 e8 ba b7 4d 8b 3c
       -0.048187513 -0.051624004 -0.0017752985 0.01700483
000180 29 e7 5c 3d 6d 25 99 bd 00 16 18 be 96 71 a8 bd
       0.05393139 -0.074778415 -0.14852142 -0.0822479
000190 a7 9b d7 3d fc cd 48 3d 44 79 1e 3d b1 a8 d5 3d
       0.10527735 0.049024567 0.038689867 0.10432566
0001a0 22 6f 3d bc 0f 28 66 bd 8f 42 3d 3e 93 45 a0 3d
       -0.011562141 -0.056190547 0.18482421 0.0782577
0001b0 d4 47 6f bd b3 78 19 3e 29 2a fe bd e5 f5 e1 3c
       -0.05841811 0.1498745 -0.12410385 0.027583072
0001c0 d4 bc 45 3e e5 02 91 bb eb 28 b8 3d 6f 9b c6 bd
       0.19310313 -0.004425394 0.089921795 -0.09697615
0001d0 9a 7a 87 3e b5 0d 9b 3d 47 75 43 be 44 ee 97 3d
       0.26460725 0.07570974 -0.19087707 0.074184924
0001e0 7b fa 6a 3d 11 b6 03 be cd 9e bb bc 45 ce 2d be
       0.057367783 -0.12862422 -0.02290287 -0.16973217
0001f0 2f c8 1e be c5 00 ab bd e6 79 a4 3c 23 5b 5b bd
       -0.15506051 -0.08349756 0.020077657 -0.05355371
000200 bd 00 b5 bd af 19 92 3d 96 cc 95 3d c4 d3 bb 3d
       -0.088380314 0.07133805 0.07314412 0.091712505
000210 8d ba d7 bd 54 82 09 bd 05 b2 f6 3d dd 4d ee 3d
       -0.105336286 -0.033571556 0.12045673 0.11635945
000220 73 80 00 3e 03 15 bf 3d 51 7c 85 bd 64 aa 49 3d
       0.12549 0.093301795 -0.06517852 0.049234763
000230 b6 9a dd bc 95 9e 6a 3c 19 ec 06 3d f1 fb 81 bd
       -0.027051311 0.014320035 0.032940004 -0.06346882
000240 29 55 f8 bd 82 af 44 3d 95 15 e3 3d 23 dc 1d bc
       -0.12125618 0.04801894 0.11088101 -0.009635004
000250 e6 d7 99 bd 5c a3 70 bc b9 20 18 3d 9c 91 e3 bb
       -0.075118825 -0.014687385 0.03714058 -0.006944848
000260 25 c0 02 be 75 aa 94 bc d7 b4 8b 3d 6c 54 01 be
       -0.1276861 -0.018147686 0.06821602 -0.1262986
000270 50 fb 17 3e cf 0f a7 3c a2 f0 5a 3d c9 ee 9a 3c
       0.14841962 0.02039328 0.05345214 0.01891269
000280 e3 8c 27 bd 92 7c d4 3d 7f 75 d5 bc a9 4d 9d 3d
       -0.040905844 0.103753224 -0.026057003 0.07680828
000290 54 51 9b bd 27 54 6f 3d 37 30 7d bd 1c f6 35 bd
       -0.075838715 0.058429863 -0.06181356 -0.04442416
0002a0 26 ed 0e 3e e3 3d 8a 3d eb 65 d5 bc 23 b2 10 3c
       0.13957652 0.06750085 -0.026049575 0.008831534
0002b0 45 b0 9b 3d 3e f7 0e 3d 30 5b b6 bd 38 ef c5 bd
       0.0760198 0.034903757 -0.089041114 -0.09664768
0002c0 09 d4 99 bd 2a 9e 65 3d af 09 f5 bd cc ec 85 bc
       -0.075111456 0.05605904 -0.119647376 -0.016348265
0002d0 41 b7 09 3d ee b8 28 3c 43 83 81 bc 24 1f c1 3c
       0.03362203 0.010297997 -0.01580966 0.02357442
0002e0 ce 4f 95 3d b6 1e 3c be 20 54 55 bc 63 b9 f9 bd
       0.07290612 -0.1837109 -0.013020545 -0.12193563
0002f0 5b 0b c0 3d dd 51 a1 bc d6 cd a6 bc 54 c8 aa bd
       0.09377166 -0.019692356 -0.020361822 -0.08338991
000300 e4 13 cb bd 19 f5 a9 3d be 67 75 bd 60 d0 b5 3d
       -0.09915903 0.08298702 -0.05991339 0.08877635
000310 eb 62 d7 3c 0c cd 1a 3e 20 87 c2 bd 33 f9 8e bd
       0.026292285 0.15117282 -0.09498429 -0.06981125
000320 0d b8 d0 3c 1c 09 f0 bd f4 ca 8b bd 40 43 12 3d
       0.025478387 -0.117204875 -0.068258196 0.035708666
000330 79 7e 08 3e 31 a3 0b 3e 36 fb 79 3d a2 da d2 bc
       0.13329495 0.13636471 0.06103059 -0.025739018
000340 f0 d9 21 be 0c 3a 08 be 3d 8e 02 bd e8 aa a0 3d
       -0.15805793 -0.13303393 -0.03187393 0.07845098
000350 ae 39 4c 3d ef 09 a4 3d 74 b3 20 bd e2 1a 1e 3e
       0.049859695 0.08009707 -0.03923364 0.15439942
000360 a2 32 3c bd 12 24 9e bd 20 27 8e 3d 30 5d d0 3d
       -0.045946725 -0.077217236 0.06941056 0.10174024
000370 b1 0f 8a 3d eb 94 fd bd 7a ae 35 bc ff 3a 92 3d
       0.06741274 -0.123819195 -0.011088962 0.07140159
000380 af 60 96 3d 00 c7 b3 bd 48 7f 88 bc 9f 77 1d be
       0.0734266 -0.087781906 -0.016662255 -0.15377663
000390 6c a1 67 bd 92 b7 45 bd ed b4 61 3a d1 2f 05 be
       -0.05655043 -0.04827077 0.0008610029 -0.13006522
0003a0 4a 60 96 3d 2f 0c 87 bd 3d 66 09 be 7f fe 77 3d
       0.073425844 -0.06594121 -0.13417907 0.06054544
0003b0 9b 4c 00 be 84 f8 3a bd 37 67 bc 3d b3 2b 04 3e
       -0.12529223 -0.04564716 0.09199374 0.12907295
0003c0 03 d7 be bd 5e a0 d4 3c 44 4b 9a bb 50 2b e5 3d
       -0.09318354 0.025955375 -0.0047086794 0.11189902
0003d0 fb c2 bc bd e5 ba 90 bb b6 02 a4 bc 88 9d 04 3e
       -0.09216877 -0.004416811 -0.020020824 0.12950718
0003e0 ad d6 25 be fd 0d f6 bd 70 d4 f8 bd 2f 3c 96 bd
       -0.16195174 -0.12014387 -0.12149894 -0.07335698
0003f0 ac e1 20 be 17 74 2e 3e fa 1b 11 3d e8 bb eb 3d
       -0.15711087 0.17036472 0.03542707 0.1151045

module.encoder.0.bias f4 [1, 100]
000000 ef fe a0 bc 97 fe 1e 3b 94 22 8e 39 0a 22 8a bc
       -0.019652812 0.0024260634 0.00027110113 -0.016861934
000010 74 9e c5 ba 34 82 e1 3b 11 26 be ba 46 5c 5b b9
       -0.001507713 0.0068819765 -0.0014507194 -0.00020919842
000020 50 77 cf bb 7b bf e0 3b d3 70 06 3b a6 1d 8b 3b
       -0.006331362 0.0068587638 0.0020514026 0.0042454777
000030 21 00 31 3c 6b cc 0b ba a3 c3 39 3c f4 82 76 bc
       0.010803253 -0.000533289 0.011338147 -0.01504587
000040 7c 12 93 3a 6c 91 20 3c 82 14 95 3b fa ab 72 39
       0.0011220719 0.009800296 0.004549564 0.00023142985
000050 77 f7 bd 3a f0 83 6f bb 9c b7 19 3c 77 52 b9 3a
       0.0014493306 -0.0036547147 0.009382155 0.0014138956
000060 be 12 fc ba 3d 26 54 3b 9a de 54 bc 4a bf a1 bc
       -0.001923166 0.0032371425 -0.0129925255 -0.019744534
000070 16 59 62 bc 16 fd 77 bc d2 43 0c ba 25 b2 10 ba
       -0.013815185 -0.015136024 -0.0005350682 -0.00055197097
000080 62 f9 e3 b9 85 f0 97 ba 35 3e a5 3b ac 46 12 3c
       -0.0004348262 -0.0011592066 0.005042816 0.008927982
000090 92 30 02 bc fd 74 f6 3b 24 08 2b 3c 55 5b e3 3c
       -0.00794615 0.0075212703 0.010438953 0.027753511
0000a0 ac 00 f2 bb 8d 85 42 bc 8a 23 e7 3b e9 91 1e 3c
       -0.007385334 -0.011872661 0.007053797 0.009678342
0000b0 07 51 92 3b 0e cc fa ba d5 25 5b 3c 0c 71 13 b8
       0.0044652256 -0.0019134299 0.013375719 -3.5152814e-05
0000c0 62 2f 4a bb 56 cf 8c bb 9a 89 ed 3b 55 fa aa 3b
       -0.0030850996 -0.0042971773 0.0072490694 0.00521783
0000d0 cf 1b 55 3c 45 79 89 ba 73 ba 21 bc 18 63 1c 3b
       0.013007118 -0.0010488412 -0.009871113 0.0023862775
0000e0 93 73 e0 3b 9e 43 41 3b 29 57 3b bc 0e 88 5f bb
       0.006849715 0.0029489766 -0.011434355 -0.0034108195
0000f0 f6 c3 94 bb 70 06 b0 3b 1d cc c3 ba 10 74 a8 ba
       -0.004539962 0.005371861 -0.001493815 -0.0012851972
000100 a4 f6 77 3c 49 b0 e2 3c 7d f1 86 3c 03 eb 8a bc
       0.015134487 0.02767195 0.016472572 -0.016957765
000110 8c ba a8 3c 5f 0f 0b 3c fa e9 02 3c aa 12 6a 3c
       0.020596765 0.0084875515 0.007990355 0.014286676
000120 2a b1 b3 3b 97 ba 6f 3c 12 f1 a7 3b f0 f3 c8 3b
       0.005483766 0.014631889 0.0051251734 0.0061325952
000130 d5 96 69 ba 34 65 30 bb 0a d7 75 bb de 65 99 3a
       -0.00089107204 -0.002691579 -0.0037512206 0.0011703332
000140 71 cb a7 bc 09 f3 2a bb c8 aa a1 3b 8f 39 98 bc
       -0.02048275 -0.0026084802 0.004933689 -0.018582134
000150 17 e2 65 bc 64 19 8a ba 08 b3 b0 bc a7 de 28 3c
       -0.014030955 -0.0010536131 -0.021569744 0.010306991
000160 00 20 a7 ba f7 89 8b 3c bd 71 ed bb 70 ff 10 b7
       -0.0012750626 0.01703356 -0.0072462247 -8.6425425e-06
000170 a3 30 59 b9 1a 47 13 ba 9a 8d 7a bc 64 14 8c 3b
       -0.00020712851 -0.00056182 -0.0152925495 0.0042748917
000180 b6 d7 e1 bb 47 3f 00 3c 2d 76 8a bb 25 82 1d 3b
       -0.00689217 0.0078275865 -0.0042255134 0.002403387

module.encoder.0.weight f4 [1, 100]
000000 de e5 7c 3f 71 88 89 3f 3d 47 82 3f e9 0e 7d 3f
       0.9878825 1.0744764 1.017799 0.98850876
000010 ea 67 84 3f e0 01 81 3f 48 78 82 3f 80 49 87 3f
       1.0344212 1.0078697 1.0192957 1.0569305
000020 2e 27 8e 3f 7d 00 86 3f 3d 51 84 3f e0 51 83 3f
       1.1105707 1.0468899 1.0337292 1.0259361
000030 7c 12 87 3f 71 aa 80 3f d2 2c 80 3f ef a6 7f 3f
       1.0552516 1.0052015 1.0013678 0.99864095
000040 44 a2 7f 3f e7 8b 80 3f 62 27 80 3f e4 c1 81 3f
       0.9985697 1.0042695 1.0012019 1.0137296
000050 1a d4 88 3f 20 48 86 3f b6 b8 85 3f 55 59 83 3f
       1.0689728 1.0490761 1.0446994 1.0261637
000060 0e 48 84 3f 58 c4 82 3f 03 6f 7f 3f 17 12 7f 3f
       1.0334489 1.0216169 0.99778765 0.9963698
000070 62 63 7d 3f 03 66 7c 3f 26 b2 80 3f 40 63 7e 3f
       0.9897977 0.9859316 1.0054367 0.99370193
000080 a3 47 80 3f 81 c9 84 3f ec 90 82 3f 1d 99 82 3f
       1.0021862 1.0373994 1.0200477 1.0202976
000090 67 7c 73 3f df 3b 86 3f 63 45 7f 3f 00 08 7a 3f
       0.951117 1.0487021 0.9971525 0.9766846
0000a0 fc 16 7d 3f 35 ca 7b 3f 48 81 7f 3f a8 d2 7e 3f
       0.98863196 0.9835542 0.9980664 0.99540186
0000b0 7b 7c 81 3f 50 4b 80 3f af 07 83 3f 16 4f 7a 3f
       1.0116113 1.0022984 1.023672 0.97776926
0000c0 4e 08 86 3f 7d 96 7c 3f f7 de 7a 3f 05 df 80 3f
       1.0471284 0.98667127 0.9799647 1.006806
0000d0 2b 56 7c 3f 1e de 80 3f b2 e6 7f 3f 07 fc 7f 3f
       0.9856898 1.0067785 0.9996139 0.9999394
0000e0 33 97 7e 3f 26 9a 7f 3f 72 7b 72 3f 64 cf 82 3f
       0.9944946 0.99844587 0.9471961 1.021954
0000f0 d2 0e 81 3f 12 70 7f 3f 36 37 78 3f a7 6b 80 3f
       1.0082648 0.9978038 0.96959245 1.0032853
000100 4a f9 80 3f 9d 89 79 3f 33 e3 7c 3f 5f 7f 7a 3f
       1.0076077 0.97475606 0.9878418 0.978506
000110 dd c7 7c 3f cb 0d 7f 3f f2 0f 7d 3f 01 4c 73 3f
       0.9874247 0.9963042 0.98852456 0.9503785
000120 b0 a8 7d 3f 56 d5 7d 3f cb 3e 81 3f 52 ff 7b 3f
       0.9908552 0.9915365 1.0097288 0.9843646
000130 87 0f 82 3f ab 9b 81 3f b3 dc 7d 3f d1 d2 81 3f
       1.0160989 1.0125631 0.99164885 1.0142461
000140 ac 18 7e 3f ed d3 7b 3f 2c 9c 83 3f c0 72 79 3f
       0.99256396 0.9837025 1.0282035 0.9744072
000150 d5 12 81 3f a5 c6 82 3f 23 a5 7c 3f ba 39 7e 3f
       1.0083872 1.0216872 0.9868948 0.99306834
000160 64 e8 7f 3f 4f 55 7d 3f f5 23 82 3f 59 14 86 3f
       0.99963975 0.98958296 1.0167223 1.047496
000170 09 6d 7f 3f d2 d1 80 3f de f0 7d 3f 9c da 80 3f
       0.9977575 1.0064032 0.9919566 1.0066714
000180 91 c3 80 3f 9d e9 81 3f 06 1b 80 3f 3f a0 81 3f
       1.0059682 1.0149418 1.0008247 1.0127028

module.encoder.1.layers.2.bias f4 [1, 256]
000000 46 d9 2c bc c6 29 5c bc 52 b3 8d 39 c3 84 82 3b
       -0.010549849 -0.013437694 0.0002702722 0.0039831116
000010 7a 5e 84 3b 94 af 41 3b 99 15 50 bc 94 a7 66 bb
       0.004039583 0.0029554116 -0.012700462 -0.00351951
000020 14 d5 a7 3b ee 76 76 3b 74 1b 07 3b 8f 6b fe 39
       0.0051218364 0.0037607509 0.0020615729 0.00048526793
000030 c7 bf 91 b9 49 3d 99 3c 96 56 32 3c 71 71 66 b9
       -0.0002779944 0.01870598 0.0108849015 -0.0002197677
000040 4f 75 b9 3b 3d 0e da 3a 5e 1e f5 3b d7 82 d8 3b
       0.005659736 0.0016636323 0.0074804267 0.006607394
000050 15 f0 66 bb 96 fd 2d 3c c2 f8 00 3c 06 f9 d9 3b
       -0.0035238315 0.010619542 0.0078718085 0.0066520004
000060 1e d5 8c bb a4 99 8e ba 69 e4 8d 3b 17 34 23 3c
       -0.0042978665 -0.0010879529 0.004330207 0.00996115
000070 7c 93 0b 3b ee 50 cc bb e3 ca b2 ba 03 58 80 3b
       0.0021297624 -0.0062352335 -0.0013640787 0.003916742
000080 33 1b e1 bb 61 55 57 3b c4 8c d7 3b b9 41 35 bc
       -0.0068696975 0.0032857286 0.00657806 -0.011063033
000090 28 80 89 39 be 6f d1 bb 06 74 2c 3a fd fc 9b bb
       0.0002622616 -0.0063914945 0.0006578568 -0.004760383
0000a0 d2 8f 86 ba 5c bd 06 bc d1 19 bd bb 27 27 97 bb
       -0.001026625 -0.008223858 -0.0057709 -0.0046128216
0000b0 63 db 12 3a 62 a0 0d 3c ab 39 6e bc 16 c8 20 bc
       0.0005602149 0.008644195 -0.014540116 -0.009813329
0000c0 1c f7 d2 39 10 16 34 bb 57 fe 5b bc 5c ec 1d bc
       0.00040238432 -0.002747897 -0.013427339 -0.009638872
0000d0 71 9e e9 3a f9 ef d5 3b d5 15 42 3b 4b 13 52 3c
       0.0017823708 0.006528851 0.0029615064 0.012821983
0000e0 97 01 1c 3c 65 4e 89 39 0e c8 11 bb ad 9e 41 3b
       0.009521863 0.00026189085 -0.0022244486 0.002954404
0000f0 51 4f e7 3a a8 8a 9c 3b 37 bc 0d 3b 88 35 a9 bb
       0.001764754 0.0047772713 0.0021627077 -0.005163852
000100 42 83 07 3c 12 38 d9 3b bb 04 32 3c 06 e0 c8 bb
       0.00827104 0.0066289986 0.010865386 -0.0061302213
000110 65 22 d8 3b 07 9e 61 bb b8 9c e0 3b 5a 19 06 3b
       0.006595897 -0.0034426467 0.00685462 0.0020461888
000120 c1 08 ed 3b bf a8 a9 39 9b ba 42 3b 72 87 a2 3a
       0.0072337096 0.00032359918 0.0029713276 0.0012399985
000130 55 05 d7 3b c3 17 93 3c 46 92 fa 3b 2e 2d 96 bb
       0.006561915 0.017955666 0.0076468317 -0.0045830226
000140 f9 8e c2 ba ad b3 9c 3b b7 07 86 bb 2b 93 04 bc
       -0.0014843635 0.004782161 -0.004090275 -0.008091728
000150 c6 aa 4c 3b f9 4c 0a ba 10 37 35 ba 1c d7 e6 bb
       0.0031229719 -0.0005275752 -0.0006912807 -0.007044686
000160 10 73 dc 3b 03 83 39 bc 64 65 83 bc ee 82 13 3b
       0.0067275837 -0.0113227395 -0.016039558 0.002250846
000170 b5 1e 8b 39 73 d3 fb 3b e6 3a 27 bc 68 ff 9d bb
       0.00026535025 0.007685119 -0.010206914 -0.0048217066
000180 e9 1f 90 bb 3d b8 5d 3c 12 5d ed 3a 7f 18 3f 3c
       -0.0043983352 0.013532695 0.0018109402 0.011663555
000190 9e 67 ef 3b 71 68 76 ba 66 ee dc ba 12 5f 27 3c
       0.0073060533 -0.0009399718 -0.0016855716 0.010215538
0001a0 2f 93 fb 3b 87 fc 43 3c a6 d3 43 3c 4f 4d e8 ba
       0.0076774578 0.011962063 0.011952316 -0.0017723235
0001b0 30 44 ee 3a 70 3c 5d bc 32 76 0b bc 8c 5d 32 3b
       0.001817828 -0.013503179 -0.008512067 0.0027216403
0001c0 5d d2 a9 bb a4 9d d6 bb 02 c2 8d bc d6 e6 a5 3b
       -0.005182548 -0.006549554 -0.017304424 0.005062918
0001d0 b7 42 84 3b 8c 98 b0 bb 52 29 0b bc de e4 55 bc
       0.0040362733 -0.0053892788 -0.008493738 -0.0130550545
0001e0 24 7f 9a 3b 68 fd 2f bb 10 e6 01 ba af 34 e9 3b
       0.0047148634 -0.0026853923 -0.00049552415 0.007116876
0001f0 79 26 d4 bb 7c 53 26 3b a5 5a b4 3b dd be 67 bc
       -0.006474313 0.002537935 0.0055039697 -0.014144626
000200 9c e4 12 bc c8 02 19 3c af 18 34 3b 60 14 c5 3b
       -0.008965638 0.009339042 0.0027480533 0.006014392
000210 5e 25 2d 3b 41 f2 0e 3c d3 ae e8 ba 0b 99 85 ba
       0.0026419978 0.00872475 -0.0017752297 -0.0010192705
000220 ea 91 04 3c 18 9c 2a bc d0 ae bc 3b 35 8a 03 bc
       0.008091429 -0.010413192 0.005758144 -0.008028557
000230 0b 9d 3e 3b 60 19 57 3b 95 1a 6c 39 7d 26 05 39
       0.0029085304 0.003282152 0.00022516616 0.00012698206
000240 dc 7a 80 bb c0 b3 ea 3b d2 a1 7f 3b 9d 5a 1e 3c
       -0.003920896 0.007162541 0.0039006365 0.009665159
000250 01 71 ea 3a ba 34 0f bc cf ea 03 bc 83 fd 1f ba
       0.0017886461 -0.008740598 -0.008051588 -0.0006103145
000260 d8 0e 9c 3a b0 4f c1 ba 3b 7e 1c 3c 37 9e 72 3b
       0.0011906279 -0.001474848 0.00955158 0.0037020573
000270 fa 34 e3 bb 9f b3 07 bc a6 31 3c bc c7 8a ef bb
       -0.0069338055 -0.008282571 -0.0114864465 -0.0073102447
000280 fc ac cc bb 0f ad 45 3c 69 0e 1d 3c 26 fe 13 3c
       -0.0062462073 0.012065186 0.009585955 0.009032762
000290 8f 74 10 3c 3f d8 0e bc 40 ae ef ba 29 33 48 3b
       0.008816852 -0.008718549 -0.0018286183 0.0030548072
0002a0 46 8b cc 3b e6 0a 1c 3c 8e 53 fe 3b 38 d5 2a bc
       0.0062421886 0.009524083 0.0077614253 -0.010426812
0002b0 a1 bf 62 3b 86 25 50 bb e9 ca a7 3b ca d4 39 3c
       0.0034599083 -0.0031760647 0.0051206243 0.011342237
0002c0 4d 5d 34 3c 79 c7 05 bc 04 28 05 b9 bb ad a5 ba
       0.011008573 -0.008165234 -0.00012698775 -0.0012640277
0002d0 da ad b9 bb 9e 35 1b 3c 3f 7b 64 3c 74 66 ae bb
       -0.0056664767 0.009473233 0.0139454 -0.005322272
0002e0 1b aa b0 ba ca b0 6f bb d2 ef 3f 3b 95 18 85 3a
       -0.001347843 -0.003657388 0.002928723 0.0010154421
0002f0 bd 3d 1b bc 8c 1f 17 bc 8f 74 f4 3a ca e3 0f 3b
       -0.009475169 -0.00922383 0.001865046 0.0021955841
000300 36 f6 c2 bb ec d5 a2 3c 07 58 9b ba 0a b1 80 3c
       -0.005949761 0.019877397 -0.0011851796 0.015709419
000310 90 f6 2d bc 93 43 0f bc ba 13 06 bc f8 3b 7d bb
       -0.010617867 -0.008744138 -0.008183414 -0.003864048
000320 bb 3e 28 3b bd 67 44 3b ea 44 0c bc aa 7c b3 ba
       0.0025672156 0.002996906 -0.008561352 -0.0013693769
000330 61 58 70 bc e9 5b 04 3c cf 6d 4c bb af d1 93 39
       -0.014669509 0.008078554 -0.003119338 0.0002819425
000340 a7 36 3a bc fa d1 f2 3a 96 8f 09 39 e2 db 7f bc
       -0.011365569 0.0018525713 0.00013118828 -0.015616389
000350 50 b4 11 3b 26 4b 95 3b cd 4e 67 3b 3d 76 7e bb
       0.0022232719 0.0045560775 0.0035294772 -0.00388278
000360 33 7b 8f bb 42 61 25 3c a6 52 6a bb df e8 94 3b
       -0.0043787 0.010093989 -0.0035754829 0.004544362
000370 77 7e 8f ba de 8b 29 3b 99 43 07 3b 5a 3b 16 bc
       -0.0010947724 0.002587072 0.0020639657 -0.009169424
000380 e5 e1 8c 3b 1d af 8d ba 65 60 2b 3c 7c bc 33 3a
       0.0042993897 -0.0010809634 0.010459994 0.00068563945
000390 cc 60 2f 3c 6a e6 83 3b 65 d5 fb 3b 28 a3 ff 3b
       0.0107042305 0.00402527 0.0076853507 0.007801432
0003a0 1c 46 9b 3b 1d d1 c1 3b 04 1b 95 ba cd 39 88 3a
       0.0047385823 0.005914821 -0.0011375849 0.0010393203
0003b0 de 57 0c bc 0b e2 a4 3b 32 21 9f 3b 92 92 e5 3b
       -0.008565871 0.0050318292 0.004856252 0.007005998
0003c0 a5 12 d8 3b 7d 9a 9a 3b e7 70 0d bc 38 37 5c bb
       0.0065940195 0.0047181235 -0.008632875 -0.003360225
0003d0 8e a8 59 bc e3 46 d0 bb 76 ad a2 3a e1 13 d2 3b
       -0.0132848155 -0.0063561066 0.0012411315 0.006411061
0003e0 75 14 6c 3c 34 55 32 3c 0a 96 85 bb d3 f4 9d bb
       0.014409174 0.010884572 -0.004076724 -0.004820445
0003f0 f2 ba f3 ba 60 12 99 bb 17 53 3c bc 2c d6 a6 bb
       -0.0018595143 -0.00467138 -0.01149442 -0.0050914492

module.encoder.1.layers.2.weight f4 [1, 256]
000000 da 83 80 3f 50 20 7e 3f 32 81 83 3f a5 a3 7f 3f
       1.0040238 0.99268055 1.0273802 0.99859077
000010 c9 16 7e 3f d0 85 83 3f fb d0 81 3f 15 4a 84 3f
       0.9925352 1.0275211 1.0141901 1.0335108
000020 d4 a5 81 3f 62 4e 7e 3f 03 1a 80 3f 62 9f 80 3f
       1.0128732 0.9933835 1.0007938 1.004864
000030 cf 43 7f 3f e6 e0 7e 3f d6 af 81 3f f2 8e 85 3f
       0.9971284 0.9956192 1.0131786 1.0434248
000040 36 68 80 3f 4f 3f 83 3f d0 31 7f 3f 34 26 81 3f
       1.0031803 1.0253695 0.9968538 1.0089784
000050 d5 91 80 3f 9b 9e 82 3f d0 fe 7c 3f 28 18 7e 3f
       1.0044504 1.0204653 0.98826313 0.9925561
000060 54 3b 80 3f 4a 97 81 3f e9 fa 7a 3f 31 2a 7c 3f
       1.0018106 1.0124295 0.9803911 0.9850188
000070 78 6a 7c 3f fa d4 83 3f c1 df 82 3f fc 9e 82 3f
       0.9859996 1.029937 1.0224534 1.0204768
000080 37 b1 7e 3f 3c 11 7f 3f 33 04 84 3f f8 2e 80 3f
       0.9948916 0.9963567 1.0313781 1.0014334
000090 8b 29 7b 3f ba ef 82 3f 8e 79 80 3f f6 02 7d 3f
       0.98110265 1.0229409 1.0037096 0.98832643
0000a0 6b 13 81 3f c9 75 7e 3f 91 dd 82 3f 8f 79 80 3f
       1.0084051 0.99398476 1.0223867 1.0037097
0000b0 45 ad 7f 3f 6a 5a 81 3f 4f 66 7e 3f 35 e0 7f 3f
       0.99873763 1.0105717 0.9937486 0.9995149
0000c0 81 a1 82 3f 64 c5 80 3f c1 26 83 3f 94 d9 7e 3f
       1.0205537 1.0060239 1.0246202 0.9955075
0000d0 ec 1b 82 3f e9 6d 7e 3f 01 a7 81 3f a2 90 82 3f
       1.0164771 0.9938646 1.012909 1.0200388
0000e0 2a ce 83 3f 53 4c 86 3f 2e ac 82 3f 3c dc 81 3f
       1.0297291 1.0492042 1.0208795 1.0145335
0000f0 4e 1d 83 3f c6 98 7c 3f 8c 49 80 3f 0a 93 82 3f
       1.0243318 0.98670614 1.0022445 1.0201123
000100 9d 7b 80 3f 89 2f 81 3f dd 61 81 3f b6 8c 81 3f
       1.0037724 1.0092632 1.010799 1.0121067
000110 d0 d1 81 3f 00 c2 80 3f 91 87 81 3f ef f5 81 3f
       1.0142155 1.0059204 1.0119497 1.0153178
000120 48 d5 7f 3f 23 bd 7f 3f 12 a5 80 3f 34 bf 81 3f
       0.99934816 0.99897975 1.0050375 1.0136476
000130 ec 0a 81 3f be 7c 77 3f 88 be 81 3f e4 52 82 3f
       1.0081458 0.96674716 1.013627 1.0181546
000140 99 a2 81 3f 71 f8 81 3f ad 83 7f 3f e1 90 81 3f
       1.0127746 1.0153943 0.99810296 1.0122339
000150 6b 20 81 3f 65 65 82 3f 2a a6 81 3f 6a 5f 81 3f
       1.0088018 1.0187193 1.0128834 1.0107243
000160 b5 3a 81 3f 08 f4 84 3f b9 da 7c 3f 97 af 82 3f
       1.0096041 1.0386972 0.98771244 1.0209836
000170 a9 cf 82 3f 06 9e 7f 3f fc a2 81 3f 25 6b 80 3f
       1.0219623 0.998505 1.0127864 1.0032698
000180 97 d5 80 3f 86 37 83 3f 8c da 81 3f de ba 7e 3f
       1.0065182 1.025132 1.014482 0.99503887
000190 04 12 7c 3f 9e ba 83 3f 13 fe 83 3f ff 7b 82 3f
       0.9846499 1.0291326 1.0311912 1.0194091
0001a0 7c 9e 80 3f 23 4e 7b 3f f0 e7 7a 3f 5a 27 82 3f
       1.0048366 0.981661 0.9801016 1.0168259
0001b0 7a 2f 7f 3f 07 53 80 3f 63 70 82 3f 73 b9 80 3f
       0.9968182 1.0025338 1.0190548 1.0056595
0001c0 70 a6 81 3f 46 54 81 3f 92 dd 7c 3f a7 f0 81 3f
       1.0128918 1.0103843 0.9877559 1.0151566
0001d0 6c 41 80 3f 58 47 83 3f 14 8f 81 3f 59 17 80 3f
       1.0019965 1.0256147 1.0121789 1.0007125
0001e0 8b 02 80 3f b7 bb 80 3f 76 98 81 3f d9 0c 81 3f
       1.0000776 1.0057286 1.0124652 1.0082046
0001f0 45 25 7d 3f 22 35 80 3f 9f ce 83 3f 5b bc 81 3f
       0.98884994 1.0016215 1.0297431 1.0135607
000200 c3 5a 7d 3f 4e 59 7e 3f 2d 44 82 3f bb 66 80 3f
       0.98966616 0.9935502 1.0177056 1.0031351
000210 dc 97 81 3f 86 26 7d 3f 22 6b 80 3f e5 a7 85 3f
       1.0124469 0.9888691 1.0032694 1.0441862
000220 e2 23 7d 3f 40 8a 7d 3f 39 4c 7e 3f 20 70 7d 3f
       0.9888288 0.9903908 0.99335057 0.98999214
000230 ae 1c 82 3f 2a e8 7d 3f 07 ed 7e 3f 35 2e 81 3f
       1.0165002 0.9918238 0.99580425 1.0092226
000240 f6 22 80 3f 24 97 7e 3f a1 a0 80 3f 6f 0e 7b 3f
       1.0010669 0.9944937 1.004902 0.980689
000250 b6 bc 81 3f 2e 69 80 3f bc 9f 7c 3f 06 1d 82 3f
       1.0135715 1.0032098 0.98681235 1.0165107
000260 0b 4e 83 3f 67 b9 7e 3f 9a db 7f 3f ff d7 81 3f
       1.0258192 0.9950165 0.9994446 1.0144042
000270 aa 48 7f 3f af ba 82 3f 3b df 80 3f 24 75 80 3f
       0.9972025 1.0213221 1.0068125 1.0035748
000280 6e 47 7c 3f 00 35 81 3f 0f f8 7f 3f 47 36 80 3f
       0.98546493 1.0094299 0.9998788 1.0016564
000290 ad cd 81 3f a1 36 7c 3f 1e 6e 80 3f 1f be 80 3f
       1.0140892 0.9852086 1.0033605 1.005802
0002a0 d7 a8 82 3f 0c 7a 82 3f 6f 9f 7e 3f 64 8f 80 3f
       1.0207776 1.0193496 0.99462026 1.0043759
0002b0 0a cc 7f 3f 21 4b 7f 3f e7 16 7d 3f a2 26 7d 3f
       0.99920714 0.9972401 0.9886307 0.98887074
0002c0 63 ff 7b 3f 90 e3 7e 3f cd 97 7e 3f 57 6e 81 3f
       0.98436564 0.9956598 0.9945038 1.0111798
0002d0 4f 4f 80 3f 58 39 83 3f a3 9a 83 3f a5 c0 7b 3f
       1.0024203 1.0251875 1.0281566 0.9834083
0002e0 e3 b9 80 3f 11 eb 80 3f c4 08 7e 3f 13 bd 80 3f
       1.0056728 1.0071737 0.99232125 1.0057701
0002f0 4f be 80 3f 43 d8 80 3f 28 a7 81 3f 96 cd 80 3f
       1.0058078 1.0065998 1.0129137 1.006274
000300 83 26 80 3f 1b 6e 7e 3f 61 fa 83 3f d8 6c 81 3f
       1.0011753 0.9938676 1.0310785 1.0111341
000310 c3 24 81 3f bb 52 80 3f c8 9a 80 3f b8 24 83 3f
       1.0089344 1.0025247 1.0047235 1.0245581
000320 f5 61 7f 3f cb 2b 81 3f 84 40 81 3f c5 d7 82 3f
       0.99758846 1.009149 1.0097814 1.0222098
000330 5e 47 81 3f ed f8 80 3f 22 55 81 3f 10 d3 7d 3f
       1.0099905 1.0075966 1.0104105 0.9915018
000340 d6 b0 7f 3f f5 e3 7f 3f 5d 4f 80 3f 81 c3 7d 3f
       0.99879205 0.9995721 1.002422 0.9912644
000350 c0 51 7e 3f 30 08 81 3f bf 0e 82 3f 10 89 81 3f
       0.9934349 1.0080624 1.016075 1.0119953
000360 9e b4 82 3f 9e bf 7e 3f 19 da 82 3f c4 9f 7e 3f
       1.021137 0.99511135 1.0222808 0.99462533
000370 6f 59 7e 3f bc 2c 82 3f 41 a0 82 3f f8 13 84 3f
       0.99355215 1.0169902 1.0205156 1.0318594
000380 21 f6 7f 3f ff b2 80 3f 9e ca 82 3f c3 7f 7f 3f
       0.9998494 1.0054625 1.0218084 0.99804324
000390 fe db 80 3f 15 33 80 3f cf 48 83 3f 2f e6 7f 3f
       1.0067136 1.0015589 1.0256594 0.9996061
0003a0 32 b8 80 3f 4d 26 7f 3f 88 00 7e 3f bb 47 81 3f
       1.0056212 0.9966782 0.9921956 1.0100015
0003b0 86 87 7f 3f 79 5b 7e 3f bd f3 81 3f 91 2c 7f 3f
       0.9981617 0.99358326 1.0152508 0.9967738
0003c0 5b 6c 7d 3f 4d d9 80 3f 37 ac 80 3f fe 55 80 3f
       0.9899346 1.0066315 1.0052556 1.0026243
0003d0 5d 47 7e 3f a4 55 80 3f 50 83 84 3f e0 11 83 3f
       0.9932764 1.0026135 1.0352573 1.023983
0003e0 1f 45 82 3f 0d ec 80 3f 45 07 81 3f 5a a7 7e 3f
       1.0177344 1.0072037 1.0080343 0.9947411
0003f0 2c 8e 82 3f 58 6a 7e 3f 08 9e 7c 3f 21 0e 81 3f
       1.0199637 0.9938102 0.98678637 1.0082437

module.encoder.1.layers.3.bias f4 [1, 128]
000000 f9 91 81 bd 86 2e 7e bd 63 0f 61 3d 8d 5a 46 bd
       -0.0632667 -0.062056087 0.054946315 -0.0484262
000010 01 5a 64 3d 90 8a ba 3c a5 4a fa 3b 19 3a 99 bc
       0.055749897 0.02277115 0.007638293 -0.018704461
000020 2c 21 61 bd ee 50 5d bd 3a 53 35 bc b2 bf 8d bd
       -0.054963276 -0.05403226 -0.011067206 -0.069213286
000030 aa b0 16 bc fa 30 21 3d 2a 8f 3b bd 73 d7 16 3d
       -0.009197393 0.03935335 -0.04579083 0.036826562
000040 c5 7c 05 3d 87 1f 06 bd f1 df 90 bc 3c 8f 2c bd
       0.032589693 -0.03274491 -0.017684909 -0.042128786
000050 e5 88 78 bc 9d 9c 67 3d b7 98 48 3c 8b 0a d6 bc
       -0.015169357 0.056545842 0.012243441 -0.026128074
000060 4a ca 26 3d 8e 72 29 bd 15 12 37 bd 1b db 47 3b
       0.04072026 -0.041369013 -0.04469498 0.0030495587
000070 94 06 77 3b d5 e2 95 3b 64 3e 07 bd 40 cb 30 3d
       0.003769313 0.0045741596 -0.033018485 0.043162584
000080 db 11 dd bc 73 ee 98 bc a7 12 be 3c e3 9d 51 3d
       -0.026986053 -0.018668389 0.023202254 0.051175963
000090 12 48 19 bb 6f ac 26 3c 10 ad 45 3c f9 a2 cf 3c
       -0.0023388905 0.010172947 0.012065187 0.025346266
0000a0 8e 41 9c bd f3 e7 86 bd e6 26 f6 ba 57 9f b2 3c
       -0.07629691 -0.065872096 -0.0018779903 0.021804495
0000b0 b9 55 73 3b dc d1 75 3d 43 d7 25 bc c4 f2 38 3c
       0.0037129952 0.06001459 -0.010122123 0.011288349
0000c0 bb a8 dc bc d4 5b 6a bc 1f e6 ec 3c c1 7d 80 3c
       -0.026935926 -0.01430412 0.028918324 0.015684964
0000d0 26 af 45 3d 1b 70 aa 3c cf dc c2 bc 20 16 2b 3d
       0.048262738 0.02080541 -0.02378693 0.041769147
0000e0 11 7e 80 bc 47 ea 71 3d 07 ad 18 bc a0 25 a5 bc
       -0.015685113 0.059061315 -0.009318597 -0.020159543
0000f0 f1 f2 1a bd ef 81 20 3d e3 69 85 bd 6b d4 7a bc
       -0.037829343 0.039186414 -0.06514337 -0.015309433
000100 82 c0 ae 3c 86 7b 04 bd 53 6f 62 bd 6a 65 06 bd
       0.02133203 -0.032344364 -0.05528195 -0.03281156
000110 e2 d4 90 bc 8b 5e 45 bd a0 f5 8f bc 83 4a 88 bb
       -0.017679635 -0.048185866 -0.017573178 -0.004159273
000120 fb 31 49 bd 00 f1 72 bc 47 95 eb bc ec 0b 39 3d
       -0.04911993 -0.014827967 -0.028757704 0.045177385
000130 7b 0a 32 3b 75 a4 20 3d d7 38 49 bd 4d ee 35 3d
       0.0027166891 0.03921934 -0.049126472 0.044416714
000140 8a 14 9e bc 08 00 d2 3c 89 45 68 3d 9b 44 37 bd
       -0.019296903 0.02563478 0.05670694 -0.04474316
000150 ba 92 7a bd 68 f8 a3 3b 4f 87 b5 bc 22 bb 95 bd
       -0.061175086 0.0050039776 -0.022159247 -0.073110834
000160 27 01 23 bd c3 1c eb 3c 10 1e 9b b8 06 02 2f bd
       -0.03979602 0.028700238 -7.3965755e-05 -0.04272654
000170 45 7b 3c 3d fd 81 27 bd ff 6e 4a 3d db 12 82 bd
       0.046015996 -0.04089545 0.04942226 -0.06351253
000180 08 fa e1 3c fa 43 58 3d 85 e3 8f 3c 6b b5 95 3c
       0.027585045 0.052799203 0.017564544 0.018274983
000190 ae 20 ac bc 7c ca 33 3d 4c bc 85 3c 63 09 24 3d
       -0.021011677 0.043894276 0.016325139 0.040048014
0001a0 31 f8 81 bd b5 a4 16 3c bc 45 c2 3c 6b 14 f8 3c
       -0.06346167 0.009194543 0.023714893 0.030283174
0001b0 6a 59 ac 3b 89 0f d5 bb 87 82 88 bb 59 3f bb 3c
       0.0052596824 -0.006502096 -0.0041659507 0.022857355
0001c0 a4 b9 86 3d 1e 3e 42 bd 2c 1e 0e 3a 0e 66 5a 3d
       0.06578377 -0.04742252 0.0005421366 0.053319983
0001d0 e7 07 17 3d 57 e6 9f 3b 8f 47 06 3d 1a ab 7e bc
       0.03687277 0.0048797536 0.032783087 -0.0155437235
0001e0 ee 50 74 3d be ba 03 3d 32 65 2c 3d d6 d3 34 bd
       0.059647493 0.032160513 0.042088695 -0.044147335
0001f0 92 dc 4b 39 dd 5b cc bc f3 4e 45 3d c3 bd 26 bc
       0.00019441757 -0.024946148 0.048170995 -0.010177079

module.encoder.1.layers.3.weight f4 [1, 128, 256]
000000 30 b0 04 bd 81 08 34 3d 62 60 33 bd 71 0b 97 bc
       -0.032394588 0.043953422 -0.04379309 -0.018438073
000010 c1 aa 56 bd 59 0a 6b bc c5 1d 86 bc 32 99 89 bd
       -0.052408937 -0.014345729 -0.016371617 -0.06718673
000020 9c d9 90 bb c2 ef 2a bd 6a c0 18 bd e8 28 aa bd
       -0.0044204723 -0.041732557 -0.037292875 -0.083085835
000030 fd fc 12 3d 51 85 aa 3c 05 0b a1 bc 2d 70 2d 3d
       0.0358858 0.020815523 -0.019658575 0.042343307
000040 4f e7 e8 bc 2d 5f ba 3d 7b 73 4e 3c 11 58 d8 bc
       -0.028430609 0.091001846 0.012600775 -0.02640918
000050 04 84 68 3b d3 92 b6 3b 50 cc 85 bc 1e a8 14 3c
       0.0035479078 0.005571702 -0.016332775 0.009073285
000060 0c 2d de bc b2 26 68 bd b1 99 71 3d 74 fe e0 bb
       -0.02712109 -0.056677528 0.058984462 -0.0068662707
000070 58 bc 05 3d ea 1d ba bc 98 4c 02 bd aa ef 8f bc
       0.03265032 -0.022719342 -0.031811327 -0.017570335
000080 26 e8 16 bd 6a 10 90 3c 6d 73 9f 3b b7 6e 83 3d
       -0.036842488 0.017585952 0.0048660547 0.064176016
000090 dc 80 73 bc 31 ae 33 3d 25 c0 47 bc 5c b4 08 bd
       -0.014862265 0.043867294 -0.012191807 -0.03337513
0000a0 33 5b c3 bc 47 1b 3a 3d ee 44 1e 3d 1c a1 7a bd
       -0.023847198 0.04543617 0.038639955 -0.061188802
0000b0 f6 06 04 3d 7e 14 cd 3c 51 4b fe ba e5 d8 7c bd
       0.0322332 0.025034185 -0.0019401108 -0.061730284
0000c0 43 4b f4 3c e9 c2 01 bb 3f 2b 93 3d d3 c0 7b 3d
       0.029821044 -0.0019800013 0.07185983 0.06146319
0000d0 96 21 50 bd 78 f4 17 bd 99 1f 2c 3d 37 eb 12 bd
       -0.05081328 -0.037098378 0.04202232 -0.03586885
0000e0 0c 4d c2 3c 0e fe b0 3d 50 7b 92 3d 3e 3b 62 bd
       0.02371838 0.08642207 0.07152426 -0.05523228
0000f0 97 5d 53 bd aa ff 67 bc aa b3 83 3d 3f 34 61 3d
       -0.051602926 -0.014160076 0.064307526 0.054981466
000100 4a a6 41 3d d7 6a f5 3c cd 06 13 bc 4f cf 20 bc
       0.047277726 0.029958172 -0.008973789 -0.009815051
000110 40 f4 95 bd e9 34 33 bd 83 56 6a 3d 49 04 32 3d
       -0.073219776 -0.04375163 0.05721141 0.043461118
000120 e2 58 58 3d e8 57 25 3d 13 39 6f 3c 8c a4 f5 3b
       0.05281914 0.040367037 0.01460101 0.007496422
000130 86 7b 3f bd 26 bf db bc 2f 23 e7 bc 46 6c 8c 3d
       -0.04674866 -0.026824545 -0.028215019 0.06856589
000140 7f eb 93 bd f8 e0 0f bc c8 f2 83 bc 96 92 f2 3c
       -0.07222652 -0.008781664 -0.016106978 0.029610913
000150 14 4c 65 3d 48 ee 93 3d bc 2d 0d 3d 28 37 8d bb
       0.055980757 0.07223183 0.034467444 -0.0043095537
000160 18 a8 26 bd 29 28 8f 3d c7 01 98 3c 9e 90 cb 3c
       -0.04068765 0.06990082 0.018555535 0.024849232
000170 e5 ef 39 bd 65 70 c2 bc 6c ea 6c bc 35 26 d9 3c
       -0.045394797 -0.023735235 -0.014460187 0.026507476
000180 16 8b 0b 3d 04 c9 af bc 95 28 82 bd 50 1b 75 bd
       0.03406819 -0.021458156 -0.06355397 -0.0598405
000190 0a 55 ed bc b5 86 a8 3b 39 60 06 bd 6f 9b 22 bc
       -0.028971214 0.0051430115 -0.03280661 -0.009924754
0001a0 b6 f5 8d 3c ce df 91 3c ca 11 3a bc 1d 1c 2c bd
       0.017329078 0.017806914 -0.01135678 -0.042019
0001b0 e3 7e 0f bc e4 99 c6 bc e0 6b 80 3d 0c 53 16 bd
       -0.0087582795 -0.024243303 0.062705755 -0.036700293
0001c0 a8 9f 44 3b 79 00 17 bc 19 3f 7c 3d 89 75 73 bd
       0.003000239 -0.009216421 0.061583612 -0.059438262
0001d0 db 03 41 bd 41 f3 0e bd 7a fd 10 bd 35 86 09 3d
       -0.047122817 -0.034899954 -0.035397984 0.033575255
0001e0 ac c8 d3 bc 72 64 2a 3d 36 0c b0 bc 8b 1c a9 bc
       -0.025852524 0.0415997 -0.021490198 -0.020643493
0001f0 d9 6e cd 39 dd 31 25 3d 67 2f 41 3d 61 ae af 3b
       0.00039183235 0.040330756 0.047164347 0.0053613638
000200 a2 9e 7b 3c fd df 9e 3c 78 29 a4 bd 69 d2 56 bd
       0.015357645 0.019393915 -0.08015722 -0.052446757
000210 51 52 be bc 05 fa aa bc 97 fc 21 bb 85 5e 52 bb
       -0.02323261 -0.020871172 -0.0024717206 -0.0032099795
000220 c2 6c 0a 3b 16 3b 4a 3d 76 14 1b 3a a7 06 97 bc
       0.0021121954 0.049372755 0.00059158297 -0.01843579
000230 eb ba 54 3d 87 d3 43 3d 78 44 a1 bc c8 3f 86 3d
       0.05193607 0.04780915 -0.019685969 0.06555134
000240 e1 b9 24 3d 79 19 0b bd fa 84 76 bd 4d dd 1b bd
       0.04021633 -0.03395984 -0.06018541 -0.038052846
000250 be 80 01 bd 1f c5 d9 bc 7f 0d 28 bd 61 0d 25 bc
       -0.03161692 -0.026583252 -0.041028496 -0.010073991
000260 01 a5 97 3d 54 b5 fe 3c ca 27 e9 3c c2 f4 a6 bd
       0.07404519 0.031092323 0.028461356 -0.081521526
000270 e2 45 26 3d f4 ac 72 3d 20 78 5f bc cb ba 6f 3a
       0.04059399 0.059246972 -0.01363948 0.0009144961
000280 cb d7 32 3d 16 6f df bc ba ef 64 3d 32 7b ec bc
       0.043662827 -0.02727465 0.055892684 -0.028867338
000290 c8 f1 6e 3a 18 0f 41 bc eb fd 0a bd a1 5b 08 bd
       0.00091150077 -0.011783384 -0.03393356 -0.03329051
0002a0 a6 d6 ce bb a6 2c 1f bc d2 ef f8 bc 89 d0 f9 bc
       -0.006312209 -0.009715235 -0.030387793 -0.030494945
0002b0 4e 8c 1b bd 2d 2e 8d 3d d1 9c 13 bc 36 0f 96 3c
       -0.0379756 0.06893573 -0.009009556 0.0183178
0002c0 5e e2 3c bd 55 2d 36 3d 59 35 6c bd b5 a0 74 3c
       -0.046114318 0.044476826 -0.057668064 0.014930894
0002d0 fb 56 43 3d 16 84 d5 3c 9b 7b 6f bd 62 1e 33 bd
       0.047690373 0.02606396 -0.05846749 -0.043730147
0002e0 50 a2 af 3c 1d 30 a3 3c e4 33 3f bd f4 5b 61 bd
       0.021439701 0.019920403 -0.046680346 -0.055019334
0002f0 8c 37 23 3d 93 57 d8 3c 02 1d 90 bd e5 83 b5 bc
       0.039847896 0.026408946 -0.07036783 -0.022157619
000300 4c 33 5a 3d 02 a5 54 bd 0b d3 04 3c a1 fd 71 bd
       0.053271577 -0.051915176 0.008106957 -0.05907977
000310 ba 8c 0f 3d e8 fc bd bb 91 c5 27 3d 6a bb 47 3d
       0.035046317 -0.005797971 0.0409599 0.048762716
000320 c9 80 96 bc 1d 6d 6a bd 52 41 f5 3c 4c fc 96 3c
       -0.018371956 -0.057232965 0.029938374 0.018430851
000330 fb 49 3b 3d 25 6b d7 bc 90 70 46 bd 69 c4 df bc
       0.04572485 -0.026296208 -0.04844719 -0.027315335
000340 4d 2a 0c 3d 98 50 c9 bb 1a 74 03 3c 7e 14 7c 3d
       0.03422003 -0.0061436407 0.008023286 0.06154298
000350 86 8e 6c bd 3c 58 41 bc 37 40 e5 3c 0e 3e 80 3c
       -0.05775311 -0.011800822 0.027984722 0.01565459
000360 85 4a c4 bc 91 d8 21 bd e8 30 48 3d 55 16 ff 3c
       -0.023961315 -0.039513174 0.048874766 0.031138578
000370 65 69 0c bd c2 f9 98 bb 2f a7 d0 bc 61 b4 4a 3d
       -0.0342802 -0.0046684453 -0.025470344 0.04948843
000380 04 ea 80 3c 4f de ef 3c 97 57 1c bd ae 29 38 bd
       0.015736587 0.02928081 -0.03816947 -0.044961624
000390 67 b5 a5 bd 55 82 22 3d 15 9f 92 3b f3 75 57 bd
       -0.080912404 0.039675076 0.0044745305 -0.05260272
0003a0 77 40 35 3d e4 8a 6b 3d 40 af 5d bc f2 76 8f bc
       0.04425093 0.057505503 -0.013530552 -0.017512772
0003b0 f3 94 62 3d e9 ab a8 ba 7c ba 9c bc 98 ca a0 3a
       0.05531783 -0.0012868616 -0.019131891 0.0012267409
0003c0 4b 93 23 3c e0 50 ca 3c 4e 43 80 3d c5 79 3f 3b
       0.009983848 0.024696767 0.06262837 0.0029216867
0003d0 4e 0b a1 3d 35 9d d4 3c 77 74 8b bd 5d 45 da bc
       0.07863484 0.025953868 -0.06809323 -0.026644403
0003e0 02 7e a3 3c 81 bb 5a bd de a6 03 bd 0e 40 69 3d
       0.019957546 -0.053401474 -0.03214156 0.056945853
0003f0 a9 9b a4 3c 16 be 10 3c d5 6f 02 3d e3 0d 6f bd
       0.020093756 0.0088343825 0.031844933 -0.058362853

module.encoder.1.layers.6.bias f4 [1, 128]
000000 61 65 af bd 0a 8e 14 bd 34 c7 0d bd 15 fe ab bb
       -0.08564258 -0.03626827 -0.034613803 -0.005248795
000010 b9 e2 05 bd 9b ae 05 bc ea 4e 21 bd 2c c3 83 3d
       -0.032686923 -0.008159305 -0.0393819 0.064337105
000020 a6 ac 72 3c 77 d5 6e 3c 08 8a 97 bd d8 79 6e 3d
       0.01481167 0.014577261 -0.07399374 0.058221668
000030 32 d0 2e 3d b3 b8 7f 3d 19 18 69 3d 1c e7 65 3d
       0.04267902 0.062432002 0.056907747 0.056128606
000040 aa f8 a3 bd 77 15 9c bd 06 da ba ba f2 16 60 bd
       -0.08006413 -0.076212816 -0.001425565 -0.054709382
000050 4b 3a 73 bd 98 ba a7 3b d7 17 53 bd 2b 24 98 3d
       -0.059381764 0.0051186793 -0.051536407 0.074287735
000060 69 ff 7f bd c9 07 92 3d ab 50 3d 3d 67 34 2f bc
       -0.062499437 0.07130391 0.04621951 -0.010693646
000070 6a cf 98 3d ec a2 87 3c fe 1f 43 bd 05 c9 b0 3d
       0.07461436 0.01655718 -0.047637932 0.086320914
000080 cf da 7d bd 27 7e 86 bb 31 3f bb 3d 92 ed 34 3d
       -0.06197625 -0.004104394 0.09142912 0.044171877
000090 03 0b 29 3c c4 8f 8d bc 66 08 5a bd ab 19 8a bd
       0.010317567 -0.017280467 -0.053230666 -0.06743177
0000a0 41 aa 8a bd 53 c6 a8 bc 25 a8 30 bd d7 c9 47 3c
       -0.067707546 -0.02060238 -0.043129105 0.012194118
0000b0 c1 f4 8d bd 3b fc f1 bc d4 0e a6 bc 20 d7 4a bd
       -0.06931449 -0.029539218 -0.020270742 -0.049521565
0000c0 04 db cb bc b8 a3 82 3d 71 9f 3e bd 18 7a 98 bd
       -0.024884708 0.06378883 -0.046538774 -0.074451625
0000d0 41 28 84 3d 55 96 0f 3d 4e 5d 97 bd 43 9b 78 bd
       0.0645299 0.035055477 -0.07390843 -0.060694944
0000e0 53 0f 95 3c 89 07 79 bb d7 2d 13 3d 4e d4 a5 3c
       0.018195784 -0.0037998876 0.03593239 0.020242836
0000f0 6b 0e 34 bd 3a 43 8d 3d 6b e1 4d 3c bc 94 23 3c
       -0.043959063 0.06897588 0.012565951 0.0099841915
000100 91 0a 6f 3d f9 4b 1d 3d ad 55 fa bb d2 8e 1d bb
       0.058359686 0.03840253 -0.007639608 -0.0024041426
000110 04 79 9a 3c f7 8d 7d bd 81 d1 99 3c dd 23 7d bc
       0.018856533 -0.061902966 0.018776657 -0.015450445
000120 4c 5d 8d 3d 0a 23 a3 bd 40 6e b4 3d ce 9b 83 bd
       0.069025606 -0.079656675 0.08810091 -0.06426202
000130 3d e7 1f 3d 43 17 1d bd 08 df 99 3d b8 c3 68 3d
       0.039038885 -0.038352262 0.07513243 0.056827277
000140 5d 69 a7 3d 18 56 81 3d f8 bf 21 bd ee d0 35 3d
       0.08174393 0.06315249 -0.039489716 0.044388704
000150 6b 34 c7 3d 13 cc 51 3d 23 a5 7c bd 03 89 88 bd
       0.09726795 0.05122001 -0.061680924 -0.06666758
000160 ca ce 35 bd b7 e9 76 3c b1 9f d0 3c ce 03 35 3d
       -0.044386663 0.01507037 0.025466772 0.04419308
000170 a5 49 74 3d 1a 4c 9f 3d d4 e9 d2 3c cd c3 7a 3d
       0.059640545 0.07778187 0.025746264 0.061221886
000180 a6 5a b6 bc 73 53 2b 3d d6 a5 5b bd f3 43 72 3d
       -0.022260021 0.04182763 -0.05362495 0.059146833
000190 da 9c 93 3d 8a 2a dc bb f3 d8 10 bd 96 0c 92 bd
       0.072076514 -0.0067189382 -0.03536315 -0.07131307
0001a0 3f 8b fd 3b 31 96 42 3d 5f d7 51 3d 78 3c 2b 3d
       0.0077375467 0.047506515 0.051230785 0.041805714
0001b0 b7 3d f1 3c 04 f3 7b bd 6b f3 53 bd 3c 94 1d bd
       0.029448373 -0.061511055 -0.051745813 -0.038471445
0001c0 8f 7d 83 bd 1a 4f 25 3d 64 ef 39 3d 6f dd c0 bd
       -0.06420433 0.04035864 0.045394316 -0.09417235
0001d0 28 98 d8 3c d3 92 97 bd 97 60 6b 3d a4 b9 a1 bd
       0.026439741 -0.07401051 0.057465162 -0.07896736
0001e0 83 72 72 bd 52 0b 9e 3d b5 ce a4 3d 3a ec ee 3c
       -0.059191238 0.07717003 0.08047239 0.029165376
0001f0 ce b6 81 3d b7 32 36 3d 6f 2d a7 bc 25 05 53 3d
       0.06333695 0.04448196 -0.020407407 0.051518578

module.encoder.1.layers.6.weight f4 [1, 128, 128]
000000 cd 37 81 3b 43 97 1f 3d bb 97 1d bd 2b f4 c5 3c
       0.0039434195 0.038962614 -0.03847478 0.02416428
000010 f3 6a 81 bd 91 ce 51 3c 2c 6d 57 3c 7a de 36 bd
       -0.06319227 0.012805597 0.013148587 -0.044645764
000020 be 8b d1 bc 41 33 a4 3d d2 8c 1b bb 7a 85 70 3d
       -0.02557933 0.080175884 -0.0023735058 0.058721043
000030 75 8f 60 3d 70 51 98 3d 34 40 8e 3d 07 9b 76 bd
       0.05482431 0.07437408 0.069458395 -0.06020644
000040 b4 3d 13 bd 4e 60 8c 3d 7c f8 1f bb 3e 72 4d bd
       -0.035947517 0.06854306 -0.0024409583 -0.050157778
000050 78 47 6b 3c ab 01 9a 3a 4c 89 4f 3d 46 64 26 3d
       0.014360301 0.0011749765 0.050668046 0.040622972
000060 b8 c5 62 3d 49 85 83 bd 14 2e 90 bc 9b 1a 34 bd
       0.05536434 -0.064219065 -0.017600097 -0.043970685
000070 03 ec 51 3d fd e5 90 3d 98 98 f8 3b f2 00 77 bd
       0.05125047 0.07075117 0.00758655 -0.060303636
000080 ec 7a 56 3c 3a bd 7c 3d 1b 63 b1 bd fb c8 c6 3b
       0.01309083 0.061703898 -0.08661481 0.006066439
000090 9f ec 95 bd 1c ee c7 3d da 15 94 3d a2 36 93 3d
       -0.073205225 0.09762213 0.0723073 0.07188155
0000a0 cc b0 1c 3d af 69 41 3d 7c 3f d3 3d 2c de 9a 3d
       0.038254544 0.04721993 0.10314843 0.07561907
0000b0 ed 85 ae bb ac e5 66 3c 20 30 8f 3d 7f 34 9d 3d
       -0.005326024 0.014092844 0.06991601 0.076760285
0000c0 0c 1c 22 bd 35 c6 b9 bd 8d 04 15 bd f2 fd 93 3d
       -0.03957753 -0.09071008 -0.036381293 0.072261706
0000d0 3a 72 66 3d 4f cf 5a bb 32 50 4c bd 0c f7 7c 3c
       0.05626128 -0.0033387726 -0.049881168 0.01543976
0000e0 d2 05 9f bd 29 00 88 bd e2 fe bf bc b6 a2 19 bd
       -0.07764782 -0.066406555 -0.023436967 -0.03750869
0000f0 60 97 8d bd f6 04 a6 bd 27 f2 ac bd 17 f5 0a 3c
       -0.06913638 -0.08106415 -0.084446244 0.008481286
000100 bb 74 98 3d 9d c2 47 bd b8 9b d2 3c d3 e4 f6 3c
       0.074441396 -0.048769582 0.025709018 0.030138409
000110 95 fe f1 bc a5 83 9d 3d e0 04 9b 3c 62 51 55 bd
       -0.02954034 0.07691125 0.018923223 -0.052079566
000120 2f 3c d3 3c 4c 18 c5 bd b2 91 b0 bc 7a 5e a0 3c
       0.025785534 -0.09623775 -0.021553848 0.0195763
000130 ba db 8c 3d b5 a4 96 3c ae 2e 14 bd 53 fa f3 bd
       0.06877847 0.018389085 -0.03617733 -0.1191298
000140 67 44 94 3d 8c f6 63 bd 62 cb 82 3d 60 0d 4e bc
       0.07239609 -0.055655047 0.063864484 -0.012576431
000150 a6 cb 2d bd 69 b1 02 bd f6 22 ff bc aa 7d f4 3c
       -0.042430542 -0.031907473 -0.0311446 0.029845078
000160 30 ad b6 bc ac 53 07 bd 12 a8 22 3d 74 d8 49 3d
       -0.02229938 -0.03303878 0.039711066 0.04927869
000170 9c a7 a6 bc d9 ce df bc 19 17 8b bd 42 98 a9 bd
       -0.020343594 -0.027320312 -0.06791515 -0.08280994
000180 41 3a 8c 3d df 4c 85 bd bd a6 3a 3d d0 eb a9 3b
       0.068470486 -0.065088026 0.04556917 0.0051855817
000190 d2 a0 01 bd ef 73 a2 bd 16 89 4e bd 29 48 20 3d
       -0.03164751 -0.07932269 -0.050423704 0.039131317
0001a0 0c 42 91 bc 31 dd 8c 3d 4c 55 8a bd 73 8c 98 bd
       -0.017731689 0.068781264 -0.0675455 -0.074486636
0001b0 03 59 3f bd 11 01 05 3d 49 d5 92 bd 4c b4 38 bb
       -0.046715748 0.03247172 -0.07169587 -0.0028183637
0001c0 8b 88 a2 bb 9b 56 84 3d d8 4c af bb c1 a5 88 3d
       -0.004960125 0.06461831 -0.0053497367 0.0667224
0001d0 2e b8 aa bd 21 cf c2 3c 4e 5c ff bb 88 4a 43 3d
       -0.08335911 0.023780407 -0.007792986 0.0476785
0001e0 a8 35 74 bd f3 75 fe bb f4 86 3e bd c9 95 0a 3d
       -0.059621483 -0.0077655255 -0.04651542 0.033834253
0001f0 88 9c 4d bc 0c 46 37 3d ba 10 57 3c 2e 25 0d bd
       -0.012549527 0.044744536 0.0131265465 -0.034459285
000200 72 c0 65 3d 34 e6 1f bd bd a7 0d 3d 88 53 aa 3d
       0.056091733 -0.0390379 0.034583796 0.083167136
000210 93 f3 4b 3c 17 55 34 3d c0 00 da bc 1a f8 2c 3d
       0.012448209 0.04402646 -0.026611686 0.042228796
000220 51 b7 87 bc 31 1a ab bd b8 26 d9 3c 41 0d af 3d
       -0.016566904 -0.08354605 0.02650772 0.0854745
000230 10 a4 cd 3d 17 ba a6 bc 58 4a d0 bd b7 ab 66 bd
       0.10041058 -0.020352406 -0.1017043 -0.056316104
000240 e8 ce 85 3d 5c 4a b5 bd 64 45 98 3d 56 48 d0 3b
       0.06533605 -0.088520736 0.0743511 0.0063562794
000250 80 c0 aa 3b c2 8c 82 3d dd cf a0 3d e7 47 55 bd
       0.005210936 0.06374504 0.07852147 -0.052070525
000260 44 ea d4 bc b9 fa 25 bd 42 be b8 ba ee f2 e0 3c
       -0.025990613 -0.04052231 -0.0014094787 0.027459588
000270 35 3f 57 bd 4e e5 b3 bd 9b ef a5 bd 64 a5 05 3d
       -0.052550513 -0.08783971 -0.08102342 0.032628432
000280 8f 99 10 3d e2 78 9f bc 96 04 b7 3d 69 10 99 3d
       0.035302695 -0.019466821 0.089364216 0.07473833
000290 a6 a6 86 3d 98 58 f4 3c b7 0f c6 3d 0f 00 17 3d
       0.065747544 0.029827401 0.09670966 0.03686529
0002a0 2c 17 6a bd 9a c1 66 3d ee 35 07 3d 10 1e 9d 3c
       -0.057151005 0.056336977 0.033010416 0.019179374
0002b0 32 56 af bd 6b be 12 3d eb 28 a5 3d 7e 05 a6 bd
       -0.08561362 0.035826128 0.08064445 -0.08106516
0002c0 c6 73 83 bd 0f 8d b3 3d cc 88 f0 3c 35 5b be 3c
       -0.064185664 0.08767139 0.029362105 0.02323685
0002d0 cc be 73 3d 37 8b 24 3c af 00 4a 3b 4f c5 9b 3d
       0.05950813 0.010042957 0.0030823161 0.07605993
0002e0 40 a2 a3 3d 31 48 75 3d cd 4f 0f 3d 60 3a 27 bd
       0.07989931 0.0598833 0.034988213 -0.040827155
0002f0 7b 31 a2 3c f3 04 48 3d aa e1 57 bc 0a 94 18 bd
       0.019798985 0.048832845 -0.013176361 -0.037250556
000300 88 95 31 bc d0 0f 93 3d 50 77 97 3d 76 c3 12 3b
       -0.010838874 0.0718075 0.07395804 0.0022394336
000310 31 63 7b 3c 11 15 b3 3b 75 9f 03 bd ad a0 4a bd
       0.015343473 0.005465158 -0.032134492 -0.04946964
000320 f6 d0 1c 3d ce 6f 65 3d ad 43 09 bc 69 2f c7 3d
       0.03828522 0.05601483 -0.008377952 0.0972584
000330 eb 1c a8 3d 10 39 92 3d 7e 0b e4 3c 0b 3f 56 bd
       0.08208641 0.0713979 0.027837511 -0.052306216
000340 c2 e1 90 bd e6 ac 7e bd bf 46 c9 3b 60 a0 84 bd
       -0.0707431 -0.062176608 0.006142467 -0.064759016
000350 e6 02 d5 3d 0c a3 5f bc ff 94 51 bc 8f b0 89 bd
       0.104009435 -0.013649713 -0.012791871 -0.06723129
000360 c7 4a b4 3c 28 73 7a 3d fb aa d5 bc 47 61 45 bd
       0.022008313 0.061144978 -0.026082506 -0.048188474
000370 0e 75 8f bd 38 31 b4 bd 2e f8 80 3c dc c2 71 bd
       -0.07004748 -0.0879845 0.015743341 -0.059023723
000380 d3 b7 07 bc 00 10 89 3a c0 c6 18 3d a8 4a 1a 3c
       -0.008283573 0.0010457039 0.037298918 0.0094172135
000390 cc 9e 2d bd 4d 77 1b bd 56 65 a4 bd ae 52 84 3d
       -0.04238777 -0.03795557 -0.08027141 0.064610824
0003a0 08 2e 76 3d da 19 99 3d 63 d3 ba bd ef fa 26 3c
       0.060102493 0.07475634 -0.0912235 0.010191663
0003b0 1e f6 d7 3c 90 04 99 3d 01 39 84 3d 77 b7 12 3d
       0.026362475 0.07471573 0.06456185 0.035819497
0003c0 54 3c 5a 3b 02 d9 25 bd 79 6a a1 bd dc 36 c6 bd
       0.0033300119 -0.040490158 -0.07881636 -0.09678432
0003d0 46 9a 8a 3d 55 19 4a 3d 3b 79 07 3d 11 3d 41 bd
       0.067677066 0.049340565 0.0330746 -0.047177378
0003e0 a4 0a bc 3d 15 09 2c bd 11 a4 1a bd d1 92 a4 3c
       0.09181717 -0.04200085 -0.037754122 0.020089539
0003f0 b7 3b 52 3c ea 73 4d bb 42 39 b4 3b a3 2d 73 3d
       0.01283162 -0.0031349608 0.0054999897 0.059369694
