scripts/shell/checkpoint/high_level/5.pt (torch, 955673 bytes, 48 tensors)

module.act_dist.operator.bias f4 [1, 13]
0	0xbdab7f92	-0.083739415
1	0x3d9fce70	0.07803047
2	0xbae4da71	-0.001746012
3	0xbd6690a8	-0.0562903
4	0xbd53ff08	-0.05175689
5	0x3a5d6966	0.00084461865
6	0xbcc23bd3	-0.023710167
7	0xbd8654b1	-0.06559122
8	0x3c53cf3c	0.0129278265
9	0x3c8e6cad	0.017385805
10	0xbd78009f	-0.060547467
11	0xbdc65ec2	-0.09686042
12	0x3d1b52aa	0.03792063

module.act_dist.operator.weight f4 [1, 13, 128]
0	0xbd92d7d3	-0.071700715
1	0x3e67bd42	0.2263079
2	0x3db445c8	0.08802372
3	0x3e531d10	0.20616555
4	0x3d4c78a8	0.049919754
5	0x3d9200ce	0.0712906
6	0xbcbf593b	-0.023357978
7	0xbb97d8c5	-0.0046339952
8	0x3dacf39e	0.08444904
9	0xbb1d4864	-0.0023999447
10	0x3d895dcb	0.06707343
11	0xbdbd2db4	-0.09237233
12	0x3dbb4088	0.09143168
13	0x3be7771a	0.0070637586
14	0xbe1be62b	-0.15224521
15	0x3d9f5916	0.07780664
16	0x3e1d1141	0.15338613
17	0x3d0c763e	0.034292452
18	0xbdfad1fb	-0.12247082
19	0xbd17c878	-0.037056416
20	0xbe0b62a4	-0.13611847
21	0x3e1762ef	0.14783834
22	0xbc34e7ff	-0.01104164
23	0x3d300eb1	0.04298276
24	0xbda24293	-0.07922854
25	0xbe1f5ab3	-0.15561943
26	0xbd149ba5	-0.036281247
27	0xbd92440e	-0.07141887
28	0xbe1e8d71	-0.15483643
29	0x3c4b50b3	0.012409377
30	0x3a8cba50	0.0010736678
31	0xbdbe003c	-0.092773885
32	0xbde65b4e	-0.11247884
33	0xbd6c6f9e	-0.057723634
34	0xbe133266	-0.14374694
35	0xbca0b3a3	-0.019616907
36	0xbdf7ee63	-0.121060155
37	0x3cfe6cfc	0.031057827
38	0x3e2e627b	0.17029755
39	0x3e07497d	0.13211627
40	0xbc98d5f9	-0.018656718
41	0x3dfaf487	0.12253671
42	0x3df7c017	0.12097185
43	0x3db7f7ab	0.08982786
44	0xbe312b7a	-0.17301741
45	0x3e3d4870	0.18484664
46	0xbdfe6eac	-0.12423453
47	0x3c97beda	0.018523622
48	0x3e31cf1b	0.1736416
49	0xbe3cc389	-0.18433966
50	0xbdd78a16	-0.10524385
51	0x3d56d2b9	0.052447055
52	0x3b929703	0.0044735684
53	0x3e0a48eb	0.13504378
54	0x3ce45360	0.027871788
55	0xbda85faf	-0.08221375
56	0xbde87fdd	-0.11352513
57	0xbd811d15	-0.06304375
58	0x3e81e2a5	0.2536823
59	0xbcd9da63	-0.026593393
60	0x3d0854be	0.03328394
61	0xbdea8c72	-0.11452569
62	0xbe1cf5d6	-0.15328154
63	0xbd0d94f4	-0.03456588
64	0x3d87c3dd	0.06629155
65	0x3d473593	0.048635077
66	0x3de4e2d2	0.11176075
67	0xbd94a8cf	-0.0725876
68	0xbd9c836f	-0.076422565
69	0x3da5c4d3	0.08094182
70	0x3dfc20ff	0.12310981
71	0xbdb09daf	-0.08623826
72	0xbd5ab1cd	-0.05339222
73	0x3d7d7a94	0.061884478
74	0xbe2af127	-0.16693555
75	0xbcee80f5	-0.029114226
76	0x3c7b156a	0.01532493
77	0x3e0a4de8	0.13506281
78	0x3ce877fd	0.028377527
79	0x3c8792e9	0.016549544
80	0xbe228589	-0.15871252
81	0x3e04d2e6	0.12971076
82	0x3da3690a	0.07979019
83	0x3da85d20	0.08220887
84	0xbe4731b4	-0.19452554
85	0x3caad0a4	0.02085144
86	0xbc4b6b99	-0.01241579
87	0xbd3fd336	-0.046832286
88	0xbdc41692	-0.095746174
89	0x3e2be142	0.16785148
90	0x3d3d08fa	0.04615114
91	0x3cfa52e6	0.030557107
92	0xbd3a7b1d	-0.045527566
93	0xbd762688	-0.06009534
94	0xbb1fc7b2	-0.0024380502
95	0x3cb3d281	0.021950962
96	0x3d5520c7	0.052033212
97	0xbd99e484	-0.07514289
98	0xbe1bdaa3	-0.15220122
99	0xbdc1a2dc	-0.09454891
100	0x3df146ca	0.1178108
101	0x3d7b955a	0.06142173
102	0x3cf26b15	0.029592076
103	0x3de04861	0.10951305
104	0xbc22cb64	-0.009936187
105	0xbd80b65b	-0.062847815
106	0x3e5d7ea7	0.21630345
107	0x3daee710	0.085401654
108	0xbd72b563	-0.059255015
109	0x3e314729	0.17312302
110	0xbdf26583	-0.11835768
111	0x3cbffbe9	0.02343555
112	0x3e4d09e3	0.20023303
113	0xbc9a0223	-0.018799847
114	0x3dcc2552	0.09968056
115	0xbdd7d860	-0.10539317
116	0x3e94e8a4	0.2908374
117	0x3dba100f	0.09085094
118	0xbe546eb7	-0.2074536
119	0x3da2c26b	0.079472385
120	0x3d900da3	0.07033851
121	0xbe0cd207	-0.13751994
122	0xbb74390a	-0.0037265443
123	0xbe34efe4	-0.17669636
124	0xbe2c067a	-0.16799346
125	0xbd9f3288	-0.0777331
126	0x3d1ac516	0.037785612
127	0xbd7e54b1	-0.062092487
128	0xbdc9ac85	-0.098473586
129	0x3d8ab0fc	0.06772038
130	0x3d945327	0.072424226
131	0x3dcd1096	0.10012929
132	0xbde79a10	-0.11308682
133	0xbd284068	-0.041077048
134	0x3e166d16	0.1469005
135	0x3e08344e	0.13301203
136	0x3e0d7749	0.13815035
137	0x3dc18ada	0.09450312
138	0xbd8cf7c0	-0.06883192
139	0x3d53bb79	0.05169246
140	0xbd1a3a8c	-0.03765349
141	0x3c120b0d	0.0089137675
142	0x3d1af73e	0.037833445
143	0xbd94d408	-0.07267004
144	0xbe13c9e9	-0.14432491
145	0x3d694538	0.056950778
146	0x3df97b69	0.12181742
147	0xbc88de32	-0.016707513
148	0xbd945a96	-0.072438404
149	0xbc960bc5	-0.018316159
150	0x3d482793	0.048865866
151	0x3c4b9070	0.012424573
152	0xbe0bf9d2	-0.13669518
153	0xbc91a9d8	-0.017781183
154	0x3d9a4abf	0.07533788
155	0xbe14fd10	-0.1454966
156	0x3e42b814	0.19015533
157	0x3c8af71c	0.016963534
158	0x3d7312a7	0.05934396
159	0x3ccb8695	0.024844447
160	0xbd36f63f	-0.044668432
161	0x3df95331	0.121740706
162	0xbd2fa9ea	-0.042886652
163	0x3da8229a	0.08209725
164	0xbda78480	-0.08179569
165	0x3d84d1dc	0.0648534
166	0xbd8dda5d	-0.06926415
167	0xbd5a4c2d	-0.053295303
168	0x3e12c783	0.1433392
169	0x3d8205a6	0.063487336
170	0xbcd7c18c	-0.026337408
171	0x3c6080ee	0.013702614
172	0x3da9debd	0.08294437
173	0x3cfa2f12	0.030540023
174	0xbdca2184	-0.09869674
175	0xbe04e699	-0.12978591
176	0xbdb01d35	-0.08599321
177	0x3d88f3f3	0.066871546
178	0xbe0b6c37	-0.136155
179	0xbcc4eb5f	-0.024038015
180	0x3d2ca74a	0.042151727
181	0x3b5b058b	0.0033420052
182	0xbc77005a	-0.015075767
183	0x3ce27e6f	0.027648179
184	0x3da6cc11	0.08144391
185	0xbe61f34f	-0.22065471
186	0xbc9c8325	-0.019105503
187	0xbe12c79f	-0.14333962
188	0x3de21ef0	0.11041057
189	0xbc8a7465	-0.016901204
190	0xbc8bcb39	-0.017064678
191	0xbdb9803a	-0.090576604
192	0xbde34858	-0.11097783
193	0x3db30d41	0.08742762
194	0xbd82821e	-0.06372474
195	0x3dd1ccdf	0.10244154
196	0x3cf3082d	0.029666984
197	0x3e24993c	0.1607408
198	0xbdd99e59	-0.106259055
199	0xbd9cc2be	-0.076543316
200	0x3cbf4bad	0.023351515
201	0xbdf215d7	-0.11820572
202	0xbd85a141	-0.06524897
203	0x3d5ca8e5	0.053872008
204	0x3e0e7860	0.13913107
205	0x3e1a072c	0.15041798
206	0x3da08213	0.0783731
207	0xbcd92298	-0.026505753
208	0xbe2fc40b	-0.17164628
209	0xbe11cf5a	-0.14239255
210	0xbd2ec920	-0.042672276
211	0x3da966d8	0.08271569
212	0x3d69fc64	0.057125464
213	0x3db562c0	0.08856726
214	0xbd408c64	-0.047008887
215	0x3e347dd6	0.17626128
216	0xbd486697	-0.048925962
217	0xbdb9f194	-0.090792805
218	0x3d972a5f	0.073811285
219	0x3de5faac	0.112294525
220	0x3da5e473	0.08100214
221	0xbe0b1e4d	-0.13585778
222	0xbc5929b0	-0.013254568
223	0x3dad1b62	0.084524885
224	0x3d9836f8	0.074323595
225	0xbdbf9579	-0.093546815
226	0xbc202ed2	-0.009776788
227	0xbe296d84	-0.16545683
228	0xbd970344	-0.0737367
229	0xbd629f97	-0.055327978
230	0xbc462d8c	-0.01209582
231	0xbe124e27	-0.14287625
232	0x3da1e179	0.079043336
233	0xbd931191	-0.07181085
234	0xbe19e304	-0.15028006
235	0x3d90f025	0.07077054
236	0xbe0d7b2c	-0.13816518
237	0xbd4f0849	-0.05054501
238	0x3def9353	0.11698022
239	0x3e17f887	0.148409
240	0xbde3176e	-0.11088453
241	0x3cd8d66c	0.026469432
242	0xbbbfebab	-0.0058569512
243	0x3def85bb	0.11695429
244	0xbdf616f4	-0.12016097
245	0xbb715709	-0.0036825559
246	0xbcda9e72	-0.02668688
247	0x3e30665d	0.17226548
248	0xbe330072	-0.17480639
249	0xbe11c7c0	-0.14236355
250	0xbe141882	-0.14462474
251	0xbd9ffc33	-0.07811775
252	0xbe39e4b7	-0.18153654
253	0x3e3e87c5	0.1860648
254	0x3d15a9d7	0.036538925
255	0x3e07b8c4	0.13254076

module.encoder.0.bias f4 [1, 100]
0	0xbca8450d	-0.020540738
1	0x3aa2f5b8	0.0012432849
2	0xb9223b70	-0.00015471666
3	0xbc97060b	-0.018435499
4	0xba9b1af1	-0.0011833591
5	0x3bf996f0	0.00761687
6	0xba0f32da	-0.00054625946
7	0xb860f3c0	-5.363277e-05
8	0xbbf06f6a	-0.0073375003
9	0x3bf4826a	0.0074618356
10	0x3b3a01aa	0.002838234
11	0x3bb261cd	0.0054437877
12	0x3c3344ef	0.010941728
13	0xbb03e5f8	-0.0020126086
14	0x3c50001e	0.01269534
15	0xbc908457	-0.01764123
16	0xb9dbb9e4	-0.00041909434
17	0x3c4b1b3d	0.012396631
18	0x3babb4f9	0.0052400795
19	0xb97e291b	-0.0002423864
20	0x3a5470d3	0.00081039703
21	0xbb600a9a	-0.0034186007
22	0x3c081b68	0.008307315
23	0x3abb3644	0.001428314
24	0xbb3f2d85	-0.002917142
25	0x3b8f86ca	0.004380082
26	0xbc71965d	-0.014745322
27	0xbcafee70	-0.021476
28	0xbc95dd3c	-0.01829397
29	0xbc8a2e81	-0.016867878
30	0x3a9cca47	0.0011962139
31	0x3b2f66a2	0.0026764055
32	0xba4fcc85	-0.0007926899
33	0xba1b5a65	-0.00059262506
34	0x3ba043e4	0.0048909057
35	0x3c2bc9ff	0.010485171
36	0xbc11936f	-0.008885249
37	0x3c0e9fcc	0.008705091
38	0x3c49cbab	0.012316625
39	0x3cf7ff8a	0.030273218
40	0xbbf4e8ca	-0.0074740397
41	0xbc78a5ee	-0.0151762795
42	0x3bfdf5aa	0.0077502327
43	0x3c4f074a	0.012636015
44	0x3b8f8001	0.004379273
45	0xbb3bd5df	-0.0028661413
46	0x3c664dd6	0.0140566435
47	0xba6850c7	-0.00088621344
48	0xbb0ed341	-0.0021793398
49	0xbb50f9d9	-0.0031887202
50	0x3bfcf16f	0.007719211
51	0x3bc18727	0.005906004
52	0x3c6b84ba	0.014374906
53	0xbab071c7	-0.0013461643
54	0xbc203164	-0.009777401
55	0x3b7bd49d	0.0038426288
56	0x3bf4ee9e	0.0074747344
57	0x3b8c9eb5	0.0042913803
58	0xbc0a9546	-0.008458441
59	0xbb137720	-0.0022501424
60	0xbb7e64de	-0.0038817446
61	0x3bb4cde5	0.0055177086
62	0xb9bf662d	-0.00036506486
63	0x3a40ad48	0.00073500397
64	0x3c821f29	0.015883999
65	0x3cea26ed	0.028583014
66	0x3c9c883d	0.019107932
67	0xbca52228	-0.020157889
68	0x3cb9208c	0.022598527
69	0x3c149ad8	0.009070121
70	0x3c042371	0.0080650905
71	0x3ca00ddf	0.019537864
72	0x3bbd251c	0.005772246
73	0x3c82e1ca	0.015976805
74	0x3baf7eb3	0.00535568
75	0x3bf52186	0.007480803
76	0xb9a68720	-0.00031762663
77	0xbabb38f8	-0.0014283946
78	0xbb7da5cb	-0.0038703557
79	0x3901979e	0.0001235888
80	0xbca52693	-0.020159995
81	0xbad25595	-0.0016047234
82	0x3bc916cf	0.006136752
83	0xbcb09cf1	-0.02155921
84	0xbc5b556e	-0.013387067
85	0xbafe68bb	-0.0019409874
86	0xbcbc559b	-0.022990039
87	0x3c27da8c	0.010244977
88	0xbaf28bda	-0.0018504814
89	0x3caebf82	0.021331552
90	0xbbf7e4c0	-0.007565111
91	0xb881096d	-6.152955e-05
92	0x3a438f9a	0.0007460058
93	0x3a41ab5d	0.0007387901
94	0xbc840038	-0.016113386
95	0x3ba5d68b	0.005060976
96	0xbc082425	-0.008309399
97	0x3c0b2821	0.008493454
98	0xbb893db9	-0.004188266
99	0x3b2055cf	0.0024465208

module.encoder.0.weight f4 [1, 100]
0	0x3f7cdce5	0.9877456
1	0x3f89b5f4	1.0758653
2	0x3f834cbd	1.0257794
3	0x3f7cf877	0.9881663
4	0x3f854c27	1.0413865
5	0x3f815e83	1.0106968
6	0x3f82e28b	1.0225385
7	0x3f8811e9	1.0630466
8	0x3f8ee055	1.1162211
9	0x3f870402	1.0548098
10	0x3f84ff15	1.0390345
11	0x3f83ea98	1.0305967
12	0x3f873530	1.0563107
13	0x3f8087f0	1.0041485
14	0x3f802484	1.0011144
15	0x3f7f5816	0.99743783
16	0x3f7f5a75	0.997474
17	0x3f80a51e	1.005039
18	0x3f800e62	1.0004389
19	0x3f81df8b	1.0146345
20	0x3f889ab6	1.0672214
21	0x3f86e9be	1.0540082
22	0x3f85e212	1.0459616
23	0x3f83efd6	1.0307567
24	0x3f82fbd7	1.0233105
25	0x3f82897e	1.0198209
26	0x3f7f3fd1	0.9970675
27	0x3f7f0045	0.99609786
28	0x3f7c5dd3	0.98580664
29	0x3f7c3ce9	0.9853044
30	0x3f809b23	1.0047344
31	0x3f7e1b02	0.9925996
32	0x3f807d1e	1.0038183
33	0x3f8592d3	1.0435432
34	0x3f829f98	1.0204954
35	0x3f82eff0	1.0229473
36	0x3f72ad88	0.9479604
37	0x3f8632f1	1.0484296
38	0x3f7fcac2	0.9991876
39	0x3f79c202	0.9756166
40	0x3f7ee31e	0.99565303
41	0x3f7af1ab	0.98025006
42	0x3f7fd144	0.9992869
43	0x3f7efa21	0.99600416
44	0x3f81f400	1.0152588
45	0x3f80e6da	1.007045
46	0x3f82f81e	1.0231969
47	0x3f7ce374	0.98784566
48	0x3f8643b1	1.0489408
49	0x3f7aa5b0	0.9790907
50	0x3f7ae1df	0.980009
51	0x3f7fbceb	0.9989764
52	0x3f7bca87	0.9835591
53	0x3f80a97d	1.0051724
54	0x3f7fba8e	0.99894035
55	0x3f8021c7	1.0010308
56	0x3f7e9126	0.9944023
57	0x3f7f831c	0.9980943
58	0x3f6d806a	0.9277407
59	0x3f8263e0	1.018673
60	0x3f80e6fb	1.007049
61	0x3f7f3f0e	0.9970559
62	0x3f7768d4	0.9664433
63	0x3f803d01	1.0018617
64	0x3f801bd1	1.0008489
65	0x3f796229	0.97415406
66	0x3f7b8a43	0.98257846
67	0x3f79a703	0.97520465
68	0x3f7d870e	0.990342
69	0x3f7ec682	0.9952165
70	0x3f7d4ce6	0.9894546
71	0x3f6f2b3c	0.93425345
72	0x3f7f5cb5	0.99750835
73	0x3f7b2b6c	0.9811313
74	0x3f8155b6	1.0104282
75	0x3f7a966f	0.97885793
76	0x3f81c3f6	1.0137928
77	0x3f823b7f	1.0174407
78	0x3f7cbd6a	0.9872652
79	0x3f81e39e	1.0147588
80	0x3f7e1ffb	0.9926755
81	0x3f7be1f3	0.98391646
82	0x3f83b8fb	1.0290827
83	0x3f788dcf	0.9709138
84	0x3f816849	1.010995
85	0x3f82f6d5	1.0231577
86	0x3f7cfe00	0.98825073
87	0x3f7ee292	0.9956447
88	0x3f801b16	1.0008266
89	0x3f7c5552	0.9856769
90	0x3f824df3	1.0180038
91	0x3f8673c9	1.0504085
92	0x3f801732	1.0007079
93	0x3f813da2	1.0096934
94	0x3f7db1b3	0.9909927
95	0x3f812f16	1.0092494
96	0x3f809374	1.0044999
97	0x3f820c5e	1.0160024
98	0x3f80b8ec	1.0056434
99	0x3f82cd0b	1.0218824

module.encoder.1.layers.2.bias f4 [1, 256]
0	0xbc3e7f86	-0.011627084
1	0xbc84bc24	-0.016202994
2	0x3b2131aa	0.0024596252
3	0x3b9ca8d6	0.004780869
4	0x3b812b04	0.0039418954
5	0x3b5f69aa	0.003409008
6	0xbc447681	-0.011991144
7	0xbb11672e	-0.0022186744
8	0x3b7da6bb	0.0038704115
9	0x3b0be753	0.0021347597
10	0x3b3df505	0.0028985154
11	0x3a2c78de	0.000657929
12	0x3add3e56	0.001687954
13	0x3caed093	0.02133969
14	0x3c457d2d	0.01205377
15	0xb9a80333	-0.0003204584
16	0x3b93918c	0.0045034345
17	0x3b63a3d4	0.00347351
18	0x3bca9ef1	0.006183498
19	0x3bd0bc41	0.006370098
20	0xbbb51844	-0.0055265743
21	0x3bf986a4	0.0076149274
22	0x3be82ab8	0.0070851706
23	0x3c279d7f	0.010230421
24	0xbb96e181	-0.004604519
25	0xbb4c88eb	-0.003120954
26	0x3b8ee189	0.004360382
27	0x3bb38a79	0.0054791537
28	0x3adbc5dc	0.0016767341
29	0xbbc4d795	-0.0060071447
30	0xbb04b63d	-0.0020250224
31	0x3ae27db4	0.0017279894
32	0xbc0ac439	-0.008469635
33	0x3b8e171c	0.004336251
34	0x3b99e24d	0.0046961666
35	0xbc13d5d4	-0.009023149
36	0xba96f0ad	-0.0011515819
37	0xbc09381d	-0.008375195
38	0x3b6f0958	0.0036474075
39	0xbbd442eb	-0.006477704
40	0x3a69d749	0.00089203246
41	0xbc13ecd7	-0.009028635
42	0xbbac211b	-0.00525297
43	0xbb9f0b9b	-0.0048536784
44	0xbb52088e	-0.0032048556
45	0x3c1963f3	0.009362209
46	0xbc47aa86	-0.012186652
47	0xbc29a75f	-0.010354846
48	0xb95923dc	-0.00020708091
49	0xbad1d33e	-0.001600839
50	0xbc46da10	-0.012136951
51	0xbc12b0e9	-0.0089533115
52	0x3b4b816c	0.0031052483
53	0x3bcce066	0.0062523363
54	0x3b151de3	0.002275341
55	0x3c41f7ce	0.011838866
56	0x3beec0f4	0.0072861854
57	0xba9cbff6	-0.0011959064
58	0xbb140f44	-0.0022592107
59	0x3b906eea	0.0044077532
60	0x3a178b7d	0.0005780978
61	0x3be7ec0f	0.007077701
62	0x3b58b2f7	0.0033065656
63	0xbb5a7dad	-0.0033339069
64	0x3c0a0b42	0.008425536
65	0x3ba5a87b	0.005055485
66	0x3c3ba941	0.0114539275
67	0xbb929aa2	-0.004474
68	0x3bb7bc10	0.0056071356
69	0xbb95f9df	-0.004576906
70	0x3b96e071	0.004604392
71	0x3b83d2c6	0.004022929
72	0x3bfce26a	0.0077174203
73	0xba4b0010	-0.0007743845
74	0x3aa8866d	0.0012857445
75	0x3b666e89	0.00351611
76	0x3bdb047f	0.0066838856
77	0x3ca712f9	0.020394789
78	0x3bf09920	0.0073424727
79	0xbb7bf6e6	-0.0038446723
80	0xb9ad2711	-0.00033026238
81	0x3b830624	0.0039985348
82	0xbb5a4811	-0.0033307115
83	0xbbe2f333	-0.0069259643
84	0x3afcc13d	0.0019283664
85	0x3b2ad861	0.0026068913
86	0x3a9ef591	0.0012127628
87	0xbc07d9b0	-0.008291647
88	0x3bc6c084	0.00606543
89	0xbc180d8d	-0.0092805745
90	0xbc984210	-0.018586189
91	0x3b0f616a	0.0021878132
92	0xbb0f3f40	-0.0021857768
93	0x3bb26346	0.005443963
94	0xbc28915c	-0.010288563
95	0xbbc349b2	-0.005959713
96	0xbbc6473f	-0.0060509737
97	0x3c470c04	0.012148861
98	0x3b1324a5	0.0022452262
99	0x3c39ba50	0.011335924
100	0x3c077767	0.008268214
101	0xb7810aaa	-1.5382964e-05
102	0x3abcba16	0.001439872
103	0x3c1f0347	0.009705371
104	0x3bf264ea	0.007397284
105	0x3c61b627	0.013776339
106	0x3c6e2a96	0.0145365205
107	0xbac51cae	-0.0015038454
108	0x3b637fc4	0.0034713605
109	0xbc676f82	-0.014125707
110	0xbbf8a2cd	-0.0075877667
111	0x3a444439	0.00074869726
112	0xbb49998d	-0.003076169
113	0xbbaa81c0	-0.0052034557
114	0xbc9b8402	-0.018983845
115	0x3b062af1	0.0020472372
116	0x3b5ff888	0.0034175236
117	0xbbe90050	-0.007110633
118	0xbc445c68	-0.011984922
119	0xbc482f00	-0.012218237
120	0x3b3edc49	0.0029123
121	0x39a29f73	0.00031017847
122	0xbb3b0614	-0.0028537558
123	0x3ba2d6f0	0.00496947
124	0xbbb6e63a	-0.0055816444
125	0x3b8c0828	0.0042734332
126	0x3ba9f5b8	0.0051867627
127	0xbc882f4e	-0.01662412
128	0xbc22d4e9	-0.009938457
129	0x3c3c486b	0.011491875
130	0x3b5871d4	0.0033026831
131	0x3bb2c3a8	0.005455453
132	0x3b8fed30	0.0043922886
133	0x3bf5f9a6	0.007506567
134	0xbac93c05	-0.001535297
135	0x39421e36	0.00018512536
136	0x3be4825f	0.0069735493
137	0xbc3a5b75	-0.011374344
138	0x3c1a0788	0.00940121
139	0xbc1db025	-0.009624516
140	0xba06e0fc	-0.00051452196
141	0x3bb73cb7	0.0055919546
142	0x3b012a4c	0.0019709049
143	0xbaa7b4b3	-0.0012794941
144	0xbaec89f7	-0.0018046488
145	0x3bdc050c	0.006714469
146	0x3b9e8d61	0.004838631
147	0x3c1b4c21	0.0094786
148	0x3b1409e4	0.0022588903
149	0xbc18c8e6	-0.009325242
150	0xbc0edafc	-0.008719202
151	0x3b0d46dd	0.002155713
152	0xb96ee737	-0.00022783583
153	0xbb4ba45c	-0.0031073308
154	0x3c1d4058	0.00959786
155	0x3b8d4b34	0.0043119434
156	0xbc104142	-0.008804621
157	0xbbeafefc	-0.00717151
158	0xbc268b8e	-0.010165108
159	0xbbd2ae71	-0.0064294864
160	0xbc2c809a	-0.010528708
161	0x3c554ef3	0.013019311
162	0x3c38bfe1	0.011276216
163	0x3c049e4f	0.008094384
164	0x3c2c88a7	0.010530627
165	0xbbee9c4a	-0.0072818147
166	0x3ad6930e	0.001637073
167	0x3a9821dd	0.0011606772
168	0x3bff9ae0	0.007800445
169	0x3c06bc29	0.008223572
170	0x3ba9e725	0.0051850253
171	0xbc3828b1	-0.01124017
172	0x3bb81baf	0.0056185345
173	0xb9cb315f	-0.00038755962
174	0x3bd18e39	0.006395128
175	0x3c1f8c8a	0.009738097
176	0x3c3fe196	0.011711499
177	0xbc243e21	-0.010024578
178	0x3a855e60	0.0010175221
179	0xbb980f35	-0.0046404847
180	0xbbb7e051	-0.0056114574
181	0x3bd2766d	0.006422809
182	0x3c834ddc	0.016028337
183	0xbbca631a	-0.0061763646
184	0xba943731	-0.0011307952
185	0xbb04ecb1	-0.002028268
186	0x3b8459a3	0.004039006
187	0x3aa9b071	0.001294626
188	0xbbf56538	-0.007488873
189	0xbc21dd6a	-0.009879449
190	0x3a7b82ae	0.0009594363
191	0xb8502fcf	-4.963559e-05
192	0xbbbc2abe	-0.0057424
193	0x3cabae58	0.020957157
194	0x38fba162	0.000119986726
195	0x3c7ec971	0.015550957
196	0xbc2fac4d	-0.010722232
197	0xbc148140	-0.009064019
198	0xbc1bc6d6	-0.009507855
199	0xbb4cfc22	-0.0031278213
200	0x3bae4802	0.0053186426
201	0x3924817e	0.00015688498
202	0xbc0edeb0	-0.008720085
203	0xbb57b50a	-0.0032914304
204	0xbc840280	-0.016114473
205	0x3c28a715	0.010293742
206	0xbbc9b83a	-0.0061559947
207	0x3acd98ce	0.0015685798
208	0xbc39c80f	-0.011339202
209	0xba055a0b	-0.0005086965
210	0x3a7bcd1b	0.0009605453
211	0xbc87a8f5	-0.016560057
212	0x3bbaeb88	0.005704347
213	0x3b922f73	0.004461223
214	0x3a75fe6c	0.000938392
215	0xbb290773	-0.0025791794
216	0xbb8e1d77	-0.0043370086
217	0x3c2dff8e	0.010620011
218	0xbb8dd367	-0.0043281796
219	0x3b97273b	0.004612831
220	0xb916504c	-0.00014335028
221	0x3b8f4ee7	0.0043734196
222	0x3b44c745	0.0030026
223	0xbc1de4ab	-0.009637038
224	0x3a894060	0.0010471456
225	0xbb96e743	-0.0046052053
226	0x3c2878c2	0.010282697
227	0x3a4d075a	0.0007821225
228	0x3c30eb7b	0.01079833
229	0x3ae1a0b9	0.0017214037
230	0x3ba6555a	0.0050760927
231	0x3bdb8569	0.0066992533
232	0x3b73f896	0.0037227026
233	0x3bf7e101	0.0075646644
234	0xbb721984	-0.0036941478
235	0xbaaf6a3c	-0.0013383101
236	0xbc127ead	-0.008941335
237	0x3bc002ca	0.0058597075
238	0x3aa81a8c	0.0012825294
239	0x3c160dee	0.0091585945
240	0x3c022cb6	0.00794523
241	0x3bab5e01	0.005229712
242	0xbc0a114a	-0.008426974
243	0xbaefaaaf	-0.0018285121
244	0xbc6d68cc	-0.014490318
245	0xbbadb2e6	-0.0053008674
246	0xba67601a	-0.0008826271
247	0x3c0f6954	0.0087531395
248	0x3c69e97f	0.014276861
249	0x3c15c4a0	0.009141117
250	0xbb602292	-0.0034200293
251	0xbb105582	-0.0022023623
252	0xba02c47e	-0.0004988386
253	0xbb50b7ce	-0.0031847837
254	0xbc4e6d6a	-0.0125993285
255	0xbbf22603	-0.0073897853

module.encoder.1.layers.2.weight f4 [1, 256]
0	0x3f80c57c	1.0060267
1	0x3f7ecb20	0.99528694
2	0x3f84580c	1.033937
3	0x3f8049c8	1.0022516
4	0x3f814cd7	1.0101575
5	0x3f84f331	1.0386716
6	0x3f81d4e9	1.01431
7	0x3f847e4d	1.0351044
8	0x3f813128	1.0093126
9	0x3f82305d	1.0171009
10	0x3f805ee8	1.0028963
11	0x3f80df2d	1.0068108
12	0x3f801aab	1.0008138
13	0x3f7e7d6f	0.99410146
14	0x3f820736	1.0158451
15	0x3f85e8a3	1.046162
16	0x3f80b6b0	1.0055752
17	0x3f8494f4	1.0357957
18	0x3f803529	1.0016223
19	0x3f823df5	1.0175158
20	0x3f80a166	1.0049255
21	0x3f820f2f	1.0160884
22	0x3f7e364a	0.9930159
23	0x3f7d6413	0.98980826
24	0x3f81fb5e	1.0154836
25	0x3f81537b	1.0103601
26	0x3f7975d3	0.9744541
27	0x3f7bcfe6	0.983641
28	0x3f7d9820	0.9906025
29	0x3f83c7b5	1.0295321
30	0x3f830407	1.0235604
31	0x3f827891	1.0193044
32	0x3f7f8eb0	0.998271
33	0x3f7fdf92	0.99950516
34	0x3f839053	1.0278419
35	0x3f7f9e8d	0.99851304
36	0x3f799e94	0.97507596
37	0x3f823913	1.0173668
38	0x3f80020f	1.0000628
39	0x3f7bb7b6	0.98327196
40	0x3f81f2d9	1.0152236
41	0x3f7e698e	0.99379814
42	0x3f81b215	1.0132471
43	0x3f801c0d	1.000856
44	0x3f7f8be5	0.9982284
45	0x3f82044d	1.0157562
46	0x3f7eebd0	0.9957857
47	0x3f807705	1.0036322
48	0x3f83da42	1.0300982
49	0x3f807d6e	1.0038278
50	0x3f82d105	1.0220038
51	0x3f7ce905	0.9879306
52	0x3f81beb1	1.0136319
53	0x3f7f139e	0.9963931
54	0x3f819993	1.0124992
55	0x3f82fb99	1.0233032
56	0x3f856a21	1.0423013
57	0x3f8968f8	1.0735159
58	0x3f82a250	1.0205784
59	0x3f82c07d	1.0214993
60	0x3f83421a	1.0254548
61	0x3f7eff01	0.99607855
62	0x3f8132da	1.0093644
63	0x3f8325fc	1.0245967
64	0x3f7f81b4	0.99807286
65	0x3f82a6ec	1.020719
66	0x3f8178e3	1.0115017
67	0x3f81180b	1.0085462
68	0x3f815ca5	1.0106398
69	0x3f809948	1.0046778
70	0x3f824710	1.0177937
71	0x3f819985	1.0124975
72	0x3f811464	1.0084348
73	0x3f7ee4f3	0.995681
74	0x3f80a022	1.0048869
75	0x3f82c84c	1.0217376
76	0x3f80fa3d	1.0076367
77	0x3f77a74f	0.9673967
78	0x3f81e593	1.0148185
79	0x3f81fa51	1.0154516
80	0x3f81c2dc	1.0137591
81	0x3f82262f	1.0167903
82	0x3f7f5c93	0.9975063
83	0x3f81e236	1.0147159
84	0x3f829201	1.0200807
85	0x3f83cc71	1.0296766
86	0x3f81e50f	1.0148028
87	0x3f822f68	1.0170717
88	0x3f82e655	1.0226542
89	0x3f845fbc	1.0341716
90	0x3f7d3192	0.98903763
91	0x3f822d51	1.017008
92	0x3f84212a	1.0322621
93	0x3f81a4cf	1.012842
94	0x3f8222f4	1.0166917
95	0x3f7fc359	0.9990745
96	0x3f80863c	1.0040965
97	0x3f835d79	1.02629
98	0x3f8363d1	1.0264837
99	0x3f7e9870	0.9945135
100	0x3f7af4d7	0.98029846
101	0x3f83f350	1.0308628
102	0x3f834dc7	1.0258111
103	0x3f8239ac	1.017385
104	0x3f80c234	1.0059266
105	0x3f7a7adf	0.97843736
106	0x3f7e44b4	0.9932358
107	0x3f81d4df	1.0143088
108	0x3f7fd6c5	0.9993709
109	0x3f8043e4	1.0020719
110	0x3f82c94c	1.0217681
111	0x3f80983b	1.0046457
112	0x3f828722	1.0197489
113	0x3f8152f6	1.0103443
114	0x3f7cd118	0.9875655
115	0x3f824e80	1.0180206
116	0x3f7e881b	0.9942643
117	0x3f833649	1.0250942
118	0x3f82e7f9	1.0227042
119	0x3f802c7f	1.0013579
120	0x3f806035	1.002936
121	0x3f81469a	1.0099671
122	0x3f80c25b	1.0059313
123	0x3f804310	1.0020466
124	0x3f7ea2ac	0.9946697
125	0x3f821014	1.0161157
126	0x3f84079a	1.031482
127	0x3f822d1e	1.0170019
128	0x3f7d27b0	0.98888683
129	0x3f7d66ff	0.98985285
130	0x3f82a5a1	1.0206796
131	0x3f80f2c8	1.0074091
132	0x3f820031	1.0156308
133	0x3f7e16ce	0.9925355
134	0x3f80758e	1.0035875
135	0x3f85e666	1.0460937
136	0x3f7a2d30	0.977252
137	0x3f7cab26	0.9869865
138	0x3f7ddf8b	0.99169225
139	0x3f7de579	0.9917827
140	0x3f83207e	1.0244291
141	0x3f7e8f56	0.99437463
142	0x3f7d8e5c	0.9904535
143	0x3f817d39	1.011634
144	0x3f803088	1.001481
145	0x3f7eccee	0.9953145
146	0x3f80eb0d	1.0071732
147	0x3f7b053f	0.9805488
148	0x3f819838	1.0124578
149	0x3f80a262	1.0049555
150	0x3f7c2e1a	0.98507845
151	0x3f822dbd	1.0170208
152	0x3f86179d	1.0475956
153	0x3f80b893	1.0056328
154	0x3f7ff545	0.99983627
155	0x3f82729e	1.0191228
156	0x3f7e9047	0.994389
157	0x3f838ecf	1.0277957
158	0x3f8122c3	1.0088733
159	0x3f80811c	1.0039401
160	0x3f7ee409	0.99566704
161	0x3f81ab46	1.0130394
162	0x3f80edf4	1.0072618
163	0x3f8124d7	1.0089368
164	0x3f82ac19	1.020877
165	0x3f7c5d6f	0.9858007
166	0x3f80bc4c	1.0057464
167	0x3f81b1f4	1.0132432
168	0x3f820fc8	1.0161066
169	0x3f81e0e1	1.0146753
170	0x3f7f56fb	0.99742097
171	0x3f80b5cc	1.005548
172	0x3f7efe55	0.9960683
173	0x3f7fa300	0.99858093
174	0x3f7c2954	0.9850056
175	0x3f7d041f	0.98834413
176	0x3f7b8a0e	0.9825753
177	0x3f7eecf5	0.9958032
178	0x3f7eec37	0.99579185
179	0x3f818c24	1.0120893
180	0x3f8029f6	1.0012805
181	0x3f83e28a	1.0303509
182	0x3f83eef9	1.0307304
183	0x3f7b8d76	0.9826273
184	0x3f8088a5	1.0041701
185	0x3f80db53	1.0066932
186	0x3f7dcd16	0.9914106
187	0x3f7fb453	0.9988453
188	0x3f80e2f2	1.0069258
189	0x3f80d275	1.0064226
190	0x3f8178df	1.0115012
191	0x3f80fc85	1.0077063
192	0x3f7fd224	0.99930024
193	0x3f7ff538	0.9998355
194	0x3f85513b	1.0415415
195	0x3f80df36	1.0068119
196	0x3f80e670	1.0070324
197	0x3f8030d5	1.0014902
198	0x3f81375b	1.0095018
199	0x3f84f15f	1.0386161
200	0x3f7f88f6	0.9981836
201	0x3f812a0a	1.0090954
202	0x3f81028b	1.0078901
203	0x3f829ebc	1.0204692
204	0x3f81a10c	1.0127273
205	0x3f813c88	1.0096598
206	0x3f821fd7	1.0165967
207	0x3f7e9ebf	0.9946098
208	0x3f813879	1.0095359
209	0x3f801c10	1.0008564
210	0x3f814b94	1.010119
211	0x3f7dd58d	0.9915398
212	0x3f7dea6f	0.9918584
213	0x3f816ea4	1.011189
214	0x3f8287cc	1.0197692
215	0x3f81d052	1.0141699
216	0x3f836f81	1.0268403
217	0x3f7f3c74	0.9970162
218	0x3f83dd8d	1.0301987
219	0x3f7f54e7	0.99738926
220	0x3f7f0a37	0.9962496
221	0x3f83b70f	1.029024
222	0x3f832e13	1.0248436
223	0x3f83ac2c	1.0286918
224	0x3f80a240	1.0049515
225	0x3f8089ad	1.0042015
226	0x3f844643	1.0333942
227	0x3f7fc382	0.99907696
228	0x3f81b135	1.0132204
229	0x3f8058a3	1.002705
230	0x3f831693	1.0241264
231	0x3f817bde	1.0115926
232	0x3f817358	1.0113325
233	0x3f7ee032	0.99560845
234	0x3f7d9e30	0.990695
235	0x3f81e0f8	1.014678
236	0x3f7ff2c8	0.9997983
237	0x3f7dd218	0.991487
238	0x3f821e0d	1.0165421
239	0x3f7fc642	0.9991189
240	0x3f7daec4	0.99094796
241	0x3f80d606	1.0065315
242	0x3f80495f	1.0022391
243	0x3f80a00b	1.0048841
244	0x3f7e474a	0.9932753
245	0x3f806ed8	1.0033827
246	0x3f84d88b	1.0378584
247	0x3f83354c	1.025064
248	0x3f8292d2	1.0201056
249	0x3f80c8cb	1.0061277
250	0x3f824fd9	1.0180618
251	0x3f7e3db9	0.9931293
252	0x3f81c770	1.0138988
253	0x3f7e1b68	0.9926057
254	0x3f7ddb91	0.99163157
255	0x3f8134a9	1.0094196

module.encoder.1.layers.3.bias f4 [1, 128]
0	0xbd86e021	-0.06585718
1	0xbd837670	-0.064190745
2	0x3d517c31	0.05114383
3	0xbd4858b8	-0.048912734
4	0x3d71d914	0.059044912
5	0x3cc77094	0.024345674
6	0x3c03dc04	0.008048061
7	0xbca56bb1	-0.020192953
8	0xbd5aa0f0	-0.05337614
9	0xbd630f52	-0.055434532
10	0xbc2b08cd	-0.01043911
11	0xbd8c761e	-0.068584666
12	0xbc2224f9	-0.00989651
13	0x3d235138	0.039872378
14	0xbd4df591	-0.05028302
15	0x3d160f72	0.036635824
16	0x3d031ed8	0.032011837
17	0xbd169c15	-0.036769945
18	0xbcb695e0	-0.022288263
19	0xbd393daa	-0.045224823
20	0xbc78f9e2	-0.015196295
21	0x3d635b7a	0.05550716
22	0x3c2c53e9	0.010518053
23	0xbcdc23e2	-0.026872579
24	0x3d2158c1	0.039391283
25	0xbd391a01	-0.045190815
26	0xbd3dd1af	-0.046342548
27	0xba047e26	-0.0005054198
28	0x3b0d9c8c	0.0021608202
29	0x3b330e56	0.0027321777
30	0xbd02738a	-0.031848468
31	0x3d38849e	0.04504835
32	0xbcf7672f	-0.030200569
33	0xbc88ca67	-0.016698075
34	0x3cbfce3b	0.023413768
35	0x3d393834	0.045219615
36	0xbba69bf3	-0.0050845086
37	0x3c21f9a1	0.009886176
38	0x3c2b4de6	0.010455584
39	0x3cc38404	0.02386666
40	0xbda0f79e	-0.07859729
41	0xbd87aa6c	-0.06624302
42	0xbc0a1b53	-0.008429366
43	0x3caa271f	0.020770608
44	0x3b0390af	0.0020075252
45	0x3d74c096	0.059753977
46	0xbc1376a0	-0.00900045
47	0x3c38dbb2	0.011282848
48	0xbcf62ba7	-0.030050112
49	0xbc8547c7	-0.016269578
50	0x3ce95e07	0.028487219
51	0x3c89bd1f	0.016813813
52	0x3d325dbd	0.043546427
53	0x3ca88696	0.020571988
54	0xbcdd39ba	-0.027005065
55	0x3d2b76aa	0.041861214
56	0xbc86191b	-0.016369393
57	0x3d6b1508	0.057393104
58	0xbc3969ab	-0.011316697
59	0xbcae9bfe	-0.021314617
60	0xbd2e39a1	-0.042535428
61	0x3d1c7242	0.038194902
62	0xbd8730f8	-0.06601137
63	0xbc66c0b0	-0.014084026
64	0x3ca84d5e	0.020544704
65	0xbd089397	-0.033343878
66	0xbd70b216	-0.058763586
67	0xbcfc741b	-0.030817082
68	0xbca0b14b	-0.01961579
69	0xbd54f622	-0.051992543
70	0xbc9b6ff4	-0.018974282
71	0xbb507546	-0.0031808182
72	0xbd4b18a7	-0.049584057
73	0xbc842c4b	-0.016134402
74	0xbcfa9da4	-0.030592747
75	0x3d33ee5d	0.043928493
76	0x3aea429e	0.0017872637
77	0x3d1b959c	0.037984475
78	0xbd505d0c	-0.050869986
79	0x3d2a8e43	0.041639578
80	0xbc8b810e	-0.017029312
81	0x3cd6ccc8	0.026220694
82	0x3d6822f6	0.056673966
83	0xbd37d10f	-0.04487711
84	0xbd7b6586	-0.061376117
85	0x3999df01	0.00029348585
86	0xbcbe4dc1	-0.023230435
87	0xbd970eef	-0.07375895
88	0xbd38bf9d	-0.04510461
89	0x3cd66490	0.026170999
90	0xba2ff7cf	-0.00067126466
91	0xbd30e3d8	-0.04318604
92	0x3d31370b	0.043265384
93	0xbd2592cf	-0.04042321
94	0x3d42f3b9	0.047595713
95	0xbd8516f4	-0.064985186
96	0x3ce096b3	0.027415609
97	0x3d4efd52	0.050534554
98	0x3c71371f	0.014722615
99	0x3c8a2276	0.016862135
100	0xbcb6a680	-0.02229619
101	0x3d2bace2	0.04191292
102	0x3c8bd522	0.017069403
103	0x3d212cfe	0.03934955
104	0xbd864a8f	-0.0655719
105	0x3bc0a7fc	0.0058794003
106	0x3cb31cd6	0.021864336
107	0x3cf5cd88	0.030005231
108	0x3b619ed2	0.003442694
109	0xbc36432a	-0.011124412
110	0xbbc071bb	-0.0058729327
111	0x3cb72c39	0.022359954
112	0x3d85a72d	0.06526027
113	0xbd3e3750	-0.04643947
114	0xbaf6227c	-0.0018778588
115	0x3d4daf44	0.050215974
116	0x3d0d1dac	0.034452125
117	0x3b986bbb	0.0046515143
118	0x3cf5a662	0.029986564
119	0xbc9c2ddf	-0.019064842
120	0x3d74031d	0.05957328
121	0x3d0677b1	0.03282899
122	0x3d1d8f53	0.038466763
123	0xbd3138e2	-0.04326714
124	0xbb319fcc	-0.0027103303
125	0xbcd9932e	-0.026559439
126	0x3d348fa5	0.044082303
127	0xbc3d989c	-0.011572029

module.encoder.1.layers.3.weight f4 [1, 128, 256]
0	0xbce23921	-0.027615132
1	0x3d40e03c	0.047088847
2	0xbd660c23	-0.05616392
3	0xbd01db3e	-0.031703226
4	0xbd4614f1	-0.048359815
5	0xbc697b33	-0.014250564
6	0xbc6b21b9	-0.014351302
7	0xbd96b709	-0.0735913
8	0xbb340834	-0.002747071
9	0xbd39c386	-0.04535248
10	0xbd0af867	-0.0339283
11	0xbdb4da64	-0.08830717
12	0x3cfc2725	0.030780384
13	0x3c825287	0.015908493
14	0xbc919e3b	-0.017775645
15	0x3d3c3097	0.045944776
16	0xbd00462a	-0.031316914
17	0x3dcd38ee	0.10020624
18	0x3c92d3d7	0.017923279
19	0xbcf71c3a	-0.030164827
20	0x3c1c92f2	0.009556519
21	0x3b845354	0.004038254
22	0xbc7ca58e	-0.015420331
23	0xba7e15f9	-0.0009692605
24	0xbce6e4b9	-0.028185235
25	0xbd6d1ddc	-0.057889804
26	0x3d6afd2f	0.05737036
27	0xb93a7f94	-0.00017785869
28	0x3d18e073	0.037323426
29	0xbca0d56d	-0.01963302
30	0xbd17a0b8	-0.037018508
31	0xbc69f453	-0.014279443
32	0xbd2c19f5	-0.042016942
33	0x3cb33afd	0.021878714
34	0x3bf6c931	0.007531308
35	0x3d6c7143	0.057725202
36	0xbba3beaa	-0.004997094
37	0x3d212979	0.039346192
38	0xbc291878	-0.010320775
39	0xbd060dd7	-0.032728042
40	0xbc834da4	-0.016028233
41	0x3d33e093	0.043915343
42	0x3d343900	0.043999672
43	0xbd7537f2	-0.059867807
44	0x3d0a5013	0.03376777
45	0x3cef45c3	0.02920807
46	0x39335747	0.00017103284
47	0xbd821b43	-0.06352856
48	0x3cf72c27	0.03017242
49	0xbb027b88	-0.0019910056
50	0x3d8aeaf2	0.067830935
51	0x3d94f94b	0.07274111
52	0xbd394e56	-0.045240723
53	0xbd2b809b	-0.041870695
54	0x3d2a9005	0.041641254
55	0xbd270e87	-0.04078534
56	0x3ceca7a9	0.02888854
57	0x3dab6d54	0.08370462
58	0x3d96b55a	0.07358809
59	0xbd4e847a	-0.05041931
60	0xbd6c4d38	-0.05769083
61	0xbc2829a2	-0.010263832
62	0x3d8ac9fc	0.06776807
63	0x3d4c5cc6	0.049893163
64	0x3d4a4243	0.0493796
65	0x3d0bb646	0.034109376
66	0xbbd1888e	-0.0063944524
67	0xbc0411a3	-0.008060846
68	0xbd95e8eb	-0.07319816
69	0xbd338865	-0.043831248
70	0x3d6853cb	0.056720536
71	0x3d58abca	0.052898206
72	0x3d5de546	0.05417373
73	0x3d19e42f	0.03757113
74	0x3c0b4ce2	0.008502217
75	0x3c45c0b6	0.012069872
76	0xbd362cf7	-0.044476476
77	0xbc9c2c11	-0.019063981
78	0xbcf07c2a	-0.029356081
79	0x3d8a6a70	0.067585826
80	0xbdaa1b29	-0.08305962
81	0xbc765883	-0.015035751
82	0xbccea099	-0.025223063
83	0x3d0ae4d7	0.033909645
84	0x3d5a05b4	0.053228095
85	0x3da8973c	0.08231971
86	0x3cd64cca	0.026159663
87	0x3bcba262	0.006214426
88	0xbd3b6795	-0.04575308
89	0x3d81acab	0.06331762
90	0x3c9f48b8	0.019443855
91	0x3d02937d	0.031878937
92	0xbd476f87	-0.048690345
93	0xbd0069dd	-0.03135096
94	0xbcbc270f	-0.022967843
95	0x3cbeb909	0.023281591
96	0x3d2ca3af	0.04214829
97	0xbc5e8268	-0.013580896
98	0xbd8e3642	-0.069439426
99	0xbd719ff0	-0.05899042
100	0xbcdbe0b1	-0.02684054
101	0x3ba5d662	0.005060957
102	0xbce725e0	-0.028216302
103	0xbc94d772	-0.018169139
104	0x3c0b7b86	0.008513337
105	0x3c5da38f	0.013527765
106	0xbba7a39a	-0.0051159384
107	0xbd3a884e	-0.045540147
108	0xbc6e7631	-0.014554546
109	0xbcc5bd13	-0.02413801
110	0x3d8995fd	0.06718061
111	0xbd28234c	-0.041049287
112	0x39bbc241	0.0003581215
113	0xbc34f48a	-0.011044631
114	0x3d805d92	0.06267847
115	0xbd82135c	-0.06351349
116	0xbd5194d7	-0.051167335
117	0xbd2441b0	-0.040101707
118	0xbd20ba2f	-0.03924006
119	0x3ce30fa2	0.027717415
120	0xbcb5ed60	-0.022207916
121	0x3d2ffb97	0.042964544
122	0xbc60353f	-0.01368457
123	0xbcca898b	-0.024723789
124	0x3b03ae94	0.002009307
125	0x3d2df73c	0.04247211
126	0x3d4e33cc	0.050342366
127	0x3b433b1b	0.0029789868
128	0x3c744410	0.0149088055
129	0x3c8b7c8b	0.01702716
130	0xbda8d20e	-0.0824319
131	0xbd40ae9f	-0.04704153
132	0xbcfc9463	-0.030832475
133	0xbc2c8868	-0.010530569
134	0xbaa3a546	-0.0012485168
135	0xb9286d63	-0.00016062478
136	0x3ae7f62c	0.0017697266
137	0x3d4c6515	0.049901087
138	0x379d1957	1.8727658e-05
139	0xbc39cddc	-0.011340585
140	0x3d5549b0	0.052072227
141	0x3d3c44ee	0.045964174
142	0xbc6c6120	-0.014427453
143	0x3d81d960	0.06340289
144	0x3d31d6d1	0.043417756
145	0xbcc77cd6	-0.024351519
146	0xbd74ba76	-0.059748136
147	0xbd1aafcd	-0.037765313
148	0xbd059895	-0.032616217
149	0xbcd502b5	-0.026002267
150	0xbd173c1e	-0.036922567
151	0xbbcc8ec2	-0.006242604
152	0x3d89722f	0.06711232
153	0x3d117600	0.035512924
154	0x3cf8dc27	0.030378414
155	0xbd9e9f98	-0.07745284
156	0x3d09c00e	0.033630423
157	0x3d7e567b	0.062094193
158	0xbc6dcd47	-0.014514274
159	0xbb17c6c0	-0.0023159236
160	0x3d434ecf	0.04768258
161	0xbce421a0	-0.027848065
162	0x3d5d7d69	0.05407468
163	0xbcbabad2	-0.022794161
164	0x3c0636e0	0.008191794
165	0xbbcf14c7	-0.0063196155
166	0xbcf480e8	-0.029846624
167	0xbd096cbd	-0.033550967
168	0xbbc399d3	-0.005969265
169	0xbc4a7901	-0.012357951
170	0xbd0af77c	-0.033927426
171	0xbce0dd71	-0.027449341
172	0xbd09e412	-0.03366477
173	0x3d96f3cc	0.07370719
174	0xbb96d1c5	-0.004602643
175	0x3cbe9eac	0.02326902
176	0xbd2ea9e5	-0.042642493
177	0x3d0f53d0	0.03499204
178	0xbd833309	-0.064062186
179	0x3c3ec43f	0.011643468
180	0x3d250e9c	0.040297136
181	0x3d1f9357	0.038958874
182	0xbd8dfc65	-0.06932906
183	0xbd334d80	-0.04377508
184	0x3cc616b0	0.02418074
185	0x3cabf5b2	0.02099118
186	0xbd548ac4	-0.05189015
187	0xbd5a5866	-0.05330696
188	0x3d2a6678	0.041601628
189	0x3cd1b7d6	0.025600355
190	0xbd93f1c5	-0.07223848
191	0xbcdf83c6	-0.027284514
192	0x3d743d2d	0.059628654
193	0xbd601e69	-0.0547165
194	0xba8f5046	-0.0010933958
195	0xbd7c6472	-0.06161923
196	0x3cda00f3	0.02661178
197	0xbbaa9cdf	-0.005206689
198	0x3d4de250	0.050264657
199	0x3d3a9e30	0.045561016
200	0xbc99e538	-0.018786058
201	0xbd4cbd60	-0.04998529
202	0x3ce1651f	0.027514039
203	0x3c99a120	0.018753588
204	0x3d171c6f	0.03689235
205	0xbce5b532	-0.028040502
206	0xbd34f574	-0.044179395
207	0xbd1a4a30	-0.037668407
208	0x3d1b0327	0.037844803
209	0x3a7ef372	0.0009725607
210	0x3c309336	0.010777285
211	0x3d788fd1	0.06068403
212	0xbd61605b	-0.055023532
213	0xbc89a6b4	-0.016803123
214	0x3d025e28	0.031828076
215	0x3ca9da0c	0.020733856
216	0xbd00f955	-0.03148778
217	0xbd0b72a6	-0.034044884
218	0x3d3381ea	0.043825068
219	0x3cf1ae85	0.029502163
220	0xbd081257	-0.033220615
221	0xbbbcca25	-0.005761402
222	0xbcdd0143	-0.02697814
223	0x3d444bb5	0.047923762
224	0x3c667dab	0.0140680475
225	0x3ce8734a	0.028375287
226	0xbd32723f	-0.043565985
227	0xbd400bb7	-0.046886172
228	0xbdbea913	-0.09309592
229	0x3d3494e4	0.044087306
230	0x3c06afa1	0.008220584
231	0xbd85f988	-0.06541735
232	0x3d160745	0.036628027
233	0x3d74f6fb	0.05980585
234	0xbc00605a	-0.007835472
235	0xbc9eae60	-0.019370258
236	0x3d74b423	0.059742104
237	0x3bf49a8b	0.007464712
238	0xbc1e8248	-0.009674616
239	0xbb9336aa	-0.0044926004
240	0x3c4b4f40	0.012409031
241	0x3c91b5ba	0.01778685
242	0x3d86994a	0.06572206
243	0xb9339e32	-0.00017129703
244	0x3da8f847	0.0825048
245	0x3cd918a2	0.026501004
246	0xbd969c9b	-0.07354089
247	0xbcf1012b	-0.029419502
248	0x3ca5cce1	0.020239295
249	0xbd74188e	-0.05959373
250	0xbd0c42b6	-0.034243308
251	0x3d57edf0	0.05271715
252	0x3cdeb635	0.027186492
253	0x3c53a514	0.012917776
254	0x3cc3c2ce	0.023896601
255	0xbd567666	-0.052359007

module.encoder.1.layers.6.bias f4 [1, 128]
0	0xbda8f265	-0.08249358
1	0xbd1c2852	-0.03812439
2	0xbd08b98d	-0.03338008
3	0xbc0ad744	-0.008474175
4	0xbce82aa4	-0.028340645
5	0xbbe60f6d	-0.007020882
6	0xbd3aab67	-0.04557362
7	0x3d7bdf8c	0.061492488
8	0x3c5c8cfd	0.013461349
9	0x3c358c3b	0.011080797
10	0xbd8dc2b7	-0.069219045
11	0x3d7f958e	0.062398486
12	0x3d3a5b40	0.04549718
13	0x3d807a6d	0.06273351
14	0x3d5e7fe1	0.054321174
15	0x3d6e7aac	0.058222458
16	0xbda7dc43	-0.081963085
17	0xbd9a1118	-0.075227916
18	0xbb7a487c	-0.0038190177
19	0xbd560241	-0.052248243
20	0xbd87a2f5	-0.066228785
21	0x3ba4dc14	0.005031118
22	0xbd5f0d12	-0.054455824
23	0x3d8a7d53	0.06762185
24	0xbd7c0bb2	-0.06153459
25	0x3d95b37a	0.07309623
26	0x3d3f5736	0.04671403
27	0xbc429acb	-0.011877726
28	0x3d95e32d	0.07318721
29	0x3ce3150e	0.02772
30	0xbd544579	-0.051824067
31	0x3db437dc	0.08799717
32	0xbd886439	-0.06659741
33	0xbbaf6b5b	-0.005353374
34	0x3dc460bb	0.095887624
35	0x3d2815c2	0.041036375
36	0x3b90cbdd	0.0044188336
37	0xbc970534	-0.018435098
38	0xbd507249	-0.05089024
39	0xbd8917cb	-0.06693991
40	0xbd94331e	-0.07236312
41	0xbcc3e672	-0.023913596
42	0xbd316078	-0.04330489
43	0x3c454310	0.012039915
44	0xbd8aa2ee	-0.067693576
45	0xbd092e52	-0.03349144
46	0xbc925944	-0.01786483
47	0xbd4b8410	-0.04968649
48	0xbca5ecd9	-0.02025454
49	0x3d6f6a96	0.058451258
50	0xbd4381ea	-0.047731318
51	0xbd994a23	-0.074848436
52	0x3d7d51cc	0.061845586
53	0x3d00906f	0.031387743
54	0xbd9e7d2a	-0.07738717
55	0xbd6454ba	-0.055744864
56	0x3c538e9e	0.012912421
57	0xbba936ad	-0.0051639886
58	0x3d0457ad	0.032310177
59	0x3ca30361	0.019899072
60	0xbd2f786b	-0.04283945
61	0x3d89ced0	0.067288995
62	0x3c1a7451	0.009427146
63	0x3ca1bfe8	0.019744828
64	0x3d6d6f4d	0.057967473
65	0x3d1a6711	0.037695948
66	0xbba076f9	-0.004896995
67	0xbbd9158d	-0.0066248835
68	0x3c8f733b	0.017511
69	0xbd8adc8a	-0.06780346
70	0x3c8bba90	0.017056733
71	0xbc80759d	-0.015681082
72	0x3d892b6e	0.06697737
73	0xbd9a19b4	-0.07524434
74	0x3da752ee	0.081701145
75	0xbd8aa07e	-0.06768893
76	0x3d14c894	0.0363241
77	0xbd1fa3ab	-0.038974445
78	0x3d97801b	0.07397481
79	0x3d6dc59b	0.05804978
80	0x3da7c0ef	0.08191096
81	0x3d872c34	0.06600228
82	0xbd1eb8b1	-0.038750354
83	0x3d1acb7a	0.037791707
84	0x3dc313bc	0.095252484
85	0x3d485ea2	0.048918374
86	0xbd70e8f2	-0.058815904
87	0xbd8a2faa	-0.067473724
88	0xbd459818	-0.04824075
89	0x3c57eed9	0.013179504
90	0x3cd1c667	0.0256073
91	0x3d2f34d0	0.042774975
92	0x3d75a0a3	0.05996765
93	0x3da506cf	0.08057939
94	0x3cc59e5b	0.024123361
95	0x3d86b374	0.06577197
96	0xbcc6ab10	-0.02425149
97	0x3d2c4436	0.04205724
98	0xbd5ff678	-0.05467841
99	0x3d726ac9	0.05918387
100	0x3d927912	0.071519986
101	0xbb8e2660	-0.0043380708
102	0xbd11eb3f	-0.03562474
103	0xbd874a96	-0.06606023
104	0x3c31032d	0.01080398
105	0x3d300689	0.042974982
106	0x3d572cf9	0.052533124
107	0x3d130e2b	0.035902184
108	0x3d189048	0.037246972
109	0xbd729c69	-0.059231196
110	0xbd5187b1	-0.051154796
111	0xbd316d85	-0.043317337
112	0xbd836275	-0.064152636
113	0x3d146fc2	0.036239393
114	0x3d441537	0.047871795
115	0xbdc94e7a	-0.09829421
116	0x3cd55e33	0.026045894
117	0xbda0a1ac	-0.078433365
118	0x3d540d01	0.051770214
119	0xbda2acf8	-0.079431474
120	0xbd5ecf88	-0.054397136
121	0x3d9a3a78	0.07530683
122	0x3dbbdb8a	0.09172733
123	0x3ce2267b	0.02760624
124	0x3d81c4dc	0.06336376
125	0x3d1f1330	0.038836658
126	0xbc8b1c4a	-0.016981263
127	0x3d51bbed	0.05120461

module.encoder.1.layers.6.weight f4 [1, 128, 128]
0	0x3abd8189	0.001445816
1	0x3d44e986	0.048074268
2	0xbd3c4461	-0.04596365
3	0x3c35ace2	0.011088582
4	0xbd5d2f9b	-0.05400048
5	0x3c36187a	0.011114234
6	0x3c0a39f5	0.00843667
7	0xbd318871	-0.04334301
8	0xbcccbcee	-0.024992432
9	0x3da7600d	0.08172617
10	0x3b144be2	0.0022628237
11	0x3d54bec7	0.051939752
12	0x3d54b69f	0.051931974
13	0x3d9b8ca3	0.07595184
14	0x3d71e63c	0.05905746
15	0xbd3336e4	-0.04375352
16	0xbd0ea1da	-0.034822322
17	0x3d82e611	0.06391538
18	0x3b781cf1	0.0037859047
19	0xbd5be86e	-0.05368846
20	0x3c91697c	0.017750494
21	0x3a20f09c	0.0006139369
22	0x3d5992f2	0.053118654
23	0x3d203544	0.039113298
24	0x3d7afd39	0.06127665
25	0xbd792464	-0.06082572
26	0xbc8aef3e	-0.016959783
27	0xbd41dadf	-0.047327872
28	0x3d5d3887	0.054008987
29	0x3d93e7ad	0.07221923
30	0x3c6490a9	0.013950505
31	0xbd7232da	-0.059130527
32	0x3c28991f	0.010290413
33	0x3d757925	0.059929986
34	0xbdacb64a	-0.084332064
35	0xbb988886	-0.0046549467
36	0xbd920124	-0.07129124
37	0x3dd4dfa1	0.10394216
38	0x3d9d93e9	0.07694227
39	0x3d8dbc86	0.069207236
40	0x3d1bf782	0.03807784
41	0x3d3caed8	0.04606518
42	0x3dd3b1aa	0.10336621
43	0x3d8b6d54	0.06807962
44	0xbbb7f8f0	-0.0056143925
45	0x3c6b9057	0.014377675
46	0x3d88a37c	0.06671807
47	0x3d8bff44	0.068357974
48	0xbd0b3467	-0.03398552
49	0xbdcebb10	-0.10094273
50	0xbd1e5515	-0.03865536
51	0x3d974b29	0.073873825
52	0x3d32794d	0.043572713
53	0x397b0d28	0.00023942126
54	0xbd3fd8a9	-0.046837483
55	0x3bda264d	0.006657398
56	0xbd94069b	-0.072278224
57	0xbd906d50	-0.070521
58	0xbcbdc761	-0.02316636
59	0xbcba1083	-0.022712952
60	0xbd995585	-0.07487015
61	0xbd9f60e0	-0.07782149
62	0xbdb75c18	-0.08953112
63	0x3c213661	0.009839625
64	0x3d972e04	0.07381824
65	0xbd45ea3c	-0.048319086
66	0x3ce61cb6	0.028089862
67	0x3cca7925	0.02471597
68	0xbd1f4e82	-0.03889323
69	0x3da01aa0	0.07817578
70	0x3c81cc50	0.015844494
71	0xbd5faf25	-0.05461039
72	0x3cd4ebff	0.025991438
73	0xbdd43860	-0.10362315
74	0xbcb1cf69	-0.021705346
75	0x3c84ee9e	0.016227063
76	0x3d8ea1fe	0.06964491
77	0x3ca995f4	0.020701386
78	0xbd1b9d69	-0.037991915
79	0xbddd7112	-0.10812582
80	0x3d8a6451	0.06757415
81	0xbd69f818	-0.057121366
82	0x3d8a99e2	0.06767632
83	0xbc3dc260	-0.011581987
84	0xbd4689af	-0.04847115
85	0xbd32bf8a	-0.043639697
86	0xbccd272a	-0.025043089
87	0x3d00d1a4	0.03144993
88	0xbcace0ea	-0.021103341
89	0xbd25f3dd	-0.04051577
90	0x3d233a3d	0.039850462
91	0x3d42cd3e	0.047559015
92	0xbcbe61c3	-0.023239976
93	0xbd0bc86d	-0.034126688
94	0xbd85f0f9	-0.065401025
95	0xbda56722	-0.08076312
96	0x3d911b1a	0.07085247
97	0xbd5fca33	-0.05463619
98	0x3d2a921f	0.04164326
99	0xb9da869b	-0.0004168049
100	0xbcffa022	-0.031204287
101	0xbd996cb6	-0.07491438
102	0xbd4ab8a2	-0.049492486
103	0x3d16e35e	0.036837928
104	0xbcd02046	-0.025406014
105	0x3d8af913	0.067857884
106	0xbd54b56a	-0.051930822
107	0xbd975697	-0.073895626
108	0xbd343d66	-0.044003867
109	0x3d0e0e64	0.034681693
110	0xbd8c64de	-0.068551764
111	0xbc27d65c	-0.010243978
112	0x393d9f6f	0.00018083838
113	0x3d806511	0.06269277
114	0xb9fde216	-0.00048424368
115	0x3d87b8d9	0.06627054
116	0xbda6ace1	-0.08138443
117	0x3cc6036c	0.024171554
118	0xbb9f873e	-0.004868417
119	0x3d4d2fb2	0.050094314
120	0xbd5d6418	-0.054050535
121	0xbc14c5bd	-0.009080348
122	0xbd1fb5e9	-0.038991842
123	0x3cf5fc00	0.03002739
124	0xbc55b410	-0.0130434185
125	0x3d3e87c5	0.0465162
126	0x3c8fe326	0.017564368
127	0xbcdb9118	-0.026802585
128	0x3d7c0b9e	0.061534517
129	0xbd0d4ac8	-0.034495145
130	0x3d123bea	0.03570167
131	0x3db1a9bd	0.08674953
132	0x3b2cd1ff	0.0026370285
133	0x3d354918	0.04425916
134	0xbd0eccf8	-0.034863442
135	0x3d117b2e	0.035517864
136	0xbc9c7f61	-0.019103708
137	0xbdc5ec27	-0.09664183
138	0x3c9c201f	0.019058285
139	0x3da83c65	0.08214644
140	0x3dd413fa	0.10355373
141	0xbc59f24e	-0.013302399
142	0xbdc24902	-0.094865814
143	0xbd68fd06	-0.056881927
144	0x3d6b1723	0.05739511
145	0xbd935d42	-0.07195522
146	0x3da0d75a	0.07853575
147	0x39722fd7	0.0002309674
148	0x3ba01129	0.004884858
149	0x3d841047	0.06448417
150	0x3da78e8b	0.08181485
151	0xbd447958	-0.047967285
152	0xbd08eef4	-0.03343101
153	0xbd36a8a9	-0.04459444
154	0x3ab3cede	0.0013718267
155	0x3cdfb8fb	0.027309885
156	0xbd6fca4b	-0.05854253
157	0xbda82706	-0.08210568
158	0xbdb240f4	-0.08703795
159	0x3cfc4ec5	0.030799279
160	0x3d2bdec8	0.041960508
161	0xbc8903d1	-0.016725453
162	0x3d9b168e	0.07572661
163	0x3daee339	0.08539433
164	0x3d9d71ba	0.07687707
165	0x3c9bbc38	0.019010648
166	0x3da88a01	0.08229447
167	0x3d2f4846	0.042793535
168	0xbd5402f9	-0.051760647
169	0x3d42a424	0.047519818
170	0x3cf8c519	0.030367421
171	0x3ced003e	0.02893078
172	0xbd9ebad8	-0.07750481
173	0x3ce23228	0.027611807
174	0x3d9c172a	0.07621606
175	0xbd9e8419	-0.077400394
176	0xbd8ee1b7	-0.069766454
177	0x3dbdece7	0.09273701
178	0x3cfd3049	0.030906813
179	0x3c29274f	0.010324313
180	0x3d9b8bf4	0.07595053
181	0x3be2ed5f	0.0069252695
182	0xbb255d45	-0.0025232595
183	0x3d9d7e16	0.076900646
184	0x3da53867	0.080673985
185	0x3d714417	0.058902826
186	0x3d21e4eb	0.039524954
187	0xbd3d07f5	-0.046150167
188	0x3cabea50	0.020985752
189	0x3d250322	0.04028619
190	0xbc31a53d	-0.0108426185
191	0xbd16e988	-0.036843807
192	0xbbf96ee3	-0.0076120957
193	0x3d90e262	0.07074429
194	0x3db1a801	0.08674622
195	0x3ba1a2d9	0.004932743
196	0x3cb49a7a	0.022046316
197	0x3c793897	0.015211246
198	0xbcdd7976	-0.027035456
199	0xbd44705a	-0.04795871
200	0x3d25c036	0.04046651
201	0x3d55ccb5	0.052197177
202	0xbb27bd99	-0.0025595187
203	0x3da8c6f1	0.0824107
204	0x3d9266b9	0.07148499
205	0x3d9b4af2	0.07582654
206	0x3c85927c	0.0163052
207	0xbd6f4e87	-0.0584245
208	0xbd782440	-0.060581446
209	0xbd6e70c6	-0.058213018
210	0x3bfcb10f	0.0077115367
211	0xbd7e1c35	-0.06203862
212	0x3dcf0420	0.10108209
213	0xbb8f35c9	-0.0043704254
214	0xbc59823b	-0.013275678
215	0xbd8e8545	-0.06959013
216	0x3cb1b232	0.021691415
217	0x3d82713b	0.06369253
218	0xbcff5d74	-0.031172492
219	0xbd4872e0	-0.04893768
220	0xbd8b71e7	-0.068088345
221	0xbdac5fc8	-0.08416706
222	0x3c97e8d2	0.018543635
223	0xbd739d86	-0.059476398
224	0xbb9e074c	-0.004822647
225	0xbbe6762a	-0.007033129
226	0x3cffe389	0.031236427
227	0xb8794310	-5.9428683e-05
228	0xbd3f38d7	-0.046685066
229	0xbd0cac96	-0.03434428
230	0xbda9a326	-0.08283071
231	0x3da20afa	0.0791225
232	0x3d74cf3c	0.059767947
233	0x3da8ef26	0.08248739
234	0xbdba1a3d	-0.09087036
235	0x3be01c06	0.006839278
236	0x3cc7a556	0.02437083
237	0x3d974023	0.0738528
238	0x3d5a5fae	0.053313904
239	0x3d38e30a	0.045138396
240	0x3b366569	0.0027831441
241	0xbd1f6bb6	-0.03892108
242	0xbdacf9ed	-0.08446107
243	0xbdc10aaa	-0.09425862
244	0x3d92df2c	0.07171473
245	0x3d3d1e6e	0.046171598
246	0x3ceef089	0.02916743
247	0xbd49fb44	-0.04931189
248	0x3dae5d76	0.0851392
249	0xbd32d14a	-0.043656625
250	0xbd4ab801	-0.049491886
251	0x3cb4aa86	0.022053968
252	0x3c661efd	0.014045474
253	0xbc15f9b2	-0.00915377
254	0x3c36e1fa	0.011162275
255	0x3d758382	0.05993987

module.encoder.1.layers.8.bias f4 [1, 128]
0	0xbc4f022b	-0.012634794
1	0xbc89ecc0	-0.016836524
2	0xbb6a151c	-0.0035718149
3	0xbd1fb2d0	-0.03898889
4	0xbd7c0b45	-0.061534185
5	0xbd44d2ea	-0.048052706
6	0xbce2960a	-0.027659435
7	0x3d028d5e	0.0318731
8	0x3db5bd7c	0.08874032
9	0xbc3ffe07	-0.01171828
10	0xbddab560	-0.10679126
11	0x3b2fa103	0.0026798851
12	0xbc95a13a	-0.018265355
13	0xbca97062	-0.020683471
14	0x3d124616	0.03571137
15	0xbe006496	-0.1253837
16	0xbc463009	-0.012096413
17	0xbcdd2921	-0.02699715
18	0x3d14cce3	0.036328208
19	0xbc5c8954	-0.013460476
20	0x3d375705	0.044760723
21	0xbd34ebb8	-0.04417011
22	0x3cfaec01	0.030630114
23	0xbd6bcb97	-0.057567205
24	0xbdbbcb92	-0.09169687
25	0x3dca14ad	0.09867225
26	0x3d8e419f	0.0694611
27	0xbd2b2dd2	-0.041791745
28	0x3a699043	0.00089097413
29	0x3d498ea8	0.049208313
30	0x3e043902	0.12912372
31	0x3d918ba0	0.071067095
32	0xbcd04764	-0.025424667
33	0x3d022862	0.031776793
34	0x3d8b90cc	0.06814727
35	0x3d21d740	0.03951192
36	0xbd9b61f5	-0.07587043
37	0xbde2cd18	-0.11074275
38	0xbc8c253f	-0.017107604
39	0xbcb8c8cb	-0.022556683
40	0x3bb8cec7	0.005639884
41	0xbbb92d47	-0.0056511494
42	0x3cdbee1c	0.026846938
43	0x3d8d219d	0.06891177
44	0x3dd412e2	0.10355164
45	0xbda42b3f	-0.08016061
46	0x3be4a85d	0.0069780783
47	0x3b9cc917	0.004784714
48	0x3b99c3e6	0.0046925424
49	0x3d3ce134	0.046113208
50	0xbd17999c	-0.037011728
51	0xbdcbd290	-0.09952271
52	0x3d49f152	0.049302407
53	0xbd969027	-0.07351714
54	0xbd4c155b	-0.049825054
55	0x3d4b3299	0.0496088
56	0xbc900787	-0.017581714
57	0x3d2b3b4a	0.04180459
58	0xbdd0fc8b	-0.10204419
59	0x3b3987d2	0.0028309715
60	0x3d02f316	0.031970106
61	0x3d6afe38	0.05737135
62	0x3d7d0bce	0.061778836
63	0xbc4682ea	-0.012116173
64	0xbd8615cb	-0.065471254
65	0x3cb80de5	0.022467563
66	0x3d12b23c	0.03581451
67	0x3d213151	0.039353672
68	0x3dbd2ca7	0.092370324
69	0x3d056aad	0.032572437
70	0x3c58c1fb	0.013229842
71	0xbd6ce535	-0.057835776
72	0xbc9e8569	-0.019350724
73	0xbcae3d20	-0.021269381
74	0x39b50e6a	0.0003453375
75	0xbcbd33d8	-0.02309601
76	0x3d7853a9	0.06062666
77	0x3c9637e6	0.018337201
78	0xbcdb1584	-0.026743658
79	0x3d7a14e5	0.061055083
80	0x3cce5d23	0.025190895
81	0x3cc2a1d9	0.023758816
82	0xbd55e226	-0.052217625
83	0xbc994ed0	-0.018714339
84	0x3d730937	0.05933496
85	0xbd032bab	-0.032024067
86	0xbd059aa1	-0.03261817
87	0x3d690eba	0.05689881
88	0xbca0a151	-0.019608172
89	0x3cd2ebeb	0.02574726
90	0xbd9b3f33	-0.07580414
91	0xbd2f26fc	-0.042761788
92	0x3d815ce8	0.063165486
93	0x3ab5b46c	0.0013862974
94	0xbd6f25b9	-0.058385585
95	0x3dcdd948	0.10051209
96	0xbcecb50f	-0.02889493
97	0xbd17a736	-0.0370247
98	0x3c992e94	0.018698968
99	0x3d0a9b5a	0.03383956
100	0x3cd99b91	0.026563438
101	0xbbfe6c1b	-0.007764352
102	0xbc2b11d9	-0.010441267
103	0xbd8d9a39	-0.06914181
104	0xbd5c1624	-0.053732052
105	0xbd5d589f	-0.054039594
106	0xbbe08925	-0.0068522864
107	0xbe0afa87	-0.13572131
108	0xbdafde78	-0.085873544
109	0xbc3a315f	-0.01136431
110	0x3c7c5ec1	0.0154034505
111	0x3d304d4c	0.043042466
112	0xbd2ea82c	-0.04264085
113	0xbcaaff34	-0.020873643
114	0x3d6fff35	0.058592994
115	0x3c2e9fda	0.010658229
116	0xbd6992ef	-0.057024892
117	0xbce45ad4	-0.027875341
118	0x3d8a2513	0.067453526
119	0xbc83fc0a	-0.016111393
120	0xbc38d360	-0.0112808645
121	0x3c968698	0.018374726
122	0xbc8fb1b6	-0.017540794
123	0x3d21bcc4	0.03948666
124	0x3ba1ecc5	0.004941555
125	0xbaf0862f	-0.0018350537
126	0x3c186cd1	0.009303288
127	0x3d352420	0.044223905
