scripts/shell/checkpoint/high_level/checkpoint_5_high_level.pt (torch, 956252 bytes, 49 tensors)

module.base.0.weight f4 [100]
00000000: 66ea 7c3f 4a99 863f 4477 863f 06bc 833f
00000010: 2888 863f 3011 833f 02d6 893f e66d 853f
00000020: b580 853f 378d 873f d1d9 843f e9bc 843f
00000030: 9f62 8b3f 2388 793f f9bc 7a3f d25b 813f
00000040: d421 823f 06a5 803f a760 803f bbbf 823f
00000050: a7e8 853f 52b4 7a3f 6674 7c3f b36f 3b3f
00000060: bc66 5e3f 3696 7e3f 576b 7f3f 6a63 833f
00000070: 6e55 803f a5ef 813f 9134 813f b85f 803f
00000080: b933 833f 98ab 893f 9150 813f 5dfc 723f
00000090: 6761 653f bef1 6d3f fd52 813f c527 7c3f
000000a0: cc8e 803f 6efd 843f e4a6 8f3f 4bd0 7f3f
000000b0: 2f70 823f 3009 3b3f 8c15 843f 79c1 833f
000000c0: dbcc 833f da76 743f dda4 7f3f d9f3 8c3f
000000d0: 97ad 793f 357b 7c3f 127b 803f a498 833f
000000e0: 200e 803f 3352 823f 01be 283f 3410 843f
000000f0: b943 7c3f 9005 7d3f 3558 323f b211 6a3f
00000100: 8e5f 803f 7930 803f 5174 803f ef94 7e3f
00000110: e129 823f 551d 833f 7c18 803f 18a7 123f
00000120: f501 893f e987 813f c63b 7d3f 5993 4c3f
00000130: b1a0 733f 17f9 7e3f f0da 763f 3603 823f
00000140: b443 813f 3ea3 6f3f bb65 7d3f a50c 763f
00000150: 33e2 853f 648a 853f c84c 833f 1020 853f
00000160: f3c1 803f fc3e 843f f881 853f a9a4 853f
00000170: 0c3b 7e3f 884e 853f 7109 833f 0259 823f
00000180: 1e90 833f 4d56 823f 564b 813f 4648 873f
0.98795164 1.051553 1.0505147 1.0291755 1.0510302 1.023962 1.0768435 1.0424163
1.0429903 1.058997 1.0378972 1.0370151 1.0889472 0.97473353 0.979446 1.0106146
1.0166574 1.0050361 1.0029496 1.0214761 1.0461625 0.97931397 0.9861511 0.73217314
0.8687551 0.99447954 0.9977316 1.0264714 1.0026071 1.0151259 1.0094167 1.0029211
1.025016 1.0755491 1.0102712 0.94916326 0.8960175 0.92946994 1.0103451 0.98498183
1.0043578 1.0389841 1.1222806 0.99927205 1.0190486 0.73060894 1.0319076 1.0293418
1.0296892 0.95493853 0.99860936 1.1011916 0.975305 0.986255 1.0037558 1.0280957
1.0004311 1.0181335 0.6591492 1.0317445 0.98540837 0.9883661 0.69665843 0.9143325
1.0029161 1.0014793 1.0035497 0.99446005 1.016903 1.0243326 1.0007472 0.57286215
1.0703722 1.0119601 0.9891933 0.79912335 0.9516707 0.9959883 0.9642782 1.015723
1.0098786 0.9360846 0.98983353 0.96113044 1.0459656 1.0432858 1.0257807 1.040041
1.0059189 1.0331721 1.0430288 1.0440875 0.9930885 1.0414591 1.0237256 1.0183413
1.0278356 1.0182587 1.0101116 1.0568931

module.base.0.bias f4 [100]
00000000: 9786 05bd 697f 523b 7c5a a5bc c85d 773b
00000010: 8624 80bb cfe7 773b b06e 23bb 0a4a 083c
00000020: 893b 6b3c 534a 29bc 5085 3f3c 0693 9d3b
00000030: ab55 ccba 7637 ebbc 6c60 0a3d 77cb 24bc
00000040: dfdf 333b 45a4 563c d755 fa3b eb27 ad3b
00000050: e507 363c 0d6d 053b 0473 13bc bb03 ad3c
00000060: 8091 b33c d7a6 193c ad1c 95bc 6e87 7fbc
00000070: 3392 b0bb 9108 9b3b efa8 913c 7e76 0d3c
00000080: 3e5e 133c e262 23bb fee0 a0bb 94da 083c
00000090: 0766 bf3c f4ba 883b d62b 1b3c b760 da3c
000000a0: 4839 31bc 5be9 afbc 027e 3f3c 5f41 a43b
000000b0: 0b0f e6bb b816 98bc e551 16b9 131e 0a3c
000000c0: db26 1cbc 4dcf 113d ba2c 183c 6dcd 233c
000000d0: 917a be3c 6b78 9bbb 6787 a6bb da7a c13b
000000e0: ebd0 c93b 318c 11bb a1d8 25bc edda 073d
000000f0: 5fce aa3b e563 d1ba e959 fabb f9b5 55bb
00000100: 35f2 983c 73dc 603c a8fc 843c 3802 71bc
00000110: e8d6 db3b 7651 533c f172 a23a 2f91 553d
00000120: 1817 de3b fd8a bd3b 2510 603c 6c1d 243c
00000130: 28e4 aa3b 1187 983c 7fc0 62ba 5a1e d43b
00000140: 282f c6bc dd61 723a a82a bbbb 8842 9ebc
00000150: 0e67 0ebc eed2 deb9 36a2 473c de9b 30bc
00000160: ac78 b6bb 3c91 233b 1ee5 043c 9b07 ed3a
00000170: f051 87bc 80ed 3b3b e5d7 a5bb 32a8 c13b
00000180: 8744 e239 b2d7 f2ba 44f9 46bc b7a2 b6bb
-0.032599058 0.00321194 -0.020184748 0.0037745107 -0.003910604 0.0037827378 -0.00249378 0.008318434
0.014357456 -0.010332662 0.011689499 0.0048087863 -0.0015589496 -0.02871297 0.03378336 -0.010058275
0.002744667 0.013100688 0.0076396274 0.0052842996 0.011110281 0.0020359189 -0.00899959 0.021119943
0.021919966 0.009378157 -0.01820215 -0.015596254 -0.005388522 0.004731246 0.01778075 0.008634208
0.008994637 -0.0024930765 -0.0049096337 0.008352894 0.02336408 0.004172677 0.0094709005 0.026657445
-0.01081688 -0.021473577 0.011687757 0.0050126757 -0.007020836 -0.01856552 -0.00014335623 0.008430022
-0.009530748 0.035598088 0.009288007 0.009997708 0.023251804 -0.0047445795 -0.005082059 0.0059045376
0.006158938 -0.0022208805 -0.010122449 0.03316777 0.0052125896 -0.0015975205 -0.0076401127 -0.0032609685
0.01867018 0.013724434 0.016233757 -0.014710002 0.0067089684 0.01289784 0.0012393874 0.05214041
0.0067776553 0.005784391 0.013675724 0.01001678 0.0052151866 0.018619092 -0.00086499 0.0064733448
-0.024192408 0.000924615 -0.005711872 -0.019318834 -0.008691562 -0.00042500295 0.01218467 -0.010779349
-0.0055685844 0.0024958393 0.008111266 0.0018083932 -0.016518563 0.0028675497 -0.005061137 0.005909943
0.00043157136 -0.0018527417 -0.0121443905 -0.0055735963

module.base.1.layers.0.weight f4 [256, 100]
00000000: f6e0 733d e7fa b3bd 5ec4 563d f8f7 aabd
00000010: 5490 72bd 0c81 b9bd f3c8 72bc 1aa2 933d
00000020: abf5 a1bc c3f7 f13d 3c4d 123c 1e18 59bd
00000030: 745b 063d b92d 87bd 022b 9fbd 9de7 943d
00000040: 6238 b7bd 1748 39bc ab10 143c 73f4 9fbd
00000050: d726 133c 8bd0 a13d 732e 80bc cc95 5abc
00000060: 17da 59bc 0ee3 8b3d 0f38 18bd 838c cabd
00000070: 85cd a13d 9986 253d c03a a83b aa94 9d3d
00000080: 7471 073d 64d8 d23d 145e 253d a95b 78bd
00000090: 1376 05bd 7acb 7f3d d5fa 8ebd 2e4b 9bba
000000a0: be9f 743d d7d1 89bd 44e7 e2bd 4f36 91bc
000000b0: 32ef 28bc d96c d0bb 5667 43bd e0b4 d13d
000000c0: 851e 9d3b fd98 453c 1755 3fbd e04e b93d
000000d0: 731c a03d 0052 dabd 46ce b33d 7948 bfbd
000000e0: 91dd 96bd 406c 7dbd 793d d7ba c696 0ebd
000000f0: 94f5 13ba 7cb2 b6bc bb6a 013d 1691 843d
00000100: 73f7 cbbc 9ee7 593d 52fa c6bd 847e 213d
00000110: ec08 a63d 22e2 3cbd a6c8 8ebd 90e3 5e3d
00000120: 2a43 5f3d 3d7b 73bd 127c 06be 62e5 ebbb
00000130: 44d1 c43d ac63 153d d0f7 3cbd baf3 ad3d
00000140: bcc5 313d 4908 6ebd 1330 663d 5618 54bc
00000150: 3857 793c 9c16 a3bb 52f7 90bd b45d 8b3c
00000160: d187 97bc 3ce1 67bc b8de b5bb 605a 3b3b
00000170: 079f 5d3d d706 8d3d 11c5 37bd a5f6 2f3d
00000180: 12b9 b7bd 3a6e 143d 1313 983c 3f45 af3d
00000190: 5f6f d63c f3ba 813d cd65 60bd c9e4 723d
000001a0: 228e e23d d91e b8bd 1eb2 91bd 9839 a03d
000001b0: 8bde af3c e743 a8bd c2d7 48bd 075a 74bd
000001c0: 684e f53b 8c46 563d 773b b73d 3da3 683d
000001d0: 04f9 acbc 179b 52bd 9293 173d 1c94 72bd
000001e0: adaa 643d c97e 9f3d dcd2 b3bc a4a1 493d
000001f0: 1936 90bd d470 d13d 1f00 843d 5bf2 93bd
00000200: 8729 4abd 1636 83bd 795e 8f3d 90a8 3a3d
00000210: 8582 ab3d c192 583c ce84 263d 50e6 04bd
00000220: c08c 5fbc 9f16 45bd 71fd 40bc 7c5d 3d3c
00000230: c00c e5bd 55f5 c0bd 227f 24bd df07 523b
00000240: d2ff e6bc 84b3 113d f497 02bd bdf5 57b9
00000250: e39d c3bd 29b0 9f3c 3364 04bd f7f1 933d
00000260: 6772 f13b 947a 6a3d 3610 133c 98fe 7a3d
00000270: 1dbc 53bd a28a d9bc 056f a23d 46df 97bd
00000280: 5957 de3c 438c 733d 5456 8cb8 7232 083d
00000290: 4381 f13d 5129 113c 7433 5f3d 5a9e 803d
000002a0: 18fd f23d 2e2b edbc f4b4 633d d32a 063d
000002b0: e581 c8bd f748 4bbd f665 8fbd 9d04 b33a
000002c0: de19 703d 35f2 1fbc 39fe 18bb 315e e63d
000002d0: 57b9 663d a162 593d b5b0 723d ec3e 013d
000002e0: 29db 5ebd 7777 d13d 1b71 b5bd 415b 0f3e
000002f0: b65d dbbd e629 d13d c400 373d a51e e43d
00000300: 33d4 a6bd 60e1 93bd 5be8 a33d 6fab aa3d
00000310: 1804 abbb f402 b73d 2a70 ab3d d7b4 003b
00000320: bd70 63bd 09db cd3c bdd0 09bb 5e2c c3bd
00000330: 4b3e bdbd c4c0 d0bd 055a d4bc cb04 96bc
00000340: 14c6 e53c cf3b 853c 0e26 953c 5219 073d
00000350: 76b8 a2bb 8360 97bd 8adb 363d 5e7e b33d
00000360: fe37 41bd 3e79 38bd a144 7d3c a366 823d
00000370: 4628 d13d a225 74bd ca26 f83b 15a2 903d
00000380: 1ae9 acbd 2eee c43d cc84 85bc 934f bf3d
00000390: 49a1 653d 618a 24bc 5010 bcbc 636b 723d
000003a0: b703 b73c 3d57 6cbd 22fb b2bd 7c51 b73d
000003b0: da7b a73d faed a63c 4a38 c03d 2f0d b6bd
000003c0: 4c16 853d 8afb 5b3d 768d e0bd 057d 07bd
000003d0: bee0 3b3d bd7a 59bd c54c 94bd 4bc0 8f3d
000003e0: 016a 70bc 9197 443d 1cca bfbd 9764 9d3c
000003f0: 14b5 90bd 7cdf 3bba 4610 d9bc d277 cdbc
0.05954071 -0.0878809 0.052433364 -0.083480775 -0.059219673 -0.09057817 -0.014818418 0.07208653
-0.019770464 0.11814835 0.008929547 -0.053001516 0.03280206 -0.06600518 -0.07771875 0.07270739
-0.08946301 -0.011308691 0.009037177 -0.07810297 0.008981428 0.079011045 -0.015647149 -0.013341378
-0.013296626 0.068304166 -0.037162837 -0.09890082 0.07900528 0.040411565 0.0051339567 0.07694371
0.03306718 0.102951795 0.040372923 -0.06063429 -0.032583307 0.06244991 -0.06981436 -0.0011847967
0.059722655 -0.06729477 -0.11079267 -0.017726092 -0.010310935 -0.006360632 -0.04770597 0.10239577
0.004794898 0.012060401 -0.046712007 0.09048247 0.07817926 -0.106601715 0.08779578 -0.09339995
-0.07366479 -0.061870813 -0.0016421519 -0.034811758 -0.0005644199 -0.022301905 0.031595927 0.064729854
-0.024898266 0.053199403 -0.097157136 0.039427295 0.081071705 -0.046114095 -0.069718644 0.05441624
0.054507412 -0.0594437 -0.13133267 -0.0071989754 0.09610227 0.036472008 -0.04613477 0.08493753
0.043401465 -0.05811337 0.05619819 -0.012945255 0.0152185485 -0.0049770605 -0.070784226 0.017012455
-0.01849738 -0.014152821 -0.005550232 0.0028587803 0.05410674 0.0688607 -0.04486567 0.042959828
-0.08970846 0.036237933 0.018563783 0.085581295 0.026176153 0.06334486 -0.054784585 0.059300218
0.11062266 -0.08990259 -0.07114051 0.07823485 0.021468421 -0.08216076 -0.049033888 -0.05965617
0.0074861534 0.052313372 0.08946889 0.0567963 -0.021114834 -0.051417436 0.03700597 -0.05922328
0.05582683 0.07787854 -0.021951132 0.04922642 -0.07041568 0.102265984 0.064453356 -0.0722396
-0.04935601 -0.064068004 0.07000441 0.04557091 0.08374504 0.013218583 0.040653996 -0.032446206
-0.013644397 -0.048117276 -0.011779175 0.011557933 -0.111840725 -0.09421793 -0.040160306 0.0032048149
-0.028198157 0.03557159 -0.031883195 -0.00020595542 -0.09551599 0.01949318 -0.03232212 0.072238855
0.007368374 0.057245806 0.008976033 0.061277956 -0.05169307 -0.026555363 0.079313315 -0.07415633
0.02714126 0.059459936 -6.6918e-05 0.033251233 0.11792233 0.008859948 0.05449243 0.06280203
0.1186468 -0.028951254 0.055592492 0.032755684 -0.097904004 -0.04963013 -0.070018694 0.0013657991
0.05861842 -0.0097623365 -0.0023344888 0.11248434 0.056329098 0.053072575 0.059250552 0.031554148
-0.054408226 0.10227864 -0.08859464 0.13999654 -0.10711233 0.102130696 0.044678465 0.111386575
-0.081459425 -0.07220721 0.08003303 0.083334796 -0.005218994 0.0893611 0.08371003 0.001963904
-0.055527437 0.025128858 -0.0021028959 -0.09529947 -0.09240397 -0.10193017 -0.02592183 -0.018312832
0.028048553 0.01626387 0.018206622 0.03298313 -0.004965837 -0.07391455 0.044642963 0.08764337
-0.04717254 -0.0450375 0.015458257 0.06367233 0.1021276 -0.059606202 0.0075729834 0.07062165
-0.08442898 0.09615742 -0.016298674 0.093413495 0.056062017 -0.010042758 -0.022956997 0.059184443
0.022340639 -0.057700384 -0.08739306 0.08951089 0.0817792 0.020377148 0.09385736 -0.08889233
0.064983934 0.053706683 -0.109644815 -0.033078212 0.045868628 -0.053095568 -0.07241205 0.07019099
-0.014673711 0.047996107 -0.09364721 0.019213004 -0.07065788 -0.00071667857 -0.026497018 -0.025081549

module.base.1.layers.0.bias f4 [256]
00000000: 26b3 a13d 1df1 6b3d a990 36bd 306d 53bc
00000010: 2213 863d bbbd 2d3d 7e14 7d3d 320f 3d3d
00000020: 4f84 893d 44d7 d13d b707 1a3d 7f7e 533d
00000030: 6511 29bd 5905 75bd c139 bdbc ac86 abbc
00000040: 5eb5 6f3d 1ac4 0cbc da21 c3bd fa81 88bd
00000050: ce3d 7e3d b4a8 523d 8904 ad3d f8f9 353d
00000060: 9c2b c23d 7db1 293d 6822 21bd 4e79 64bd
00000070: 5dc8 963d b166 86bc 5d77 5bbd 1a0c dd3c
00000080: c201 ae3d 5502 c4bb cd11 63bc 6a89 97bc
00000090: fd3a 27bd f211 573d 80fe 11bd 8068 c1bb
000000a0: 8e26 5b3d 24e2 353d e14d 69bd 7171 86bd
000000b0: 404d 2dbd 39dd 8cbd 93e7 18bc 9a2a 8c3d
000000c0: 9451 d1bc 662b abbd 0234 4abd a694 15bd
000000d0: 0b24 473d f21a 86bd 90f1 c43c 2a0c 0d3d
000000e0: 76d2 8dbd 366a e43c e4ee 843d 9305 003d
000000f0: 20bf b5bd 4d39 41bc c19e c63d 21f9 c1bd
00000100: be64 283d 1c1a c13c 6e84 62bc 8d8c 373d
00000110: 2189 4e3d 1c90 c7bd bf1e cabd 4cad 90bd
00000120: 5d0a 23ba a607 313d 63cf 89bd fdb1 d83b
00000130: 1c18 b83d d1cb a6bd 5400 22bd 621d 97bc
00000140: f877 773d 1437 b4bd 3cc0 503c e2da c3bb
00000150: 2758 a83d 9b7c 993c d3f8 413c 091f 87bd
00000160: a5aa 4b3c 9437 803d 780b d8bd 8725 bebd
00000170: 1167 3dbd 9c6d 0a3d 9b1d 6d3d 0c3a 38bd
00000180: f76f 113d b2a8 73bd 629e aebd 28ae 03bc
00000190: 4c4f b23d 3127 7ebd 0317 813d 5c4f 71bd
000001a0: e9f4 9ebd 2046 b03c b2b8 a8bc 469c aabd
000001b0: 570e f9bc 4121 8c3d 2c6e 553d 214b 853d
000001c0: 4698 943d 9036 353d 6c48 a13c e5a3 73bd
000001d0: 101f c3bd ac6e f23c d0b9 d1bc c500 5d3d
000001e0: c316 e9bc 4fdc a9bd a0d6 88bd cb08 67bd
000001f0: cc2d 7abd cca3 0ebd a911 c63c 61c1 cc3d
00000200: 0787 9dbd b13e 11bd f673 80bc 9370 9e3c
00000210: 2652 2a3d fa37 5b3d 40be 703d 2b8f a33d
00000220: 1379 fcbb 9917 b8bd d0e8 6e3c 9cad 5b3d
00000230: 0cc8 15bd 90f8 653d 6f12 1cbd 14a9 4c3c
00000240: 4a50 1f3d 5f86 d3bb e495 a83c 01ea 983c
00000250: 868b 7c3d 3eb1 0e3d b1a4 1ebd d10c c33d
00000260: 2e5d 953d 776f 7d3c 2ff9 bd3c 15c3 8dbc
00000270: b3e5 583d 4308 b13d 01aa b7bc c0fb 2dbc
00000280: e654 9abd d1ec 34bc 9d89 303d ceeb 733d
00000290: 66be e5bc c711 98bd 82be 9dbc 861e 253d
000002a0: e112 e6bc 7d4f 95bd 6712 9b3d 9a6f cfbc
000002b0: 426a 48bc e9c5 76bd 9783 9bbd 2119 593d
000002c0: 5aac 42bd a257 bc3d d26d 943d c634 88bd
000002d0: 7e71 a53d 6d76 933d 25fb 853b 0a54 30bd
000002e0: 2793 a03d 2d6e 86bd f893 9cbc c5c0 913d
000002f0: 6cbf 71bd a81f 99bd 1df8 ecbc ee7f 9cbc
00000300: 9181 5fbd 7dbe 533d 8e33 083c 0340 20bc
00000310: 79a1 b7bd d055 d4bc 80b1 923d 7986 ba3d
00000320: e100 473d 9738 833d 37a4 f23c f4f0 9c3d
00000330: 1f50 c6bd 6f84 30bc 4951 463d 724a f03c
00000340: dd30 b53d 5d79 943c 9808 9837 09e1 373c
00000350: ab08 953c 56af 733d 96af 9d3d 841b 73bd
00000360: a832 a1bd 4ba8 c4bc 0271 1cbd bf48 bfbc
00000370: 865d 6a3c 4be8 19bd 01f4 6ebd 0e37 48bc
00000380: cf1b adbd cd37 d9bc c59f 92bc 3e45 02bc
00000390: 0931 5b3d 6b78 fcbc 814c 84bd 81cc 7f3d
000003a0: 4bd3 82bd 19fa 6abd a1ef 493d 69d4 14bc
000003b0: 33f9 35bd 3663 9ebd 2ff2 8fbd 7695 1c3b
000003c0: 44e3 7abd b52c cabd fd1b 263d 02af 88bb
000003d0: 7ea1 4d3d cfbd 9bbc cf1d 223d a7d6 bfbd
000003e0: 126b be3d e8f8 483d 34c2 11bd d5fa 6cbd
000003f0: 68f6 2ebd 8a9a 783d dddf 793d 0ad2 41bd
0.07895498 0.05760299 -0.044571552 -0.01290445 0.06546618 0.04241727 0.06178712 0.04615707
0.06714689 0.10246137 0.037605014 0.051634308 -0.041276354 -0.059819553 -0.023098828 -0.02093824
0.058522575 -0.008591676 -0.09527941 -0.06665416 0.06207066 0.05143042 0.08448131 0.044427842
0.09480974 0.04142903 -0.039339453 -0.055779748 0.07362435 -0.016406389 -0.05358063 0.02698331
0.08496429 -0.0059817233 -0.0138592245 -0.018498141 -0.04082774 0.05250735 -0.0356431 -0.00590235
0.053503565 0.044405118 -0.056959037 -0.06564606 -0.04231 -0.068781324 -0.009332555 0.06844063
-0.025551595 -0.08357887 -0.049366005 -0.036518715 0.048618358 -0.06548108 0.024040967 0.03443543
-0.06924908 0.027882677 0.06490877 0.031255316 -0.08874345 -0.011793447 0.09698249 -0.09471346
0.0411117 0.02357202 -0.013825519 0.044811774 0.050423745 -0.097442836 -0.098691456 -0.07064304
-0.0006219501 0.043220185 -0.06729009 0.0066130147 0.089889735 -0.08144344 -0.039551094 -0.018446628
0.060417145 -0.08799568 0.012741145 -0.0059770206 0.08219939 0.018736174 0.0118391095 -0.06597716
0.012430822 0.06260601 -0.105490625 -0.092845015 -0.04624087 0.033795938 0.057889562 -0.044977233
0.03550717 -0.059487052 -0.08526303 -0.008037128 0.08706531 -0.062049095 0.06303217 -0.058913574
-0.07761557 0.021517813 -0.020595882 -0.08330588 -0.030402346 0.0684228 0.05210702 0.0650847
0.07255606 0.044241488 0.019687854 -0.059482474 -0.09527409 0.029593788 -0.025601298 0.053955812
-0.028453236 -0.08293974 -0.066815615 -0.05640487 -0.06107883 -0.034824178 0.024178343 0.099978216
-0.0769177 -0.035460178 -0.015680294 0.019340789 0.04158225 0.05352018 0.058775187 0.079862915
-0.007704863 -0.08988876 0.014581874 0.053632364 -0.036567733 0.05614525 -0.038103517 0.012491483
0.03889493 -0.0064552273 0.020579286 0.01866627 0.061656497 0.034837 -0.03873128 0.09523929
0.07293163 0.01546847 0.023190109 -0.017304936 0.052953433 0.08644154 -0.022419931 -0.010619104
-0.07535724 -0.01104279 0.04309999 0.059551053 -0.02804489 -0.07425266 -0.01925588 0.040312313
-0.028085174 -0.07290552 0.07571869 -0.02532177 -0.012232365 -0.060247336 -0.07593458 0.05300248
-0.04752765 0.09196402 0.07247509 -0.06650691 0.080782875 0.07200322 0.0040887767 -0.043048896
0.07840567 -0.06563983 -0.019113526 0.07116846 -0.059020445 -0.07476741 -0.028926903 -0.01910397
-0.054566924 0.051695336 0.008313073 -0.009780887 -0.08966345 -0.025919825 0.07162762 0.0910768
0.048584823 0.06407278 0.02961932 0.07663146 -0.09683251 -0.010773762 0.048417363 0.029332373
0.088472106 0.018124277 1.8123814e-05 0.011223086 0.01819261 0.059493385 0.07699506 -0.059352413
-0.0787099 -0.02400603 -0.03819371 -0.023350118 0.014304524 -0.037575047 -0.05833817 -0.012220157
-0.0845257 -0.026515866 -0.01789845 -0.007951079 0.05351356 -0.030819139 -0.064599045 0.06245089
-0.06387957 -0.057367418 0.049300794 -0.009083846 -0.044427108 -0.07733767 -0.07028615 0.0023892797
-0.061251894 -0.098718084 0.040554035 -0.004171253 0.05020284 -0.019011406 0.03957921 -0.093671136
0.09297766 0.0490655 -0.035585597 -0.0578564 -0.04271546 0.060694255 0.06100451 -0.04731945

module.base.1.layers.2.weight f4 [256]
00000000: 3d6a 823f 6a1f 893f 5033 893f 534a 813f
00000010: 3e44 823f 81b2 843f 1f04 823f 4f55 863f
00000020: a443 813f 827c 833f ff26 833f 1505 833f
00000030: f4ca 893f 68fd 883f ab5c 813f 2a75 833f
00000040: 5847 843f ad92 853f 4b90 823f a801 833f
00000050: b000 813f 1032 833f a556 863f 0647 823f
00000060: 4ca4 803f 4016 863f d671 813f e14d 843f
00000070: c452 813f b960 843f 0894 803f 931b 823f
00000080: d6da 813f fd5a 853f e422 853f 9336 833f
00000090: 7333 833f af68 8d3f 0d89 873f e58c 823f
000000a0: fce4 843f 3740 8a3f 0962 853f a2e1 853f
000000b0: ba1f 853f ca6d 823f 3b0f 803f 8286 7d3f
000000c0: 4f0a 8c3f 4601 823f 961a 833f a6ec 803f
000000d0: c32b 833f 3520 823f f883 823f c678 823f
000000e0: 24af 833f 7417 813f b017 853f 3489 863f
000000f0: e2a1 823f 0ae4 823f e61d 823f 1e2c 853f
00000100: 097c 873f 05f1 803f dcca 833f 7fa8 823f
00000110: 364b 863f 0409 813f 54f9 803f 3c9e 7e3f
00000120: 5064 843f 40dd 823f 90d5 803f a21f 813f
00000130: 03a6 863f 31b4 813f dbce 833f 1156 813f
00000140: 2d0b 823f 2c8d 843f 6244 863f 9abf 8d3f
00000150: fa2d 8b3f 5f5f 853f 37e2 803f f085 803f
00000160: 03f4 803f 679a 863f 8fdc 803f aaab 833f
00000170: 6d62 883f 2805 843f 2a1c 873f ceae 8a3f
00000180: 13dc 823f 9075 7e3f e8f1 823f d461 863f
00000190: 7ce8 833f e8f7 803f 16a2 843f 18f0 823f
000001a0: 7086 873f 584a 863f dce0 883f d4b2 833f
000001b0: d20c 863f 0ba3 7e3f 80ed 843f 5901 813f
000001c0: 5468 823f c2d8 843f 64f0 833f 46f0 853f
000001d0: f09b 813f 4464 813f 21d4 803f 35ec 803f
000001e0: 1fd2 863f e29f 843f 0e12 7d3f 7dbd 7d3f
000001f0: 5003 833f 6bb2 803f d686 813f 9347 823f
00000200: 4edb 853f e380 833f 46ac 833f c0f0 823f
00000210: 5c9c 853f 08bc 823f 2f05 833f 770c 853f
00000220: b4ed 823f b06b 823f cf5e 833f 5490 873f
00000230: febc 823f 4ebb 803f 2045 833f 2292 803f
00000240: 85de 833f 8d5b 863f df34 883f 3f1b 803f
00000250: 556a 813f a596 813f 7df8 863f 55ad 833f
00000260: c36f 833f 1179 8b3f 1727 813f dbbd 873f
00000270: 0544 833f f7a6 803f 8ce9 813f b5d8 823f
00000280: 1176 7f3f 6a2e 823f c1e3 843f 94b2 813f
00000290: 5e2a 803f d7a0 843f 4e8b 813f b310 863f
000002a0: 1e73 873f 26d1 843f 1366 843f 6d61 853f
000002b0: 8efa 813f bb99 813f 84f5 853f 2647 823f
000002c0: e6e2 813f 700b 823f c90b 833f 97d3 823f
000002d0: 9744 813f 3596 863f 1fd2 863f a541 883f
000002e0: 342c 7a3f 6f8c 873f 350e 853f 3ceb 873f
000002f0: e436 873f 1585 833f a247 823f 9a9c 843f
00000300: bdec 823f e7fe 863f 935f 803f c641 813f
00000310: d32c 843f 81ab 823f f2e1 823f add4 853f
00000320: fbbd 833f ba40 843f 8243 7f3f 7225 823f
00000330: 2958 823f 65cf 823f d4d9 823f 8fbd 883f
00000340: 7702 873f 3d59 8b3f 8ae2 833f 642a 883f
00000350: 9fed 873f 54d3 813f 14f9 813f d390 803f
00000360: 9048 833f 4491 803f 172e 863f 8d27 7e3f
00000370: 9041 813f 983a 853f dbc5 823f ac44 873f
00000380: ea5a 833f 2283 823f 227e 7d3f ffa6 823f
00000390: 17df 863f 110c 813f ca65 853f fa08 813f
000003a0: e291 7e3f 6d36 863f dcdc 853f 6260 853f
000003b0: 055a 833f 6906 823f cd88 803f c202 823f
000003c0: 1e22 803f be4c 873f 2762 823f add5 843f
000003d0: adf3 803f 3eb9 823f 04f1 823f 2d4b 853f
000003e0: 5685 823f 4f0c 893f b58c 813f 89a1 843f
000003f0: b226 8e3f e1bf 863f f2cc 7f3f eb2a 883f
1.0188671 1.0712712 1.0718784 1.0100807 1.0177076 1.0366975 1.0157508 1.0494784
1.0098767 1.0272372 1.0246276 1.0235926 1.0765061 1.0702333 1.0106405 1.0270131
1.0334272 1.0435387 1.0200285 1.023488 1.0078335 1.0249653 1.0495192 1.0177925
1.005014 1.047554 1.0112865 1.0336267 1.0103383 1.0342017 1.0045176 1.0164665
1.0144908 1.0418392 1.0401273 1.025103 1.0250076 1.1047572 1.05887 1.0199248
1.038238 1.0800847 1.0420543 1.0459483 1.0400307 1.0189755 1.0004648 0.9903337
1.0940646 1.0156639 1.0242488 1.0072219 1.024773 1.0166079 1.0196524 1.0193107
1.0287824 1.0085282 1.0397854 1.0510621 1.0205653 1.0225842 1.0165374 1.0404088
1.0584728 1.0073553 1.0296283 1.0207671 1.0491703 1.0080876 1.0076089 0.99460196
1.0343113 1.022377 1.0065174 1.0087779 1.0519413 1.0133115 1.0297502 1.010439
1.015966 1.0355582 1.0489619 1.1074097 1.0873406 1.041973 1.0069035 1.0040874
1.0074466 1.051587 1.0067309 1.0286763 1.0655037 1.0314074 1.055547 1.0834596
1.0223411 0.99398136 1.0230074 1.0498605 1.0305324 1.0075655 1.0361965 1.0229521
1.0587902 1.0491438 1.0693622 1.0288949 1.0472662 0.99467534 1.0384979 1.0078536
1.0188088 1.0378649 1.0307736 1.0463951 1.0125713 1.0108724 1.0064737 1.0072085
1.0532874 1.0361292 0.98855674 0.9911726 1.0235386 1.0054449 1.0119274 1.0178093
1.0457551 1.0273708 1.0286949 1.0229721 1.0438342 1.0213633 1.0235957 1.0394429
1.0228791 1.0189114 1.0263308 1.059092 1.0213926 1.0057161 1.025547 1.0044596
1.0302283 1.0496689 1.0641135 1.0008315 1.0110575 1.0124098 1.0544583 1.0287272
1.0268482 1.0896322 1.0090054 1.0604814 1.0255133 1.0050954 1.0149398 1.0222384
0.9978953 1.0170414 1.0382005 1.0132623 1.001293 1.0361584 1.0120637 1.0473846
1.0582006 1.0376327 1.034365 1.0420357 1.0154588 1.012504 1.046555 1.0177963
1.0147369 1.015974 1.0237972 1.0220822 1.0099057 1.051459 1.0532874 1.0645033
0.977237 1.0589732 1.0394961 1.0618663 1.0563626 1.0274988 1.0178111 1.0360291
1.0228497 1.054654 1.0029167 1.0098197 1.0326179 1.0208589 1.0225203 1.0455528
1.0292352 1.0332253 0.99712384 1.0167677 1.0183154 1.0219542 1.0222726 1.0682849
1.0547627 1.0886608 1.0303509 1.0637937 1.0619391 1.0142617 1.0154138 1.0044197
1.0256519 1.0044332 1.0482816 0.992791 1.0098133 1.0408506 1.0216631 1.0567832
1.026212 1.0196269 0.9902059 1.0207213 1.0536832 1.0081807 1.0421689 1.0080864
0.9944135 1.048536 1.0458026 1.0420039 1.0261847 1.0158206 1.0041748 1.0157092
1.0010412 1.0570295 1.0186204 1.0377709 1.0074364 1.0212781 1.0229802 1.0413567
1.0196941 1.0706881 1.0121065 1.0361797 1.1105559 1.0527307 0.99922097 1.0638098

module.base.1.layers.2.bias f4 [256]
00000000: ed26 21bc 0f43 353c 9286 85bb 00ae 1fbc
00000010: f788 083c 4ad9 90ba 9875 47bb 0616 943b
00000020: 6879 00bc 0b83 703c c607 d3bc 8b4b 01bc
00000030: 7641 393c 5d0f 093c 55b7 34bc 4ebe 88bc
00000040: 298e 193b 5ba4 a33a 89c4 1f3b 13d1 f3bb
00000050: 1025 acbc 66ca d0bb df47 cf3b 7d49 28bc
00000060: 345b 20bb 1d7b b4ba 10c4 da3b 6f15 fb3a
00000070: 6568 5bba f353 55bc 5cbe c83b 1804 a13c
00000080: a450 a03c 65b9 ae3b 4cdb 4b3c acee c63b
00000090: 2471 a53c 7923 a53b 758c 7e3b a0ff b33b
000000a0: 2fd7 2ebc 8511 18bc 83e9 bebb ffeb 8d3c
000000b0: 3447 80bb 2ebf 123c 5b93 af3c 9d9c 1c3c
000000c0: 7599 ee3c a8a4 173c fee7 783a b111 623c
000000d0: 79ca 843c c57f 18bb d2b5 89bc fc19 9cbc
000000e0: e677 8fbc 4c2f 42bc 52af 993c f8ca c03c
000000f0: da26 5d3a db3b ce3c 2441 86ba 1173 a8bc
00000100: 85d6 933c fb03 00bd 660e 373c 7d8d abbb
00000110: 13c5 f239 01d6 82bc 02f5 4bbb a03a f4bb
00000120: 93d2 a03c fd37 063c 7987 44bb 262b 3fbc
00000130: b154 a3b9 b91a 6abb f279 02bd b850 22bb
00000140: aa5d 293c b3e2 633a 8e59 a8bc d2e8 32bd
00000150: 6de8 84bc ba2e 713c dff9 ffbb 60ce 913c
00000160: d6b6 34bc 13f6 ed3b f570 d6bb 4bae 50bc
00000170: 3b1f 133b e69e 653b e6e7 44b9 e36e 813b
00000180: c3ee bd3a 7674 2d3c a8e5 2dbc 7cd3 4f3c
00000190: 799b cabb adf2 5abb 5afe a13c c060 42ba
000001a0: 24ef 52bb a289 8e3b 5822 543b 7dfb 11bc
000001b0: 7d9d 61bc 8e20 073c 8a8f 45bc c5d3 803a
000001c0: 33a4 933c 7dc1 cb3c 8f20 b2bc 9c21 f93b
000001d0: 9387 73bb 9387 b2bc abcb 053b cb56 1a3c
000001e0: 78a7 243b 0d94 853a 2bee ff3a 0a0f 57bc
000001f0: 7a38 b8bb 5e4b 2d3c 16d6 f63b 686c 9c3b
00000200: b657 0fbb e4c3 743c 294e bcbc 9c2e 873b
00000210: 70fc 4fbb ec78 36bc 386d 75bc 6163 abbb
00000220: 8b51 7f3c a8e3 54bb ddb3 f93c 193a 7dbc
00000230: 568c ab3b d19b c33a 7f23 65bc 23c8 dfb9
00000240: 534f 1ebb 1926 3abc 7291 ecbb 62e0 66bc
00000250: f603 ab3b 7870 cfba 4576 0f3c 4dbb 19bc
00000260: 38ce 4b3c cbd8 333b 417d 703b cab9 0dbd
00000270: 14f1 c63b ff0d 3f3b dfa0 e53a 01f9 fc3b
00000280: a18c 57bb 2faf 003c 4b4b a43c 50c2 733c
00000290: 416c b5ba 7f1d 2e3c 42bc 14bc 91e3 d8bb
000002a0: 3bfe 4dbc ab66 b2bc a90b c43b b426 8e3c
000002b0: d220 25bc cf97 35bc 4536 cc3b 0a81 69bb
000002c0: 9fad 5a3b 1ff2 403b 05ba 2bbc 22f3 4a39
000002d0: a03d 973c 4d2c 6fbc ed7d 72bb 7369 02bd
000002e0: e7de acbc 3d68 1cbc d9a0 36bc 8695 853a
000002f0: fd55 e33a ee31 9bbc 1885 733c 96ed 313b
00000300: 283c ebbb c2ce a8bb 4d8a 02bc d856 75bc
00000310: 9be2 023c 13c6 64bb cf43 bf3c f6e9 0a3c
00000320: 8f67 60bc 860d 32bc 1968 89bb 3933 55bc
00000330: 8a4a a9b9 8b67 253d 6ba3 13bd df55 0ebc
00000340: 9d9c c13c 2ed4 d0b8 cdd1 4dbb 10dc 90bc
00000350: 791e 42bc 4dff cabb 38b4 9bbb 8d22 5e3c
00000360: a265 08bc 81a2 c83b 760e c43b 2f77 053c
00000370: 92eb e53c 819d 0fbc 00bb f5bb a32a 8abb
00000380: d7fe 90bc 854c eebb f278 9f3c 2147 f9b9
00000390: bb4d ceba c4f4 c03b d3b7 853c 57cf c53a
000003a0: 52fc 2b3c 9d2b 763c e4f0 f6bc 2db0 31bc
000003b0: 4313 c0bc c214 d0bc 5f3c 07bc 2ccf debc
000003c0: 9b55 f63b 240f adbb eb18 613c 25cb b23b
000003d0: 8bab a3bb 76c3 9b3b 9aec 413c 4c56 a63b
000003e0: 91ac 403b 0bc8 c73b 03c8 513b f742 e93c
000003f0: 5dd9 cc39 1194 36bb 2f20 063c 9303 4f3b
-0.009835941 0.011063351 -0.00407488 -0.009746075 0.008333436 -0.0011051085 -0.0030435082 0.004519227
-0.0078414455 0.014679681 -0.025760543 -0.007891546 0.011307111 0.008365479 -0.011030038 -0.016692307
0.0023430681 0.0012484895 0.0024378619 -0.007440695 -0.021013767 -0.006371784 0.0063257064 -0.010271427
-0.0024468424 -0.0013769601 0.0066762045 0.0019156168 -0.0008369743 -0.013020503 0.006126208 0.019655272
0.019569702 0.0053321593 0.012442421 0.0060709324 0.020195551 0.005039629 0.0038841043 0.0054931194
-0.010671421 -0.009281521 -0.0058261766 0.017324446 -0.003914738 0.008956714 0.02143257 0.009558824
0.029125908 0.009255566 0.0009495019 0.013798163 0.016209828 -0.0023269516 -0.016810331 -0.019055359
-0.017513227 -0.011852097 0.018760357 0.023534283 0.000843627 0.025175026 -0.0010242802 -0.02056268
0.018046627 -0.031253796 0.011172866 -0.0052353726 0.0004630467 -0.015971186 -0.0031121378 -0.0074532777
0.01963166 0.00819206 -0.0029987975 -0.011668002 -0.00031152883 -0.0035721494 -0.031854577 -0.002476735
0.010337273 0.00086931436 -0.020550516 -0.043679066 -0.01622411 0.014720613 -0.0078117694 0.017798603
-0.01102992 0.0072620003 -0.0065442272 -0.012736867 0.0022449035 0.0035037338 -0.00018778406 0.0039499863
0.0014490712 0.0105868485 -0.010613836 0.012684699 -0.0061830846 -0.0033408806 0.019774605 -0.00074149296
-0.0032185996 0.004349903 0.0032369103 -0.008910057 -0.013770458 0.008247508 -0.012058148 0.0009828737
0.018022632 0.024872536 -0.02174404 0.0076028835 -0.0037159666 -0.021793162 0.0020415585 0.009420107
0.0025124233 0.0010191217 0.0019525936 -0.013126144 -0.005621967 0.010577051 0.0075328453 0.004773665
-0.0021872348 0.014939282 -0.022986488 0.0041254293 -0.0031736158 -0.011137228 -0.014979653 -0.0052303527
0.015583406 -0.0032484327 0.030481273 -0.015455746 0.005235235 0.0014923756 -0.013985514 -0.00042682988
-0.0024156168 -0.011361622 -0.007219487 -0.014091583 0.005218978 -0.0015826365 0.008756225 -0.009383035
0.012439303 0.002744245 0.003669575 -0.03460101 0.006071219 0.002915263 0.0017519257 0.0077201133
-0.0032890218 0.007854267 0.020055434 0.014877871 -0.0013841466 0.01062715 -0.009078087 -0.006618925
-0.01257282 -0.021777472 0.0059828353 0.01735244 -0.010078626 -0.011083557 0.0062320554 -0.0035629892
0.0033367646 0.002944119 -0.010481362 0.00019354795 0.018462002 -0.0145979645 -0.0037001327 -0.031838845
-0.021102382 -0.009546337 -0.0111467475 0.0010191656 0.0017344352 -0.018944707 0.014863275 0.002714967
-0.007178802 -0.0051516006 -0.007967544 -0.014974318 0.007988597 -0.00349081 0.023347763 0.008478632
-0.013696565 -0.010867482 -0.0041933176 -0.013012701 -0.00032289728 0.04038195 -0.03604452 -0.008687465
0.02363425 -9.9577344e-05 -0.0031405569 -0.017683059 -0.011848086 -0.006194985 -0.0047517084 0.013558042
-0.008325012 0.0061228876 0.005983169 0.008146091 0.02806643 -0.008765579 -0.007499099 -0.0042165085
-0.017699642 -0.0072723054 0.01946685 -0.00047545976 -0.0015739718 0.0058885533 0.016323006 0.0015091699
0.01049717 0.015025047 -0.030144162 -0.010845226 -0.023446685 -0.025400523 -0.00825414 -0.027198397
0.007517529 -0.005281346 0.013738851 0.0054563456 -0.0049948147 0.0047535254 0.011836195 0.0050762054
0.0029399733 0.006096845 0.0032010085 0.028474314 0.0003907186 -0.002785925 0.008186384 0.0031587824

module.base.1.layers.3.weight f4 [128, 256]
00000000: ff65 493d 0aec 02bd 8357 c2bb 529e c23c
00000010: 8709 cd3c 3849 803d 9ba4 72bc b877 de3c
00000020: 71f8 183c 4cbc e63c 4fcf 143d 3862 073d
00000030: c172 2c3b 28e6 b0bd 671a 90bb 9a79 2d3c
00000040: 8e33 d2bc 7f6b edba 8bc4 c03d 3909 adbc
00000050: 4076 823a ee2a 5fbc 5efc 153d 663c febc
00000060: 1ce1 c9bc f557 d53c 56e1 793d d818 41bd
00000070: f4f2 113d 7041 98bd 99d0 3fbd 6887 f3bb
00000080: a17a 423d 7f6e acbc ba9f 99bd e9ea 70bd
00000090: 9a48 85bd 905c a63c 3c3f efbc 4210 433d
000000a0: f022 17bd 5439 b539 4e08 543c ce51 24bd
000000b0: 7e8e 893d 05e7 cc3c 4c25 93bd 0efb 293d
000000c0: 4b54 9d3c ee54 35bc 7424 783c f12f 243d
000000d0: 51e7 863d 9639 c4ba b0fe 8dbd f78a 1f3d
000000e0: eaa2 143b 9f13 733d b87a 69bd 397c e43c
000000f0: e3c2 4abc be14 69bd 6f09 263d 0e8e a03c
00000100: 848d 98bd c77d 253a 4ab4 ad3c 965c 413d
00000110: bf3c c7bc 2cbb 3e3d cffb 7d3d 6f33 ebbc
00000120: b25c 153c bb86 483d 17d0 113d 1224 77bd
00000130: 1e7e 803c 4347 d9bc 6f44 943c fe7a 9cbc
00000140: e1f7 f5bc 555e 50bd 7eac 8dbc d86a 273d
00000150: 63ba 923c 0fe5 39bd ea46 4f3c ad8f edbc
00000160: 13f5 afbd 1890 193c 8736 08bc 74a5 e33c
00000170: 928b 8e3d e032 a93c ab00 33bc 59e6 a7bc
00000180: d428 3a3d 2339 3cbd 97e5 bcbc 77be 93bc
00000190: b520 10bd cf16 2d3d b3cb 14bd f389 65bd
000001a0: 3a84 103d e112 34bd 9819 6c3c 3f13 c43c
000001b0: 6a8d 8a3b fddb 92bd 93be 53bc be41 083d
000001c0: 6b2d 68bb 95b9 09bd 91c8 7e3d e574 16bd
000001d0: 0372 c53c 18f3 3cb9 f43f 37bd b844 0abd
000001e0: 5daa 3fbd 0a30 fabc 7b05 7c3d 6aef 85bb
000001f0: d847 22bd d808 11bd 059a 16bd 82ec 723d
00000200: 858f 11bc 0b4b 3fbc 5a18 04bd 66c3 1abb
00000210: 74b7 b43c 05ae 013d e86a 3ebc b37b 113d
00000220: cf75 1bbd ff81 51bd dd9f efbc 27b3 b63b
00000230: 3ff3 05bd a1de 333d 37b4 373c b029 00bd
00000240: edcf 56bc ed45 3dbd c1d2 89bb 24b0 6c3d
00000250: 3a41 88bd 9431 31bd aeb9 6cbd 8c5b 813c
00000260: fbd6 3abd 485a 793d 8f48 82bd 18b0 013d
00000270: 567a 2b3d 926b 96bd c442 803d 9f53 8c3d
00000280: c651 e5bc 93c4 68bc 46df fcbc 812f fbbb
00000290: abcb 423d a6ca e1bc 3bf0 39bd f641 60bd
000002a0: ce9f 07bd e995 843d daa7 3abd 4a7c cabc
000002b0: a30f 28bc 5d2a 39bd 61ce bb3b ae3d 5b3d
000002c0: 36d8 523c 19d1 df3c 7e4e 123d 77d0 34bd
000002d0: 7e3e a53c b87f 523d 5214 fcbc 2249 873c
000002e0: 904a 1d3d 2abf 12bd 1a2c 493d 7d93 01bd
000002f0: 7a2c 693d d330 1c3a bff9 b63b ab30 07bd
00000300: d503 253d db39 28bd d828 1b3c 0613 0d3c
00000310: 6038 30bd 2467 053d 6146 45bd 0882 243d
00000320: c651 143c d2aa abbc 9b77 01bd 3bd0 383d
00000330: 38fb 44bd f362 273a 6e24 43bd e4f1 bf3c
00000340: c6cb 8f3b b801 363d 7be2 a73c e9b1 46bd
00000350: 75d4 4e3d c3bf 8d3d 0af7 833d 018c d3bb
00000360: be07 bebc 7cb3 b63c 9479 85bd 02b0 03bd
00000370: f51f 1f3d 5b2b c53c 7431 8b3d 591d d5bc
00000380: fe9e 1dbd 0883 22bd 1de0 a03c 5c9a b03d
00000390: b378 143c e40d 393d 718f 183d a5e6 e8bc
000003a0: 1b85 5f3c f9fb debb d1e4 a8bc 7cf5 023d
000003b0: c6b7 a4bc 7167 0c3c e8e3 5a3d d5ac dbb7
000003c0: d825 813b 6777 433d 2a3e 26bd 3053 853a
000003d0: a34d 133d a39d 423c eb10 66bc 6717 9fba
000003e0: 1fe2 b73c 553e 023c 4834 15bd 1b26 5d3d
000003f0: 09e8 2f3c eeb1 3dbc 6036 673d 6b8d 463d
0.049169537 -0.031963386 -0.0059308424 0.023757134 0.025028957 0.06263965 -0.014809753 0.027156696
0.009336577 0.028165959 0.036330517 0.033052653 0.0026313516 -0.08637649 -0.0043976787 0.010588074
-0.025659349 -0.0018113701 0.094124876 -0.021122562 0.0009953454 -0.013621075 0.03661763 -0.03103466
-0.024643473 0.026042918 0.061005913 -0.047142833 0.03563209 -0.07434356 -0.046829794 -0.007431913
0.04748023 -0.021048782 -0.075011685 -0.058817778 -0.06507988 0.02030781 -0.029204957 0.047622927
-0.036898553 0.00034565723 0.012941433 -0.040117078 0.06716631 0.025012502 -0.07184848 0.04149919
0.019205233 -0.011067612 0.01514541 0.040084783 0.06587089 -0.0014970775 -0.069333434 0.038950887
0.0022680112 0.059344884 -0.0570018 0.027891265 -0.012375566 -0.056904547 0.04053634 0.019598987
-0.07448867 0.0006312993 0.021204133 0.047207437 -0.024320958 0.04656522 0.06200772 -0.028711049
0.009116339 0.048956614 0.03559884 -0.060337134 0.015685137 -0.026523238 0.018099038 -0.019101616
-0.030025424 -0.050871212 -0.017294165 0.04087338 0.017911142 -0.045384463 0.012651185 -0.028999174
-0.08591666 0.0093727335 -0.008313782 0.027788855 0.06960215 0.020654142 -0.010925452 -0.02049558
0.045449093 -0.045952927 -0.023058696 -0.018035157 -0.03518744 0.04225808 -0.036327075 -0.05603976
0.03528235 -0.043963317 0.014410399 0.023934959 0.0042282837 -0.07170866 -0.012923854 0.03326582
-0.0035427462 -0.03362425 0.062202994 -0.036732573 0.024102217 -0.00018019637 -0.044738725 -0.03375694
-0.04679333 -0.030540485 0.061528664 -0.0040873783 -0.039619297 -0.035408825 -0.03676798 0.059307583
-0.008884315 -0.0116756065 -0.032249786 -0.0023615002 0.022060134 0.0316601 -0.011622168 0.03551836
-0.037954148 -0.051149365 -0.029251033 0.005575556 -0.03270268 0.043913487 0.0112124 -0.031289756
-0.013111097 -0.046209265 -0.004206032 0.05778517 -0.06653066 -0.043260172 -0.057794265 0.015790723
-0.045615178 0.060877115 -0.06361496 0.031662077 0.041864716 -0.07344736 0.062627345 0.06851887
-0.027993094 -0.014207023 -0.030868184 -0.007665575 0.047557514 -0.02756245 -0.045395117 -0.054750405
-0.033111386 0.064739056 -0.045570232 -0.024717469 -0.010257634 -0.045206416 0.0057313894 0.05352562
0.0128689315 0.027321385 0.035719387 -0.04414412 0.0201714 0.051391333 -0.030771408 0.016514365
0.038401186 -0.03582684 0.049114324 -0.031634796 0.05692718 0.0005958203 0.0055839713 -0.033005398
0.040286858 -0.0410708 0.009470187 0.008610493 -0.043022513 0.032569066 -0.04816282 0.04016307
0.009052699 -0.020955477 -0.031608205 0.04512046 -0.048091143 0.0006385289 -0.047642164 0.023430772
0.0043883054 0.044435233 0.020493736 -0.048509512 0.050495584 0.06921341 0.06443603 -0.0064558988
-0.023197051 0.022302382 -0.0651733 -0.032150276 0.038848836 0.024068525 0.06796542 -0.02601497
-0.038481705 -0.039675742 0.019638116 0.08623192 0.00906198 0.045179263 0.03724617 -0.028430292
0.013642575 -0.00680494 -0.02061692 0.031972393 -0.020107161 0.008569584 0.053440005 -2.6187316e-05
0.003941279 0.047721293 -0.040586628 0.0010171887 0.035962712 0.011878404 -0.0140421195 -0.0012137712
0.02244669 0.007949431 -0.036426812 0.05399142 0.010736474 -0.011578066 0.05644834 0.04847471

module.base.1.layers.3.bias f4 [128]
00000000: c9f3 7ebd 51fc 493d 923e 55bd 03ef f1bc
00000010: 840c 1bbc aaf1 3d3b 0823 1f3b d3b9 66bd
00000020: 3d24 813b 1336 953c 5832 0b3d b11f 663d
00000030: 62b4 d3bb e0bd 76bb 4c99 8dbc 2aaf 7b3d
00000040: 8329 273d 3c40 663c 5460 163d 2c87 933b
00000050: ac1c 5a3d 6166 01bd a968 153d 5a40 513c
00000060: f954 053c 099f 28bd 4b7d d6bc 49e7 71bd
00000070: 0f7b 43bd f788 f63c d1ac a53c 578c e13b
00000080: da2f 81bd ea4d 9dbc bc5e 743a 1712 563c
00000090: 323a 413c 473d 883b d919 5dbc 195b 953c
000000a0: a848 00bd 30bb 55bd 7868 9e3c 8059 88bd
000000b0: a3f2 9cbc 8736 a7bb 6aea 8a3c 47d6 f73c
000000c0: b5b7 e43c 8c48 8c3d 49d7 9abc c623 29bd
000000d0: 3383 a43c 8a2d 24bd fe2b 1dbd 9eee 74bd
000000e0: 8e2a 2a3d 271b 96bd 0a04 8cbd 0d9e f8bb
000000f0: f43e 49bd 1518 253c f6af 5c3d ffd1 88bd
00000100: db10 cb3c 28b7 03bd b6f8 47bd c758 583c
00000110: c449 87bd 6cb8 4abd 5ac5 41bd 2864 00bd
00000120: 394f 92bb ae68 983c 3468 6bbd 05dc 123d
00000130: bf2a ebbc 7b3b 0bbd 1f1e 523d c0a6 4fbd
00000140: bff4 793c 7a3e 213d 46d7 d63c 308c 533d
00000150: 0936 aebc f44c ebbc 9906 45bc 30d1 43bd
00000160: e0fa 91bd 26d4 e33a dc90 793c 86f2 7cbd
00000170: ad54 48bd 46d6 44bd 97b6 1a3d 5b96 81bd
00000180: 5dc7 7fbc b7ce 893c b450 1c3d 25f6 223d
00000190: f5d2 98bd 728c bf3c e839 8f3b ff17 03bd
000001a0: f795 873d ab1b 00bb 76e4 ba3b 22ac 85bd
000001b0: 426c 073d 8192 64bd 9c99 4abd 40ed bfbc
000001c0: 74fa 79bc 5f36 45bc 5ac7 153d 2c80 343d
000001d0: affd 113d a154 7abd ec0a 9fbd 8f37 ec3c
000001e0: 62b1 013d 65d4 0bbd 4ccb dd3c 62f3 c9bc
000001f0: 8bfb 81bc 7e6e 75bd b72a 2e3d ebab 2a3d
-0.06224421 0.049312893 -0.052061625 -0.029532915 -0.009463433 0.0028983154 0.0024282355 -0.05632956
0.0039410875 0.018214261 0.03398356 0.056182567 -0.0064607123 -0.0037649795 -0.017285012 0.061446346
0.040811073 0.014053401 0.03671296 0.0045021977 0.05325 -0.031591777 0.036476765 0.01277169
0.008137935 -0.041167293 -0.026182791 -0.05905846 -0.04772478 0.030094607 0.020224007 0.006883185
-0.06307955 -0.019202191 0.0009321978 0.013065836 0.01179366 0.0041576955 -0.013494932 0.018231915
-0.03131929 -0.05218047 0.019336924 -0.06657696 -0.019158667 -0.0051029357 0.01695748 0.030253543
0.02791963 0.06849775 -0.018901484 -0.04129388 0.020082092 -0.040082492 -0.038372032 -0.059797876
0.04154449 -0.07329398 -0.06836708 -0.0075872005 -0.049132302 0.010076542 0.053878747 -0.066806786
0.02478831 -0.032157093 -0.048821174 0.01320476 -0.066058666 -0.049492285 -0.04730735 -0.031345516
-0.0044650105 0.018604603 -0.057472423 0.03585436 -0.028706906 -0.033992272 0.051298257 -0.050696135
0.015256106 0.039366223 0.026225697 0.051647365 -0.021266 -0.028723218 -0.012025499 -0.04780692
-0.07127929 0.0017381951 0.015232291 -0.061754726 -0.048908878 -0.04805591 0.037771787 -0.06327506
-0.015611497 0.016822202 0.038162902 0.039785523 -0.07462112 0.0233824 0.0043709166 -0.032005306
0.066204004 -0.0019547741 0.005703504 -0.06526972 0.033062227 -0.05580378 -0.0494629 -0.02342856
-0.015257467 -0.012036889 0.03656707 0.044067547 0.035642322 -0.061115865 -0.07765755 0.028835086
0.031663306 -0.034138102 0.027074479 -0.024652187 -0.015867015 -0.059919827 0.042521205 0.04166786

module.base.1.layers.5.weight f4 [128]
00000000: 53b6 893f 569f 8d3f 11f8 863f 93a7 8a3f
00000010: 3e11 893f bccb 8b3f 1c5d 8a3f f584 8f3f
00000020: 086b 813f d9a2 823f 1599 8c3f cc5b 993f
00000030: 8ed2 813f ab6c 893f 2e19 8e3f 128e 8d3f
00000040: b86f 8d3f 2748 8a3f a062 943f f420 853f
00000050: 5079 853f 5477 863f 5d47 8c3f 0d8b 843f
00000060: 9e22 903f 77bd 8e3f e0b4 8c3f 55e6 883f
00000070: cfa1 903f aea7 923f c023 913f b8bf 873f
00000080: 4c60 843f b66f 8a3f 1be7 823f 5e35 873f
00000090: 07f4 8b3f 6caf 8b3f f702 8e3f c2ee 8e3f
000000a0: 4f12 8d3f afd2 873f 111c 893f ee82 873f
000000b0: 41f2 903f 2e05 8b3f 3e43 8d3f 233a 943f
000000c0: ea72 8a3f c64f 923f 3e99 843f 1a9f 883f
000000d0: e95b 873f 3aae 8b3f 701c 8d3f b3a4 873f
000000e0: c9e6 8f3f 33c6 8a3f 40ca 873f 10df 833f
000000f0: bca8 8e3f 6135 863f 63bc 853f d2d3 903f
00000100: 7c9a 923f 3c7e 943f 1f0b 913f b966 8e3f
00000110: e179 883f f2e2 8c3f 7678 8b3f e498 8b3f
00000120: 45d7 8b3f 58da 853f 1118 8a3f 08cb 823f
00000130: 6571 803f 3561 843f 4c15 883f e579 843f
00000140: 8ed6 813f 5cdf 8b3f d1b6 8e3f 6e47 903f
00000150: a59d 8e3f 0f3b 823f a559 863f 02ad 8b3f
00000160: 9dba 823f 694b 8c3f 57f7 863f 725b 8f3f
00000170: ffa1 7e3f 9d7c 863f 3b73 9b3f 69ff 8a3f
00000180: 7a54 833f c8bb 8e3f 57ae 8a3f 5616 973f
00000190: 1cb3 8f3f 413c 8b3f 5508 8e3f 90c4 893f
000001a0: 3a20 8b3f 04e7 8b3f 8bad 8e3f 304e 8e3f
000001b0: a937 813f b62e 883f 17fc 833f 1e3a 913f
000001c0: 1214 903f e68a 873f 039c 853f ad23 923f
000001d0: 71d7 7f3f fbe5 8d3f 4c84 923f 44a6 8a3f
000001e0: ad9b 833f 659d 903f b161 8d3f b239 913f
000001f0: 1ffe 813f 2418 9c3f a118 9b3f db67 853f
1.0758766 1.106425 1.0544454 1.083239 1.0708387 1.092155 1.0809665 1.121245
1.0110788 1.0205947 1.0984217 1.1981139 1.0142381 1.0736288 1.1101434 1.1058981
1.1049719 1.0803269 1.1592598 1.0400681 1.0427647 1.0505166 1.0959278 1.0354935
1.1260564 1.115157 1.0992699 1.0695292 1.129938 1.1457422 1.1339035 1.0605383
1.0341887 1.0815341 1.0226778 1.0563161 1.0933846 1.091291 1.1094655 1.1166613
1.1021212 1.061117 1.071169 1.0586832 1.132393 1.0860956 1.1036146 1.1580242
1.0816319 1.1430595 1.0359266 1.0673554 1.0574924 1.0912545 1.1024303 1.0597137
1.1242305 1.0841736 1.0608597 1.0302448 1.1145244 1.048504 1.0448116 1.1314642
1.1453395 1.1601024 1.1331519 1.1125098 1.0662194 1.1006758 1.0896137 1.0906034
1.092507 1.0457258 1.0788594 1.021821 1.0034605 1.0342165 1.0631499 1.0349699
1.0143602 1.0927539 1.1149541 1.1271799 1.1141859 1.0174273 1.0496107 1.0912173
1.02132 1.0960513 1.0544232 1.1199782 0.99465936 1.0506779 1.214454 1.0859195
1.0260155 1.1151056 1.0834454 1.1803691 1.1226535 1.0877763 1.1096293 1.0763111
1.086921 1.0929875 1.1146711 1.1117611 1.0095111 1.0639255 1.0311307 1.1345861
1.1256125 1.0589263 1.0438236 1.1417137 0.9993811 1.108581 1.1446624 1.083199
1.0281883 1.1298033 1.1045438 1.1345732 1.0155677 1.2194867 1.2116891 1.0422319

module.base.1.layers.5.bias f4 [128]
00000000: 9393 db3c 6dfe 023d 27ee 3bbd 74b1 513d
00000010: 99d7 8dbc 0ff5 193c c14a 47bc 2f5d 22bd
00000020: 81f4 5a3d 2680 393c e4eb 093d 18be 143e
00000030: 61f2 493b 0cc4 ba3c 13dd b2bc efc6 2c3e
00000040: f429 1ebc 0e49 1d3d 0870 06be bce3 fd3c
00000050: 0b0f bfbc b32f 8c3c 122c c7bc d44f 1fbd
00000060: 5175 3fbc 9054 463d 5faa 533c d796 a7bc
00000070: 71a0 afbc 6ee7 2bbd 3b50 84bd c35f 5dbc
00000080: 8143 86bc 190a b7bc 132d b33c ed17 6b3c
00000090: d831 4a3d cc06 1c3d 783c 273d 6b46 32bc
000000a0: 0ada 09bb 06cc 57bd 619c df3b f266 e2bc
000000b0: 4eb1 8cbd 048e 343d 6ddb 773d 331e 05bd
000000c0: 757f dfbc cbd2 5a3d 1805 34bc 0d1f a9bc
000000d0: f7df 213c 3cc5 6b3d 6383 1abd 59ee 09bc
000000e0: 6b84 e3bb 7c8f a4bb 2922 d6bb 319d 373c
000000f0: 99fe 403d 97dd 6abc de6a ad39 2c69 acbd
00000100: e896 06bd 6e23 32bc 9e91 60bc b907 26bd
00000110: ce9e 24bc eb73 cf3c 0b00 5fbd df98 88bd
00000120: 793a 40bd d2b6 cd3c cdd6 b43c c106 a0bc
00000130: 86cc cf3c 2bb8 43bb f280 a93c 3212 023c
00000140: 1663 b0bb d93b 5d3d a4b0 0bbd 4ed3 873d
00000150: 2bc7 f039 7366 3cbc 9b5c 8d3d 268d 563d
00000160: 29c4 cebc 0bb3 63bd 3e29 43bd 44d8 433d
00000170: b05d 7ebc 319d 3d3c 76cf 2fbd 022d abbc
00000180: 736b 843c 3b1f 193d 0487 b23c 5269 cb3d
00000190: e4b4 94bd bfc1 653b 4476 3dbd f8fe 29bd
000001a0: e17b bd3d 8eb2 963d 014a bebc da4f f43c
000001b0: 873f 103c 8e5e 5ebc 98b5 0c3c a58e a53b
000001c0: 5b80 c93d 22c1 a43c 508f a3bc 13ec 603d
000001d0: 560a 00bc b47c 4dba 7065 7dbd b3d9 0d3d
000001e0: b3d5 03bd 9654 f0ba 6027 eebc fbe0 a53c
000001f0: bf57 30bc 1f25 1c3c f5c4 d03d 18e8 27bc
0.026803767 0.03198092 -0.045881417 0.051194623 -0.017314719 0.009396805 -0.012163819 -0.039639648
0.053455833 0.011322057 0.03367223 0.1452564 0.0030814635 0.02279856 -0.021833932 0.16872762
-0.009653557 0.03839975 -0.13128674 0.030992381 -0.023322603 0.017112589 -0.024313007 -0.03889449
-0.011685685 0.04842049 0.012919038 -0.020457668 -0.02143881 -0.041968755 -0.06460615 -0.013511601
-0.01638961 -0.022343682 0.021872079 0.014348966 0.04936394 0.03809242 0.040829152 -0.010881047
-0.0021034502 -0.052684806 0.0068240617 -0.027636979 -0.06869756 0.04408075 0.060511995 -0.032499503
-0.027282456 0.053423684 -0.010987543 -0.020644689 0.009880058 0.057561144 -0.037722956 -0.008418643
-0.0069432757 -0.0050219875 -0.006534834 0.011206911 0.047117803 -0.014335058 0.00033076754 -0.084184974
-0.03285876 -0.010872705 -0.013706593 -0.04053471 -0.010047628 0.025323829 -0.0544434 -0.06669783
-0.046930764 0.02511159 0.022075081 -0.01953447 0.025366079 -0.0029864411 0.020691369 0.007938908
-0.0053829057 0.054012153 -0.034104005 0.066321 0.0004592476 -0.011499035 0.06902429 0.052380703
-0.02524002 -0.05559067 -0.047646753 0.04781367 -0.0155252665 0.011573122 -0.04292246 -0.020895485
0.016164517 0.0373833 0.021792896 0.09932198 -0.07261065 0.0035058109 -0.046255365 -0.041502923
0.09252144 0.07358275 -0.023228647 0.029823232 0.008804209 -0.013572348 0.008588217 0.005052405
0.09838935 0.020111624 -0.019965798 0.054912638 -0.007814964 -0.00078387116 -0.061864316 0.034631442
-0.03218622 -0.0018335755 -0.02907151 0.02024888 -0.010763108 0.009530335 0.101938166 -0.010248207
